c1-dqn/dqn/src/DQN_├╩▒Γ/xy2Dsimulator/new/save/main_model_000010.pth (torch_old, 274727 bytes, 6 tensors)

main_model.InputLayer.weight f4 [256, 6]
0	0xbe1156da	-0.14193287
1	0xbd1640a7	-0.03668275
2	0x3dd2b11a	0.10287686
3	0xbeb75e4d	-0.35814133
4	0x3ebfc3fb	0.3745421
5	0xbe9fef59	-0.31237295
6	0xbe7fe5b4	-0.24989969
7	0xbd7cc690	-0.0617128
8	0xbe4d7890	-0.20065522
9	0xbdc09284	-0.09402946
10	0xbeb9f720	-0.36321354
11	0x3ecc18e4	0.3986274
12	0xbeaac80c	-0.3335575
13	0xbd3da3b8	-0.046298712
14	0x3ea3dbf4	0.32003748
15	0x3da0fe6c	0.07861027
16	0xbe5ab2f8	-0.21357334
17	0xbe69e950	-0.22842908
18	0x3dbe79bb	0.09300562
19	0xbed9026a	-0.42384654
20	0x3ea82624	0.328416
21	0xbe7cee09	-0.24700178
22	0xbd85a829	-0.06526215
23	0x3ed00fa4	0.40636933
24	0x3df29e8a	0.11846645
25	0xbe8baa19	-0.27278212
26	0x3e1c858a	0.15285316
27	0x3e9d2c75	0.3069798
28	0x3d0b1029	0.03395096
29	0x3e89fab5	0.26949087
30	0x3e593889	0.21212973
31	0x3e1658c6	0.14682302
32	0xbd069b90	-0.0328632
33	0xbea1f13b	-0.31629357
34	0x3e9d2eef	0.3069987
35	0xbe994ee9	-0.29943016
36	0x3d9745bd	0.073863484
37	0x3e804918	0.25055766
38	0xbe28e5aa	-0.1649386
39	0x3e8a2875	0.2698399
40	0xbea1797d	-0.31538
41	0xbd5ef7a1	-0.054435376
42	0x3e9acbf7	0.30233738
43	0xbec429a4	-0.3831302
44	0xbe30c883	-0.17263989
45	0xbdf4b245	-0.11948065
46	0x3e83a7af	0.2571387
47	0x3d618440	0.055057764
48	0x3d945d3b	0.07244345
49	0xbe0711fb	-0.13190453
50	0xbd4ee9bc	-0.050515875
51	0xbef0dbc1	-0.4704266
52	0xbcee4055	-0.02908341
53	0xbf01e00d	-0.507325
54	0xbd9d7432	-0.07688178
55	0xbda6565c	-0.081219405
56	0x3e4a5a68	0.1976105
57	0xbd245c08	-0.04012683
58	0xbe6b910d	-0.23004551
59	0x3e6d75cb	0.23189466
60	0xbe4f1162	-0.20221475
61	0x3e404440	0.18776035
62	0xbd2e4b3a	-0.04255221
63	0x3d0f6212	0.035005637
64	0x3e844f36	0.25841683
65	0xbec2e229	-0.38063172
66	0x3e79026e	0.24317333
67	0x3e65a2b6	0.2242535
68	0x3d22109c	0.03956662
69	0xbd9fe228	-0.07806808
70	0xbe3e862d	-0.18605871
71	0xbd55bc20	-0.052181363
72	0x3d3854b8	0.04500267
73	0xbeacedd9	-0.33775213
74	0xbdd97738	-0.10618442
75	0x3e3dae60	0.1852355
76	0xbec9d379	-0.39419153
77	0xbddc73b4	-0.10764256
78	0xbd13ee8e	-0.036116175
79	0x3ebb580b	0.3659061
80	0x3d8bfe84	0.068356544
81	0xbe307784	-0.17233092
82	0xbe3c843e	-0.18409821
83	0x3e560a49	0.20902361
84	0x3cc9a0bf	0.024612783
85	0xbe8df105	-0.27722946
86	0xbe066777	-0.13125406
87	0x3eaddf0f	0.33959243
88	0xbe291999	-0.16513671
89	0xbeb9d0ac	-0.36292017
90	0x3e8c4e1f	0.27403352
91	0x3e8a88d6	0.27057523
92	0x3e89240a	0.26785308
93	0x3e988ac4	0.2979337
94	0xbd457637	-0.04820844
95	0xbd44c982	-0.048043735
96	0x3e3cb8a9	0.18429817
97	0xbec1f83a	-0.37884694
98	0xbe470eb0	-0.19439197
99	0x3d9233a1	0.07138754
100	0xbe5d6f37	-0.21624456
101	0x3e41df7b	0.18932907
102	0xbe5cdefe	-0.2156944
103	0x3bc16a91	0.0059025963
104	0x3d20f2a8	0.039293915
105	0xbed903a9	-0.42385605
106	0x3e958fe3	0.2921134
107	0x3e859277	0.26088306
108	0xbea8b42e	-0.32949966
109	0x3ea51170	0.32239866
110	0xbe1ab246	-0.15107068
111	0x3e7f7010	0.24945092
112	0xbca5731e	-0.020196494
113	0xbed24bfe	-0.41073602
114	0x3e96d28c	0.2945751
115	0x3e4edc49	0.2020122
116	0x3e4f63e6	0.20252952
117	0x3de43bd5	0.111442246
118	0x3e9dbaa1	0.3080645
119	0xbe99b384	-0.30019772
120	0x3e506278	0.20350063
121	0x3d56bdb1	0.052426998
122	0xbd3c01f0	-0.045900285
123	0xbde67760	-0.11253238
124	0xbeed42a8	-0.46339917
125	0x3d192a28	0.03739372
126	0xbdcfa094	-0.1013805
127	0xbec29232	-0.38002163
128	0x3ea713be	0.3263225
129	0xbda115db	-0.07865497
130	0xbe027197	-0.12738644
131	0x3e08dd86	0.13365754
132	0x3e968f36	0.29406136
133	0x3eb114f6	0.34586304
134	0x3ea0e63a	0.3142565
135	0x3db38000	0.087646484
136	0xbd75dadc	-0.060023174
137	0x3ce2b2d9	0.027673172
138	0x3e47955b	0.19490568
139	0x3e18e70d	0.14931889
140	0x3e1a0198	0.1503967
141	0xbeb8c025	-0.36084095
142	0xbe9e40ea	-0.309089
143	0xbd5a68ac	-0.05332248
144	0x3e7d85a4	0.24758011
145	0xbd633079	-0.05546615
146	0x3ea6b8c6	0.32562846
147	0xbec4f3d4	-0.38467276
148	0x3dba8653	0.091076516
149	0xbdc11bef	-0.09429156
150	0xbc9d2df6	-0.019186955
151	0x3dd52f78	0.104094446
152	0xbea636ef	-0.32463786
153	0xbbd95d97	-0.006633471
154	0x3eafbfe8	0.343261
155	0x3e954a4b	0.29158244
156	0xbe710ebe	-0.2354078
157	0x3e92f11f	0.28699586
158	0x3cbd88db	0.023136547
159	0xbc146f69	-0.009059765
160	0x3e515e8e	0.20446226
161	0x3e4c2c64	0.19938809
162	0xbe45e382	-0.19325069
163	0xbec5a82d	-0.3860487
164	0xbe14b3c4	-0.145217
165	0xbddf2128	-0.10894996
166	0x3d63b940	0.05559659
167	0xbe9e4572	-0.30912358
168	0xbe3f87cf	-0.1870415
169	0x3ce87930	0.0283781
170	0xbe8348c0	-0.2564144
171	0x3ddad030	0.1068424
172	0xbe8bead6	-0.27327603
173	0xbde6dc2c	-0.11272463
174	0x3dfbd09a	0.12295647
175	0xbd1461b9	-0.036226008
176	0xbe954f5d	-0.29162112
177	0x3da1ac94	0.07894245
178	0x3eb82840	0.35968208
179	0x3e859d2a	0.2609647
180	0x3d524228	0.051332623
181	0xbe39a42c	-0.18129033
182	0xbe89acbf	-0.26889607
183	0xbe5990ef	-0.21246694
184	0xbd0a63c0	-0.033786535
185	0x3c0d6240	0.008629382
186	0x3e980f41	0.29699138
187	0xbe4fe433	-0.20301895
188	0x3ea7ea06	0.32795733
189	0xbea84d32	-0.32871395
190	0x3eabf761	0.33587173
191	0xbdac3630	-0.08408773
192	0xbe1ad5f7	-0.15120684
193	0x3dd8bcb6	0.10582869
194	0xbe88c967	-0.26716158
195	0xbe52af6a	-0.20574728
196	0x3d420458	0.047367424
197	0xbeb69ec5	-0.35668007
198	0xbdffd8ef	-0.12492549
199	0xbda27de2	-0.079341665
200	0xbe21b140	-0.15790272
201	0x3e0fe3f5	0.14051802
202	0x3e8c69ab	0.27424368
203	0x3e1ce20d	0.15320607
204	0xbd1fd6f7	-0.039023366
205	0xbe219d2c	-0.15782613
206	0x3e2584fa	0.16164008
207	0xbd85f4ef	-0.06540858
208	0x3e44715e	0.19183871
209	0xbe989b7b	-0.29806122
210	0x3d31eb51	0.043437306
211	0x3e29e9cc	0.16593093
212	0x3c2ecc73	0.010668862
213	0xbe87c639	-0.2651842
214	0x3db000f4	0.08593932
215	0xbe12d182	-0.14337733
216	0xbe80c9f1	-0.2515407
217	0x3c8b2ba0	0.016988575
218	0x3ea04ce8	0.31308675
219	0xbea1b2a3	-0.31581602
220	0xbe861521	-0.26187995
221	0xbde82670	-0.11335456
222	0xbe0ecaee	-0.13944599
223	0xbd8f5c17	-0.069999866
224	0x3e703b06	0.23460016
225	0x3e5bb698	0.21456373
226	0xbe8fca5d	-0.28084078
227	0xbee22a3d	-0.4417285
228	0x3dca547e	0.09879397
229	0x3e1074ac	0.14107007
230	0xbe94c066	-0.29053038
231	0x3cc3fe2d	0.023924911
232	0x3e3de316	0.18543658
233	0xbe359702	-0.17733386
234	0x3ddd6990	0.1081115
235	0x3e162c3f	0.14665316
236	0xbce0bc69	-0.027433591
237	0xbea8955e	-0.32926458
238	0x3ca47d22	0.0200792
239	0x3eaa9b47	0.33321592
240	0xbe41ca10	-0.18924737
241	0xbe0bc9e2	-0.13651231
242	0x3e443f66	0.1916481
243	0xbe8a96e7	-0.27068254
244	0x3eaa8bc4	0.33309758
245	0xbe4feefa	-0.20306006
246	0xbe797003	-0.24359135
247	0x3ea48b61	0.32137588
248	0xbd28955f	-0.041158076
249	0x3cb910d6	0.022591036
250	0xbd405d6f	-0.046964105
251	0xbb90efe4	-0.0044231284
252	0x3e03bc93	0.12864904
253	0xbd41d723	-0.04732431
254	0xbebfeb64	-0.37484276
255	0x3e91265a	0.28349572

main_model.InputLayer.bias f4 [256]
0	0x3e8a30a2	0.2699023
1	0xbd506ff0	-0.050888002
2	0x3eb85757	0.36004135
3	0x3e84e2fb	0.25954422
4	0x3e0adef8	0.13561618
5	0xbe08e722	-0.1336942
6	0xbea973b6	-0.33096093
7	0xbd96cdf4	-0.07363501
8	0xbe4f404c	-0.20239371
9	0x3eb16af6	0.34651917
10	0xbd771778	-0.060325116
11	0xbed7d9a7	-0.42158243
12	0x3edfae59	0.43687704
13	0xbdabfd27	-0.08397894
14	0xbe8f47a2	-0.2798434
15	0xbeb6e4ca	-0.35721427
16	0xbea7fa00	-0.32807922
17	0x3e747f7c	0.23876756
18	0x3ec4ada3	0.38413724
19	0xbe2547e6	-0.16140708
20	0x3dfb4a84	0.12270072
21	0xbe4b8546	-0.19875059
22	0x3ea92d09	0.33042172
23	0xbdf9e6f7	-0.12202256
24	0x3df299a5	0.118457116
25	0xbe26c261	-0.16285087
26	0xbe44b122	-0.19208196
27	0x3e3681da	0.17822972
28	0xbe16874c	-0.14700049
29	0xbc931996	-0.017956536
30	0x3ecec1a8	0.40382123
31	0x3d32fb70	0.04369682
32	0x3f04747d	0.51740247
33	0xbe4bb160	-0.19891882
34	0xbd754a6c	-0.059885427
35	0xbe895d3b	-0.26828942
36	0x3efe9c50	0.49728632
37	0xbea695aa	-0.3253606
38	0xbe922286	-0.28541964
39	0x3dd22730	0.10261381
40	0xbeb714e1	-0.35758117
41	0xbd5b9a05	-0.05361368
42	0x3e953789	0.29143932
43	0xbe948670	-0.29008818
44	0x3edb12c8	0.42787766
45	0x3dcbbb13	0.09947791
46	0xbc54c700	-0.012986898
47	0xbe190395	-0.14942773
48	0xbeac1912	-0.33612877
49	0xbee20eb9	-0.44151857
50	0xbec69b58	-0.38790393
51	0x3f0d31c2	0.5515405
52	0xbe956d19	-0.29184797
53	0x3edb386b	0.4281648
54	0x3e34b241	0.17646123
55	0xbed4b000	-0.41540527
56	0x3ec4a102	0.3840409
57	0x3e18ced6	0.14922652
58	0x3dcfca90	0.101460576
59	0x3d916daf	0.071009986
60	0x3e27088e	0.16311857
61	0xbe1d6950	-0.15372205
62	0x3ca94728	0.020663813
63	0xbe79bbdc	-0.24388069
64	0xbe106228	-0.14099944
65	0xbecf2182	-0.40455252
66	0xbebfbf7f	-0.37450787
67	0x3eee1a61	0.465045
68	0xbd47aa74	-0.04874654
69	0xbe8062be	-0.25075334
70	0xbe355de8	-0.17711604
71	0x3ec2cfbc	0.38049114
72	0xbcac6c70	-0.0210478
73	0xbe479b4e	-0.19492838
74	0x3c75fb2d	0.015013498
75	0xbcfd6610	-0.030932456
76	0xbe2f895a	-0.17142239
77	0xbe87b26b	-0.2650331
78	0x3f01ed35	0.50752574
79	0xbe82064e	-0.25395435
80	0x3ebe420f	0.37159774
81	0xbec2df44	-0.38060963
82	0x3ed0acbb	0.40756783
83	0xbebaeabd	-0.36507216
84	0x3cb2005a	0.021728683
85	0x3d12f779	0.03588054
86	0xbe8e9a94	-0.2785231
87	0xbeb1056d	-0.34574452
88	0xbea88417	-0.32913277
89	0x3ea9a05c	0.33130157
90	0xbd135e29	-0.03597847
91	0xbea74b6d	-0.32674733
92	0xbec95360	-0.39321423
93	0xbeb3c4c9	-0.35111073
94	0xbecaf508	-0.3964007
95	0xbd380d81	-0.044934753
96	0xbd3a993e	-0.0455563
97	0x3e05ebe3	0.13078265
98	0x3e7f0843	0.24905495
99	0xbec286f2	-0.3799358
100	0xbd1e9cdd	-0.038723815
101	0xbe5184bc	-0.2046079
102	0xbe1cf572	-0.15328005
103	0x3ecbc67c	0.3979987
104	0xbed8f720	-0.4237604
105	0x3e242118	0.1602825
106	0xbea2f38b	-0.31826434
107	0x3e61db38	0.22056282
108	0xbe349c7c	-0.17637819
109	0xbca4de20	-0.020125449
110	0xbec9b29a	-0.39394075
111	0xbdb5b334	-0.08872071
112	0xbce69900	-0.028149128
113	0xbea4896c	-0.32136095
114	0xbdce28bf	-0.100663655
115	0xbe9504cc	-0.29105222
116	0x3ea0dcaf	0.31418368
117	0xbe3162d5	-0.17322858
118	0x3f082bd0	0.5319185
119	0x3d850dbd	0.06496761
120	0x3ea34c25	0.3189403
121	0xbeadbb50	-0.3393197
122	0x3e8db7f5	0.2767941
123	0xbe319fa2	-0.17346051
124	0xbe1f9082	-0.15582469
125	0x3e19b214	0.15009338
126	0xbdc279a4	-0.09495857
127	0x3e1d068f	0.15334533
128	0xbda86b14	-0.082235485
129	0xbd7ad710	-0.061240256
130	0x3c67506d	0.014118296
131	0x3dc6a414	0.09699264
132	0x3e915611	0.28385976
133	0xbecba6c7	-0.3977568
134	0x3f05a4ef	0.52204794
135	0xbecfc158	-0.40577197
136	0xbd893234	-0.066990286
137	0x3ed48db0	0.4151435
138	0x3e170a0e	0.1474993
139	0xbe060818	-0.13089025
140	0x3ec7a851	0.38995603
141	0xbea70102	-0.32617956
142	0xbe58d0df	-0.21173428
143	0x3ea18b81	0.31551746
144	0x3ebe03a1	0.37112144
145	0xbe9ac147	-0.30225584
146	0x3e3c2823	0.18374686
147	0xbeae62ab	-0.34059653
148	0x3e6fa7d5	0.23403867
149	0x3ee6f52d	0.4510893
150	0xbd12037b	-0.03564785
151	0xbe87b08a	-0.26501876
152	0x3e73b8e6	0.23801002
153	0xbdb57e28	-0.08861953
154	0xbe0c1499	-0.13679732
155	0x3eace264	0.33766472
156	0x3e03c7f5	0.12869246
157	0x3ec3ae4f	0.38218924
158	0xbeecd77e	-0.46258157
159	0x3e4e30c7	0.20135795
160	0x3e09b9fe	0.13449857
161	0xbe80e331	-0.25173333
162	0xbd5256ca	-0.0513523
163	0x3e914eb2	0.28380352
164	0xbe3d076c	-0.18459862
165	0x3e0119bb	0.12607472
166	0x3f08f264	0.5349486
167	0xbdf6ce29	-0.12051041
168	0x3e35770b	0.17721193
169	0x3dbf3e75	0.093380846
170	0xbe035b66	-0.12827834
171	0xbc962810	-0.01832965
172	0x3d9486f6	0.07252304
173	0x3e8964f9	0.2683485
174	0x3e87b775	0.26507154
175	0xbe877683	-0.26457605
176	0x3da142bb	0.07874056
177	0xbe3658e2	-0.17807344
178	0x3ecb1f55	0.39672342
179	0x3e5e22d8	0.2169298
180	0xbe2749a2	-0.16336682
181	0xbe29d33b	-0.16584484
182	0xbe897c59	-0.26852682
183	0x3ea6e5e0	0.32597256
184	0x3de72725	0.11286763
185	0x3e5843a9	0.2111956
186	0xbe3a8242	-0.18213752
187	0xbe123bbc	-0.142806
188	0x3eb3d377	0.35122272
189	0xbebedf69	-0.37279823
190	0x3dbd216d	0.09234891
191	0xbdaab7c4	-0.08335832
192	0xbd8606ba	-0.06544252
193	0xbead4fdd	-0.33849993
194	0x3cf9ba0a	0.030484218
195	0x3d4e3dbe	0.05035185
196	0x3f0a3346	0.5398449
197	0x3ec1ddce	0.37864536
198	0xbede98f9	-0.43476084
199	0xbe68e94a	-0.22745243
200	0x3e939a20	0.28828526
201	0x3e3933e8	0.18086207
202	0xbd3e9880	-0.046532154
203	0x3eba80a1	0.3642626
204	0xbdb074ac	-0.086160034
205	0x3e8405f0	0.2578578
206	0xbccec386	-0.025239717
207	0x3e8afef6	0.27147645
208	0x3ebad1f3	0.36488304
209	0xbe62e6cf	-0.22158359
210	0x3e7b3e76	0.24535546
211	0x3e4a3136	0.19745335
212	0x3ea400e9	0.32031944
213	0xbd05d900	-0.03267765
214	0x3ea3d3f3	0.31997642
215	0xbea87d47	-0.3290808
216	0x3ec0518b	0.37562212
217	0x3ebc7d5b	0.3681439
218	0x3e85e1ce	0.26148838
219	0x3ebfa1c4	0.37428105
220	0x3e69b44b	0.22822683
221	0xbe5ddf4e	-0.21667215
222	0xbe877403	-0.26455697
223	0xbe1674f1	-0.14693047
224	0x3d5a7440	0.05333352
225	0xbeb37ec0	-0.3505764
226	0xbea627f4	-0.32452357
227	0x3e52c92d	0.20584555
228	0x3e60c79b	0.21951143
229	0xbd9cc0a5	-0.076539315
230	0xbe68921d	-0.22711988
231	0x3e907cc1	0.2822018
232	0xbe67080f	-0.22561668
233	0xbec742bc	-0.38918102
234	0xbe4a8251	-0.19776274
235	0x3e383101	0.17987444
236	0x3ee180b0	0.44043493
237	0x3e2e8038	0.17041099
238	0x3e5de785	0.21670349
239	0x3eaa0a77	0.3321111
240	0x3baf8b84	0.0053572077
241	0xbe5f3317	-0.21796833
242	0xbc882013	-0.016616857
243	0x3f045da9	0.51705414
244	0x3e456579	0.1927699
245	0x3e4c8813	0.19973783
246	0x3ebe05d4	0.37113822
247	0x3eff4d69	0.49863747
248	0x3eca6361	0.39528945
249	0x3db4f9dc	0.088367194
250	0x3bc02275	0.0058634826
251	0x3e2442a8	0.16041052
252	0x3ed769c3	0.42072877
253	0xbe9deb95	-0.30843797
254	0xbe2ee5d9	-0.17079867
255	0xbec96493	-0.39334545

main_model.hiddenlayer_0.weight f4 [256, 256]
0	0xbd82b8b4	-0.063828856
1	0x3cb5b41c	0.02218061
2	0x3d10a4ea	0.035313524
3	0x3d5528aa	0.052040733
4	0x3b38335f	0.0028106791
5	0xbd27cdd0	-0.040967762
6	0xbc91879a	-0.017764855
7	0x3ce0ad70	0.027426451
8	0xbba92970	-0.0051624104
9	0xbd209f6a	-0.03921453
10	0x3b3c5395	0.0028736342
11	0xbd09e869	-0.03366891
12	0xbd694a1e	-0.05695545
13	0x3c27aeb3	0.010234523
14	0xbbf566c0	-0.0074890554
15	0x3d446815	0.047950823
16	0x3caa1fd4	0.02076713
17	0x3d420a14	0.047372892
18	0x3d622a7d	0.0552163
19	0xbd1d7a18	-0.038446516
20	0xbd0f7e90	-0.03503281
21	0xbcfb66e8	-0.030688718
22	0xbd27c5e4	-0.040960208
23	0x3cb50089	0.022094982
24	0xbd35f326	-0.044421338
25	0xbd7180ff	-0.05896091
26	0x3d382294	0.04495485
27	0x3d0555e4	0.032552615
28	0xbc87d26c	-0.01657983
29	0xbc9aca7d	-0.018895382
30	0x3ca7cb74	0.020482756
31	0xbc0aa146	-0.008461302
32	0xbc229088	-0.009922154
33	0xbd140fac	-0.03614776
34	0xbd27f862	-0.04100836
35	0xbc456f22	-0.012050422
36	0xbbc3ae00	-0.00597167
37	0x3b76a2b4	0.00376336
38	0x3c070eab	0.008243243
39	0x3cf74536	0.03018437
40	0x3d339bed	0.043849874
41	0x3c4c8005	0.012481694
42	0xbd853378	-0.065039575
43	0x3b2f3fa0	0.0026740804
44	0xbc723c40	-0.0147848725
45	0x3b212b63	0.002459251
46	0x3c0dc0f8	0.008651964
47	0xbd27da32	-0.04097957
48	0xbd6bd02e	-0.057571582
49	0x3b9a76c5	0.0047138655
50	0x3c794e90	0.015216485
51	0x3cd754dc	0.026285581
52	0xbc9cad08	-0.019125476
53	0x3d5ac0ea	0.053406633
54	0x3c643890	0.013929501
55	0xbce0f9d8	-0.027462885
56	0xbcd67fe7	-0.026184035
57	0x3ba6a84d	0.005085981
58	0xbd35c2df	-0.044375297
59	0xbc464e00	-0.012103558
60	0xbd1be53b	-0.038060408
61	0x3d440c82	0.04786349
62	0xbd5b9dd2	-0.053617306
63	0xbca3936f	-0.019967763
64	0x3ca9b1f4	0.020714737
65	0xbd3cbf40	-0.046080828
66	0x3d07175b	0.032981258
67	0xbd4e887e	-0.050423138
68	0x3c20cdef	0.009814723
69	0xbc97a8c4	-0.01851309
70	0xbd041ee8	-0.032256037
71	0xbca2a860	-0.019855678
72	0x3c82c200	0.015961647
73	0x3d5a1894	0.053246096
74	0x3d5971e1	0.05308712
75	0x3d1acc78	0.037792653
76	0x3d46512f	0.048417266
77	0xbd023ad6	-0.03179439
78	0xbd592815	-0.05301674
79	0x3be84c64	0.0070891846
80	0x39e7aff2	0.00044190843
81	0x3c781b91	0.015143291
82	0x3cda6630	0.026660055
83	0x3d3b68d6	0.045754276
84	0x3d0ac0ae	0.03387516
85	0xbd023583	-0.031789314
86	0x3d2570aa	0.040390648
87	0xbcb7f468	-0.02245541
88	0xbd0dec7c	-0.034649357
89	0x3bb9e421	0.005672947
90	0xbcbebc41	-0.023283126
91	0xbd4e129c	-0.050310716
92	0x3c58fd70	0.013244018
93	0xbc5a9e6a	-0.013343433
94	0xbcf7de3d	-0.030257339
95	0xbcb001d4	-0.021485247
96	0x3d797692	0.060904093
97	0x3d562685	0.05228283
98	0x3d1a2cdc	0.037640437
99	0xbd45bfb8	-0.04827854
100	0xbd055aa0	-0.03255713
101	0xbc2d61b8	-0.01058238
102	0xbc4f57a0	-0.012655169
103	0xbd6c93c2	-0.0577581
104	0x3a89a2d4	0.0010500797
105	0xbd26b30d	-0.0406981
106	0x3c76917e	0.0150493365
107	0xbc7f1d00	-0.015570879
108	0xbc79e2bd	-0.0152518125
109	0x3d280808	0.041023284
110	0xbd24b478	-0.04021117
111	0xbd24ffd0	-0.040283024
112	0xbc385a28	-0.011251964
113	0x3cad8d78	0.021185622
114	0x3c940e6c	0.018073283
115	0xbd747315	-0.059680063
116	0xbcd11a0c	-0.025525115
117	0x3d5d0242	0.05395723
118	0xbcb1a644	-0.021685727
119	0xbd0bd43e	-0.034137957
120	0xbc05275e	-0.008127062
121	0x3ccf5900	0.025310993
122	0xbce19182	-0.027535204
123	0x3c9d266e	0.019183364
124	0x3c52dee0	0.01287052
125	0x3cda352f	0.026636688
126	0xbb95e230	-0.004574083
127	0xbca8c3fe	-0.020601269
128	0x3c02fbe0	0.007994622
129	0x3d595856	0.05306276
130	0x3d15b91e	0.036553495
131	0xbd474e2c	-0.048658535
132	0xbd3abf27	-0.045592453
133	0x3cb970f0	0.02263686
134	0x3c70bcd8	0.014693461
135	0xbcf40ae0	-0.029790342
136	0xbd82a783	-0.063796066
137	0xbce94d08	-0.028479114
138	0xbd29dc0f	-0.04146963
139	0xbd33198c	-0.043725535
140	0x3c2d9d20	0.010596544
141	0xbcb5ac09	-0.02217676
142	0xbc114a16	-0.008867761
143	0xbc485bb3	-0.012228894
144	0x3d5c4820	0.05377972
145	0x3d7e36ca	0.06206397
146	0xbc8efdd0	-0.017455012
147	0xbc467892	-0.012113707
148	0x3cb4a73c	0.0220524
149	0x3d3273e6	0.04356756
150	0xbd7cda69	-0.06173173
151	0xbc1dc378	-0.009629123
152	0x3bb88cd4	0.0056320224
153	0x3cc2d28c	0.023782037
154	0x3cd394f9	0.025827872
155	0xbb2c44c0	-0.0026286095
156	0x3d033c44	0.032039896
157	0xba541580	-0.0008090362
158	0x3c73b7a6	0.014875328
159	0xbb6323c6	-0.0034658774
160	0xbd1393f9	-0.03602979
161	0xbcfdb79e	-0.030971345
162	0xbcb6f0aa	-0.022331554
163	0xbc096196	-0.008385083
164	0x3d1dca06	0.038522743
165	0x3ac02880	0.0014660507
166	0xbd569072	-0.052383848
167	0xbc7d2605	-0.015450959
168	0xbd720912	-0.05909068
169	0x3d40bd2b	0.047055405
170	0xbca1165f	-0.019663988
171	0xbd4640c8	-0.048401624
172	0xbd8f8eef	-0.07009684
173	0xbd4d97f6	-0.05019375
174	0xbb4c436f	-0.0031168123
175	0xbcb2e005	-0.021835336
176	0x3c29552d	0.010335249
177	0xbd565440	-0.05232644
178	0x3d641b42	0.055690058
179	0xba8eded8	-0.0010900153
180	0xbd3f9ae0	-0.04677856
181	0xbcdee8b9	-0.02721058
182	0xbd5e8c09	-0.054332767
183	0xbc0fe178	-0.008781783
184	0x3d30608e	0.04306083
185	0xbc820f49	-0.01587643
186	0xbd57686a	-0.05258981
187	0x3d70ea84	0.0588174
188	0xbc4ffd28	-0.0126946345
189	0x3d5b3fc9	0.053527627
190	0xbbcde108	-0.0062829293
191	0xbc984bfc	-0.01859092
192	0xbd5a1188	-0.053239375
193	0x3cb72538	0.022356614
194	0x3bf0e37f	0.0073513384
195	0xbd0a6be1	-0.033794288
196	0x3d3f2378	0.046664685
197	0xbd00ac14	-0.031414106
198	0x3d1daccc	0.03849487
199	0xbcf05e38	-0.029341802
200	0x3d3ee592	0.046605654
201	0xbd554bda	-0.05207429
202	0xbb0154a0	-0.0019734278
203	0x3c1add4a	0.0094521735
204	0xbc282158	-0.010261856
205	0x3d3db7c8	0.046317846
206	0xbc9138c5	-0.017727265
207	0xbd2e5a3c	-0.042566523
208	0xbd1fdda3	-0.03902973
209	0xbd63b624	-0.055593625
210	0xbc93edc8	-0.018057719
211	0xbd4788b2	-0.048714347
212	0x3ccf0e5c	0.025275402
213	0x3c343178	0.010998122
214	0x3d347422	0.044056065
215	0x3c9d2be1	0.019185962
216	0xbd341dfe	-0.043973915
217	0xbd10f610	-0.035390913
218	0xbd15cf50	-0.03657466
219	0x3b3b80ef	0.0028610786
220	0xbd8d0f40	-0.06887674
221	0x3d2a703a	0.041610934
222	0xbcafc629	-0.021456795
223	0xbd438e16	-0.047742926
224	0xbce4e6a8	-0.027942017
225	0xbbc8e710	-0.0061310604
226	0x3bcf8310	0.0063327625
227	0x3c69f551	0.014279679
228	0x3d2e3def	0.042539533
229	0xbcc2b1fa	-0.023766506
230	0x3bd8a5e2	0.0066115716
231	0xba160880	-0.00057233125
232	0xbcd1b425	-0.025598595
233	0xbd367c94	-0.0445524
234	0x3cee6414	0.029100455
235	0xbd3b440c	-0.04571919
236	0xbd656e42	-0.056013353
237	0xbcd98785	-0.026553879
238	0x3d2e5102	0.042557724
239	0x3cde8d0c	0.027166866
240	0xb9deb030	-0.0004247441
241	0x3cb5bdc4	0.022185214
242	0x3ce2176b	0.027599057
243	0x3bb16260	0.0054133385
244	0x3d1ec2dc	0.03876005
245	0x3d1b8ccf	0.037976082
246	0xbbd94ec0	-0.006631702
247	0x3d60b838	0.054863185
248	0xbd651035	-0.05592366
249	0xbd5dddd4	-0.05416663
250	0xbc85af37	-0.0163189
251	0x3d0a22ef	0.03372472
252	0x3b89b370	0.004202299
253	0xbc4c8ff5	-0.012485494
254	0xbca9bdc4	-0.02072037
255	0x3cc3252c	0.023821436

main_model.hiddenlayer_0.bias f4 [256]
0	0xbd11df8e	-0.03561359
1	0xbd589adb	-0.052882057
2	0x3c7e56a8	0.01552359
3	0x3d2140df	0.039368507
4	0xbb89e318	-0.00420798
5	0x3c2497d4	0.010045964
6	0xbd6eced9	-0.058302734
7	0x3c4dff77	0.012573115
8	0x3d1557d7	0.036460724
9	0xbc6c1281	-0.014408709
10	0x3cafb135	0.021446804
11	0xbd7a0be4	-0.061046496
12	0xbcc82034	-0.024429418
13	0x3ca55076	0.020179968
14	0x3d59dc49	0.053188596
15	0x3d5d6db8	0.054059714
16	0xbd6517d0	-0.055930912
17	0x3c782e41	0.015147747
18	0xbd71c9d5	-0.059030373
19	0x3bf033d1	0.0073303957
20	0xbbdd7550	-0.0067583695
21	0x3d49983c	0.049217448
22	0xbd083123	-0.033249985
23	0x3d751f2e	0.05984419
24	0x3d18913f	0.037247892
25	0x3d02323c	0.03178619
26	0xbcf61496	-0.030039113
27	0xbd3ec2f9	-0.04657266
28	0x3d572594	0.05252607
29	0x3e100b9c	0.14066929
30	0x386e56c9	5.6824447e-05
31	0x3d66f840	0.056389093
32	0x3bbfef07	0.0058573517
33	0xbd1cd6f9	-0.03829095
34	0x3be215c5	0.006899568
35	0xbd07afe0	-0.03312671
36	0x3b369783	0.0027861304
37	0xbd85b2cd	-0.06528244
38	0x3d232353	0.03982861
39	0xbd696f5a	-0.05699096
40	0x3e318e7c	0.1733951
41	0xbd494e60	-0.04914701
42	0x3d4109a5	0.04712834
43	0xbc3b4f5e	-0.011432497
44	0x3cc425e9	0.023943858
45	0x3e4cf26c	0.20014352
46	0xbd8912ae	-0.06693016
47	0x3c9ba919	0.01900153
48	0xbbec984f	-0.007220305
49	0xbc2c0b9c	-0.010500815
50	0x3c4ad2fc	0.012379404
51	0xbd0ff259	-0.03514323
52	0x3c9c0bc2	0.019048575
53	0xbc6c7134	-0.014431287
54	0xbcc114e0	-0.023569524
55	0xbc1aacd9	-0.009440624
56	0xbc23ba00	-0.009993076
57	0xbcf41574	-0.029795386
58	0xbc9579bc	-0.018246524
59	0xbcc1ad38	-0.023642167
60	0x3baa17dd	0.005190833
61	0x3d409ce8	0.047024637
62	0xbc8b1aff	-0.016980646
63	0xbd5d2117	-0.053986635
64	0x3c557b3d	0.013029871
65	0xbce89408	-0.0283909
66	0xbd0eb553	-0.034840893
67	0xbd5b0dca	-0.053479947
68	0x3ccf0501	0.02527094
69	0xbd5a9cc4	-0.05337216
70	0x3d38d9f2	0.045129724
71	0x3df84498	0.12122458
72	0x3c8308de	0.01599544
73	0xbd2961a4	-0.041352883
74	0x3c87dbbd	0.016584272
75	0xb9e6c5b9	-0.00044016333
76	0xbd183ffa	-0.037170388
77	0x3c38290e	0.011240257
78	0x3cf42f3d	0.029807681
79	0x3ce42d18	0.027853534
80	0xbd877646	-0.06614356
81	0x3d621d1c	0.055203542
82	0x3d261047	0.040542867
83	0xbce0c253	-0.027436411
84	0x3d2e604c	0.042572305
85	0xbd8ae589	-0.067820616
86	0x3bd51697	0.006502937
87	0x3d4a900b	0.049453776
88	0xbd134363	-0.035952937
89	0x3c10982d	0.008825344
90	0xbcf85c54	-0.030317463
91	0xbd6191ea	-0.055070795
92	0x3d02a55a	0.031895973
93	0x3ddedc1a	0.10881825
94	0xbc10ba6e	-0.008833511
95	0x3c116706	0.00887466
96	0xbbda459c	-0.00666113
97	0xbda5938f	-0.08084785
98	0xbd6358ef	-0.055504736
99	0xbc44db00	-0.012015104
100	0xbc3fd638	-0.011708789
101	0xbd45f6fe	-0.048331253
102	0x3e2329b9	0.15933885
103	0xbd7cd272	-0.061724134
104	0xbc0f14ca	-0.008732984
105	0xbd1f9ca7	-0.038967755
106	0xbd7daf6f	-0.061934885
107	0xbd598fd2	-0.053115673
108	0x3ae84e5f	0.0017723552
109	0xbc960ee4	-0.018317647
110	0xbd407961	-0.046990756
111	0x3e13feee	0.14452717
112	0x3d8f9854	0.07011476
113	0x3b1b9b7b	0.0023743797
114	0xbd644309	-0.055727992
115	0x3d1d6361	0.038424853
116	0x3dd64d72	0.1046399
117	0x3d84b83e	0.06480454
118	0xbd0c3969	-0.034234438
119	0x3c87134b	0.016488692
120	0x3e4423a3	0.1915422
121	0xbccf0497	-0.025270743
122	0xbd0c0a3c	-0.034189448
123	0x3e2d6a18	0.16935003
124	0x3d5de1c8	0.0541704
125	0x3d570f14	0.052504614
126	0x3c5085a0	0.012727171
127	0x3d0afaf0	0.03393072
128	0x3d35cba9	0.04438368
129	0xbb385500	-0.0028126836
130	0x3d4e9168	0.05043164
131	0x3cfdd640	0.030985951
132	0xbbdd8123	-0.006759779
133	0xbd7c368f	-0.06157547
134	0x3cd9f835	0.026607612
135	0xbd757192	-0.059922762
136	0x38c252f8	9.266095e-05
137	0x3e19daa5	0.15024813
138	0x3d01a911	0.031655375
139	0x3d751a74	0.05983968
140	0xbcbf8eb7	-0.023383481
141	0xbc32ee95	-0.01092114
142	0x3da4e44a	0.08051355
143	0x3d16e618	0.03684053
144	0x3d5cc7d1	0.053901497
145	0x3ce39c98	0.02778463
146	0x3d035f06	0.032073043
147	0x3e3decd9	0.18547381
148	0xbcdbb15c	-0.02681797
149	0xbd6e29ac	-0.05814521
150	0x3d131523	0.03590883
151	0x3cf308eb	0.029667338
152	0x3d559a6d	0.052149225
153	0x3cbf44b0	0.023348182
154	0x3d4336af	0.047659572
155	0xbd3dcbe3	-0.04633702
156	0x3d0e7382	0.034778126
157	0x3d68934e	0.056781106
158	0xbd7a6f80	-0.06114149
159	0x3b21ed8e	0.0024708244
160	0x3d865a63	0.06560209
161	0xbd189947	-0.03725555
162	0x3cae26fd	0.021258825
163	0x3d8e89e0	0.06959891
164	0xbbbc0990	-0.0057384446
165	0xbb2dbcf5	-0.0026510332
166	0xbb49d535	-0.0030797247
167	0xb7eedbb8	-2.8474125e-05
168	0x3e461a27	0.19345914
169	0xbb98fb9a	-0.004668665
170	0xbbee3770	-0.0072697923
171	0xbd5fbc3e	-0.05462288
172	0xbd501a97	-0.050806608
173	0xbd2ad7b7	-0.041709628
174	0xbd142dec	-0.036176607
175	0x3d3fcff6	0.046829186
176	0xbc1b0b73	-0.009463179
177	0x3d084767	0.03327122
178	0x3d2d67ee	0.042335443
179	0xbd3000c0	-0.042969465
180	0xbc92cbad	-0.017919386
181	0xbcbdb850	-0.023159176
182	0x3d58011b	0.05273543
183	0x3c473efc	0.012161013
184	0x3d276a25	0.04087271
185	0x3cda4cc8	0.02664794
186	0xbc755d55	-0.014975865
187	0xbc528cea	-0.012850979
188	0x3ca56111	0.020187886
189	0xbaab164a	-0.0013052907
190	0xbb4a4283	-0.0030862398
191	0x3cdc1d47	0.02686943
192	0x3cf4c574	0.02987931
193	0x3c88109f	0.016609488
194	0xbcce0e92	-0.025153432
195	0x3c53d73a	0.012929732
196	0xbbb13260	-0.0054076165
197	0x3c85a2a7	0.01631291
198	0x3d3934eb	0.045216482
199	0x3d064a43	0.032785665
200	0xbd479db7	-0.048734393
201	0x3ddfbb7c	0.10924432
202	0x3e189580	0.1490078
203	0xbd563fb4	-0.052306846
204	0xbc718e70	-0.014743432
205	0xbd22d66d	-0.039755274
206	0xbd815516	-0.06315057
207	0xbd6cfd7c	-0.05785893
208	0x3d30aef5	0.043135602
209	0x3d067538	0.032826632
210	0x3d480bb6	0.048839293
211	0xbc7c903e	-0.015415249
212	0xbd7981e8	-0.060914904
213	0x3c336060	0.010948271
214	0xbcd7d13c	-0.026344888
215	0xbd2662a1	-0.040621404
216	0xbae48aec	-0.0017436421
217	0xbcd9b4ce	-0.026575472
218	0x3bef9518	0.0073114745
219	0x3c6de77b	0.014520521
220	0x3b838264	0.0040133465
221	0x3d0817d7	0.03322586
222	0xbc8e7f0c	-0.017394565
223	0x3c1d2636	0.00959163
224	0xbd2a948f	-0.041645583
225	0x3d139350	0.03602916
226	0x3e26ded7	0.16295944
227	0x3c4b7fc7	0.012420601
228	0x3d2991cc	0.04139881
229	0x3ccfbe18	0.025359198
230	0xbd7f2f79	-0.062301133
231	0xbb83323a	-0.00400379
232	0xbbfc8989	-0.007706825
233	0x3d507bda	0.050899364
234	0x3cf447c2	0.029819373
235	0x3a641a15	0.00087013963
236	0x3d70f598	0.058827966
237	0x3bc84210	0.006111391
238	0xbd53c8da	-0.05170522
239	0x3d049024	0.032364026
240	0x3ccfa67c	0.02534794
241	0xbd109512	-0.035298415
242	0x3c6a9b1d	0.014319208
243	0xbd33627b	-0.04379509
244	0x3d40d72f	0.047080215
245	0xbd6105b9	-0.0549371
246	0xbc7c4fc0	-0.015399873
247	0x3cd28bb0	0.025701374
248	0x3e0fdfee	0.14050266
249	0xbcc7c8c9	-0.024387734
250	0x3d27842a	0.040897526
251	0x3bbbb4ed	0.005728355
252	0x3d790208	0.060792953
253	0xbc9185c4	-0.01776398
254	0xbc833a36	-0.016018968
255	0xbd1caaf2	-0.038248964

main_model.OutputLayer.weight f4 [3, 256]
0	0x3b987270	0.004652314
1	0x3c9b2dd3	0.01894275
2	0xbc90380d	-0.017604852
3	0xbd8102e5	-0.0629938
4	0x3cdb9e72	0.026808951
5	0xbc9bd097	-0.019020362
6	0x3cbb2743	0.02284587
7	0xbb3922b7	-0.0028249451
8	0xbd6b89f0	-0.057504594
9	0xbd01a08b	-0.031647246
10	0xbc7d6687	-0.015466339
11	0xbd2aacba	-0.04166863
12	0xbd27e9ad	-0.040994335
13	0xbd538a44	-0.051645532
14	0x3b5ad3b8	0.0033390354
15	0x3d4a750c	0.04942803
16	0xbd140582	-0.036138065
17	0x3cadffe2	0.021240178
18	0x3d55de88	0.052214175
19	0xbb872807	-0.0041246447
20	0xbd0c12e8	-0.034197718
21	0x3d476aba	0.048685767
22	0xbc87b4c3	-0.016565686
23	0x3d227f0c	0.039671943
24	0x3d60c852	0.05487854
25	0xbcfc391c	-0.03078895
26	0x3c6592f9	0.014012092
27	0xbc85fbd2	-0.016355429
28	0x3cc7acc6	0.024374377
29	0x3b9f84ce	0.0048681265
30	0x3c0533c0	0.008130014
31	0x3bcfeb46	0.0063451855
32	0xbd1c2070	-0.038116872
33	0xbc3f48e6	-0.011675095
34	0xbcb13cd9	-0.02163546
35	0x3cd4863c	0.025942914
36	0xbc8af951	-0.016964586
37	0x3ce518e8	0.027965978
38	0x39c9d0cd	0.00038493276
39	0xbd242132	-0.04007072
40	0xbe35c181	-0.17749597
41	0x3c2a9440	0.010411322
42	0x3d345487	0.044025924
43	0x3d3fc68f	0.04682022
44	0xbcb14898	-0.02164106
45	0xbdcfffd9	-0.10156221
46	0xbd2346a2	-0.039862283
47	0x3a1684df	0.0005741845
48	0x3d152249	0.03640965
49	0x3d22006f	0.039551195
50	0xbd185c9e	-0.0371977
51	0x3c872405	0.016496668
52	0x3c2bafd6	0.010478934
53	0x3c8f066a	0.017459113
54	0xbc93f5d8	-0.018061563
55	0x3ccb6118	0.024826571
56	0xbd59a46c	-0.05313532
57	0xbb062a50	-0.0020471998
58	0x3d4687e6	0.048469447
59	0xbc866a52	-0.01640812
60	0xbd503cd9	-0.05083928
61	0x3d39409c	0.045227632
62	0x3a087db1	0.0005206718
63	0xbcd71e21	-0.026259484
64	0xbc9ae2bb	-0.018906942
65	0x3d4d38e4	0.050103083
66	0xbc89c734	-0.01681862
67	0xbb9eeca1	-0.0048499857
68	0xbd3db6d7	-0.046316948
69	0xbd1d7336	-0.03843995
70	0xbbee8bb8	-0.0072798394
71	0xbc93ae3d	-0.01802742
72	0xbc84e03c	-0.016220205
73	0xbbd4cfce	-0.006494499
74	0xbc0e2e97	-0.0086781
75	0xbd1c4f1c	-0.038161382
76	0xbd6fbc18	-0.05852899
77	0xbc9c14dc	-0.019052915
78	0xbcaaa55f	-0.020830808
79	0x3d1e50a5	0.038651127
80	0x39901d9c	0.0002748788
81	0x3c8a5a6c	0.01688882
82	0xbc014028	-0.007888831
83	0xbaf59798	-0.0018737195
84	0xbc7b104d	-0.015323711
85	0xbcd55c3a	-0.026044954
86	0x3d250f2b	0.04029767
87	0x3d30a37e	0.04312467
88	0xbccaf5fb	-0.024775496
89	0x3ab5a476	0.0013858217
90	0xbc01c140	-0.00791961
91	0x3d61b717	0.05510625
92	0xbc261caf	-0.010138675
93	0xbe3e38ab	-0.18576305
94	0xbd6278d4	-0.055291012
95	0x3bdb1ab4	0.006686533
96	0x3d128238	0.035768718
97	0xbc539f61	-0.012916417
98	0x3d10532d	0.035235573
99	0xbd94fe49	-0.072750635
100	0x3d6778f6	0.05651184
101	0x3c2ab78e	0.010419739
102	0xbd77c8b1	-0.06049413
103	0xbc8fd5ef	-0.017558066
104	0xbd1e3ddd	-0.038633216
105	0x3c5585e7	0.013032413
106	0x3c5680a2	0.013092192
107	0x3d3b8155	0.045777638
108	0xbcec8dbd	-0.02887618
109	0xbd6ff7f0	-0.05858606
110	0xbcc578ae	-0.024105396
111	0xbd856afe	-0.06514548
112	0xbcfd794b	-0.030941626
113	0xbb88ac9a	-0.0041709663
114	0xbd3d6bbc	-0.04624532
115	0xbc204d6f	-0.009784087
116	0xbd9deef9	-0.07711596
117	0xbd2c2f1d	-0.04203712
118	0x3d0a364d	0.03374319
119	0x3d253eda	0.040343143
120	0x3c8dfca6	0.017332386
121	0x3cc8a268	0.024491504
122	0xbbf61860	-0.00751023
123	0xbe0bba42	-0.1364527
124	0x3d46eb72	0.048564382
125	0x3b8a1176	0.0042135073
126	0x3d3c338c	0.045947596
127	0x3bdebce0	0.006797418
128	0xbb7a276d	-0.0038170472
129	0xbd02ceaa	-0.03193537
130	0xbc0adbf0	-0.008475289
131	0xbc04a398	-0.008095644
132	0x3b80fcdf	0.0039363946
133	0xbbdd6d13	-0.0067573874
134	0xbc20a520	-0.009804994
135	0x3d6f1985	0.058373947
136	0xbca10a1f	-0.019658146
137	0xbd548821	-0.051887635
138	0xbcc4a903	-0.024006372
139	0x3c97b52d	0.018519009
140	0x3cb75f0d	0.022384191
141	0x3d05c519	0.03265867
142	0xbdbb1cbc	-0.0913634
143	0xbd3a4fcc	-0.045486256
144	0x3ca478ca	0.020077128
145	0x3bc3522e	0.0059607243
146	0xbce2bc19	-0.027677583
147	0xbe0af1e6	-0.1356884
148	0xbd41400c	-0.04718022
149	0x3ccb48d0	0.024814993
150	0xbc991fda	-0.018691946
151	0x3cd42ef2	0.025901292
152	0xbca37ce2	-0.01995701
153	0xbcaba954	-0.020954765
154	0xbd48e71a	-0.04904852
155	0x3c50bf38	0.012740903
156	0xbc1629ce	-0.00916524
157	0xbd1810c1	-0.037125353
158	0x3c0b1d45	0.008490865
159	0x3c0adf9d	0.008476165
160	0xbbf12b19	-0.007359874
161	0xbd4f1b31	-0.05056304
162	0x3cc292fb	0.023751726
163	0xbc5c047f	-0.013428806
164	0x3d1be71e	0.038062207
165	0xbd106031	-0.035247985
166	0xbca0207b	-0.019546738
167	0x3b47a87a	0.003046541
168	0xbe1d731d	-0.15375943
169	0x3d7d4ad6	0.061838947
170	0x3c713968	0.014723159
171	0xbd6a8446	-0.057255052
172	0x3b1f71e2	0.0024329354
173	0x3c691eb7	0.014228514
174	0x3c6fc795	0.014634986
175	0x3ce4443a	0.027864564
176	0xbd1c167e	-0.038107388
177	0x3ccfcc77	0.025366051
178	0x3d3d5a44	0.046228662
179	0x3d1773a0	0.036975503
180	0x3c828b2f	0.015935509
181	0xbc2401ef	-0.010010227
182	0xbcce8db8	-0.025214061
183	0xb8fbba90	-0.00012003363
184	0xbcdce3dd	-0.026964122
185	0x3ca66704	0.020312794
186	0xbb176c05	-0.0023105156
187	0xbd3c6c27	-0.04600158
188	0x3d1dae30	0.038496196
189	0x3cfee032	0.031112764
190	0x3ca03794	0.019557752
191	0xbd2e66f2	-0.042578645
192	0x3c9acd48	0.018896714
193	0xbcdaba46	-0.02670015
194	0xbc6772d9	-0.014126503
195	0xbcd1a289	-0.025590198
196	0x3cb06806	0.021533977
197	0x3d628fe0	0.05531299
198	0x3c13f01f	0.009029417
199	0x3caa3c17	0.020780606
200	0xbb979530	-0.004625939
201	0xbd5027f4	-0.050819352
202	0xbd9a3a02	-0.07530595
203	0xbcb1bbac	-0.021695934
204	0xbd1a7c6c	-0.037716314
205	0xbcc9bd02	-0.024626259
206	0xbd875605	-0.06608204
207	0x3d404a55	0.04694589
208	0xbcc4e4e7	-0.02403493
209	0xbd095863	-0.033531558
210	0xbc4df558	-0.012570702
211	0xbc05f295	-0.008175512
212	0x3b8a4efd	0.004220842
213	0x3c30d558	0.010793053
214	0x3cef2b20	0.029195368
215	0x3bf68a54	0.007523814
216	0xbd06e501	-0.03293324
217	0xbd03083f	-0.031990286
218	0x3c061e48	0.008185931
219	0xbc427238	-0.011868052
220	0x3d0df99b	0.03466187
221	0xbca03a87	-0.019559158
222	0xba23b2e6	-0.00062446145
223	0xbcf2c367	-0.02963419
224	0xbc560f48	-0.013065167
225	0xbc507bfb	-0.012724872
226	0xbd545aaf	-0.051844295
227	0xbd22866c	-0.039678976
228	0x3c144837	0.0090504205
229	0x3ba5ba49	0.0050576073
230	0xbd077fe6	-0.033080958
231	0xbcbbcbf5	-0.022924403
232	0xbc923563	-0.017847722
233	0x3cf0c0a0	0.029388726
234	0xbc9e9359	-0.01935737
235	0xbd088c93	-0.033337187
236	0xbcbdabe9	-0.023153262
237	0x3d03b686	0.03215649
238	0xbc9b942d	-0.018991554
239	0x3cdbf6c0	0.026851058
240	0x3ba22b50	0.004949011
241	0x3c5ac968	0.013353683
242	0xbade6597	-0.0016967532
243	0x3c2802e7	0.010254598
244	0xbc643b42	-0.013930144
245	0x3d5bc29c	0.05365239
246	0xbd5305b8	-0.051519126
247	0x3d3a6ef7	0.04551598
248	0xbe3e1570	-0.18562865
249	0x3cce0b79	0.025151955
250	0xbd4a37ce	-0.049369626
251	0xbd181c8a	-0.037136592
252	0x3d7c05a2	0.06152881
253	0xbbcdedb0	-0.006284438
254	0xbd32f734	-0.043692783
255	0xbd71ce02	-0.059034355

main_model.OutputLayer.bias f4 [3]
0	0x3bdeabc3	0.006795378
1	0xba3a1209	-0.00070980244
2	0x3d1a5325	0.03767695
