c1-dqn/dqn/src/DQN_├╩▒Γ/xy2Dsimulator/new/save/main_model_000008.pth (torch_old, 274727 bytes, 6 tensors)

main_model.InputLayer.weight f4 [256, 6]
00000000: fef7 0fbe 074a 10bd f680 d53d 777d b6be
00000010: af75 c03e c788 a3be b4e5 7fbe 90c6 7cbd
00000020: 9078 4dbe 8492 c0bd 20f7 b9be e418 cc3e
00000030: 0cc8 aabe b8a3 3dbd f4db a33e 6cfe a03d
00000040: f8b2 5abe 50e9 69be 275b ba3d 7477 c9be
00000050: b5fa 9d3e 2635 90be 7c1a 94bd 50a7 bb3e
00000060: 79db 023e 7e24 87be 03f6 283e faef a23e
00000070: 4625 363d f2d6 8b3e a02b 5d3e a894 1a3e
00000080: d3b9 ebbc c1be 9fbe 6221 9f3e 7bb6 99be
00000090: dde0 a23d 4daa 833e 78fa 21be 0ed8 8d3e
000000a0: 8abb 9dbe 03fb 50bd be39 9d3e d4ae c3be
000000b0: f0bd 2fbe 22e8 f0bd e22c 853e 093a 603d
000000c0: 6831 8a3d 38d4 07be e6db 37bd a97e f0be
000000d0: e7f6 06bd c725 fcbe 2cc6 8fbd 56a8 98bd
000000e0: 6731 513e 4238 0dbd 57c7 63be 14ec 8f3e
000000f0: a13e 50be 9407 3f3e 1179 34bd f064 113d
00000100: 19b4 843e a91a c3be 8e9e 7b3e 8d35 683e
00000110: 5d5c 293d 532f 9cbd 8bde 3cbe 6b71 66bd
00000120: b854 383d d9ed acbe 3877 d9bd 60ae 3d3e
00000130: 79d3 c9be b473 dcbd 5185 06bd eb8d be3e
00000140: eaf9 963d 2085 2dbe 167f 38be 175c 593e
00000150: 20f3 2b3c 4fa3 66be 38d2 14be d6b6 a63e
00000160: 2be2 33be 3618 adbe 7bf7 8c3e a573 8b3e
00000170: 51d7 893e 9379 993e 5347 41bd 36bf 45bd
00000180: 2306 413e 653f c0be 5556 43be a0cb a03d
00000190: eb3c 58be 9420 433e 8e1f 5dbe 3c81 9f3b
000001a0: 99d7 1a3d eb5f d5be aa6f 953e a87f 793e
000001b0: ec95 a8be b22f a53e 91e6 18be 99c3 803e
000001c0: 50a3 a1bc 6b87 cdbe 2703 993e c07a 533e
000001d0: d6f8 533e 6871 ea3d 1964 9f3e 9fc3 9fbe
000001e0: 856c 573e 6d47 6e3d 8312 17bd f9f0 c2bd
000001f0: 3d5a edbe 9e56 b93c 9f74 c7bd aed7 c1be
00000200: bb1e a93e 9762 85bd 3bb7 fcbd 86dd 083e
00000210: af20 983e b75a b23e 5574 a23e 3cec b93d
00000220: 44b1 6abd f1ec ff3c 046e 4d3e d777 1e3e
00000230: 69bd 1e3e 3961 b3be d4c1 9cbe ed5b 7dbd
00000240: 697e 7e3e edc0 5fbd 2335 a73e 8082 c4be
00000250: 9bf5 bb3d b252 bdbd 2776 8ebc d597 d83d
00000260: ad75 a6be 18de eebb c4d8 af3e f9f7 943e
00000270: 29e5 6bbe 7263 953e 7dfb f53c 4e0e 14bb
00000280: 1d05 573e aa3e 513e 82e3 45be 2da8 c5be
00000290: c4b3 14be 2821 dfbd 40b9 633d 7245 9ebe
000002a0: cf87 3fbe 3079 e83c c048 83be 30d0 da3d
000002b0: d6ea 8bbe 2cdc e6bd d23e fc3d a741 13bd
000002c0: 40f8 94be cc63 a23d 9d6c b83e e512 843e
000002d0: 2842 523d 2ca4 39be bfac 89be ef90 59be
000002e0: c063 0abd 4062 0d3c 469b 983e c1e7 4ebe
000002f0: 8441 a83e 92c1 a7be 8a78 ac3e 9801 a6bd
00000300: f7d5 1abe b6bc d83d 67c9 88be 6aaf 52be
00000310: 5804 423d c59e b6be 52b6 f6bd f667 99bd
00000320: 8afa 1cbe 4be5 163e 4db2 8e3e bcda 1d3e
00000330: 292e 18bd c589 1dbe 844e 2c3e f1e5 74bd
00000340: a790 493e 6016 99be 776c 353d 1a73 2a3e
00000350: a841 393c 55bc 87be a39b b13d da0e 18be
00000360: f1c9 80be a02b 8b3c e84c a03e a3b2 a1be
00000370: 2115 86be 7026 e8bd f64f 0ebe 4f3b 6dbd
00000380: feb5 703e 7d4a 4f3e bcb0 97be 96a3 d0be
00000390: f902 d33d 1840 153e 9a18 92be 28e0 db3c
000003a0: cd3b 403e 9100 3fbe f706 ea3d 7a0d 1d3e
000003b0: 34ba b5bc e1ce a5be 3603 c73c 000f a83e
000003c0: 664c 3fbe 7b07 0bbe b3c5 473e a314 8abe
000003d0: 3ccb ab3e 6d28 43be b575 77be 9288 a53e
000003e0: 555a 1dbd cbe6 c23c 6f12 3ebd 1255 aabc
000003f0: d545 073e d7c1 37bd 9c34 bfbe dd89 903e
-0.14059445 -0.035226848 0.10424988 -0.35642597 0.37589785 -0.3194029 -0.24989969 -0.0617128
-0.20065522 -0.09402946 -0.36321354 0.3986274 -0.3335575 -0.046298712 0.32003748 0.07861027
-0.21357334 -0.22842908 0.09099417 -0.39348948 0.30855337 -0.2816555 -0.07231614 0.36651087
0.12779035 -0.2639503 0.16500096 0.31823713 0.04446914 0.27312428 0.21598673 0.1509577
-0.028775131 -0.3120022 0.31080157 -0.30022034 0.079530455 0.25715867 -0.15818202 0.277039
-0.30807143 -0.051020633 0.30708116 -0.3821932 -0.17162299 -0.11763026 0.26010805 0.054742847
0.06747705 -0.13264549 -0.044887446 -0.46971634 -0.03295031 -0.49247572 -0.0702022 -0.074539825
0.20429002 -0.03447748 -0.22244011 0.281098 -0.20336391 0.18655235 -0.04406077 0.035496652
0.25918654 -0.38106278 0.24572203 0.22676678 0.04134785 -0.07626214 -0.18444268 -0.056260508
0.04500267 -0.33775213 -0.10618442 0.1852355 -0.39419153 -0.10764256 -0.032841984 0.3721765
0.07371886 -0.16945314 -0.1801723 0.21226536 0.010494977 -0.22523235 -0.14533317 0.32561368
-0.17566745 -0.33807534 0.27532563 0.27236667 0.26922086 0.29975566 -0.04718716 -0.048278056
0.18849997 -0.37548366 -0.19075902 0.078513384 -0.21116988 0.19055396 -0.21594068 0.004867701
0.037803266 -0.41674742 0.29186755 0.24365103 -0.3292688 0.3226295 -0.14931704 0.2514923
-0.019731194 -0.40142378 0.29885218 0.20652294 0.20700392 0.11447412 0.31131056 -0.31203935
0.2103749 0.058173586 -0.03688289 -0.09518618 -0.4635791 0.02262431 -0.097390406 -0.37859863
0.33031258 -0.06512945 -0.12339636 0.13365754 0.29712436 0.34834835 0.3172938 0.09078261
-0.05729796 0.031240912 0.20061499 0.15475403 0.15501942 -0.35035113 -0.3061663 -0.061855245
0.24852909 -0.054627348 0.32657728 -0.38380814 0.09177705 -0.092442885 -0.017390324 0.10575835
-0.32511654 -0.007289659 0.34345067 0.29095438 -0.23036636 0.29177433 0.030027146 -0.0022591534
0.20998044 0.2043406 -0.19325069 -0.3860487 -0.145217 -0.10894996 0.05559659 -0.30912358
-0.1870415 0.0283781 -0.2564144 0.1068424 -0.27327603 -0.11272463 0.123166695 -0.035951283
-0.2909565 0.07929191 0.36020365 0.25795665 0.051332623 -0.18129033 -0.26889607 -0.21246694
-0.033786535 0.008629382 0.29805964 -0.20205595 0.32862484 -0.3276487 0.33685714 -0.08105773
-0.15120684 0.10582869 -0.26716158 -0.20574728 0.047367424 -0.35668007 -0.120464936 -0.07490532
-0.15329948 0.14735906 0.27870408 0.15415472 -0.037153397 -0.15384586 0.16826826 -0.0597896
0.19684087 -0.29899883 0.044292893 0.1664547 0.011307158 -0.26510873 0.086722635 -0.14849415
-0.2515407 0.016988575 0.31308675 -0.31581602 -0.26187995 -0.11335456 -0.1389769 -0.05791789
0.23506925 0.20243259 -0.29627025 -0.40749806 0.10303301 0.14575231 -0.28534395 0.026840284
0.18772812 -0.1865256 0.1142711 0.15337172 -0.022183515 -0.323844 0.024293523 0.32823944
-0.18681487 -0.13577072 0.1950901 -0.2696887 0.33553493 -0.1905839 -0.24165995 0.32330757
-0.038416225 0.023791691 -0.0464043 -0.020792518 0.13210233 -0.044862594 -0.37344825 0.2823018

main_model.InputLayer.bias f4 [256]
00000000: 32c0 8a3e f06f 50bd be20 b73e b826 833e
00000010: 8b8d 143e 09f4 04be e78c a6be 0a17 8dbd
00000020: 3a56 54be 4e97 b03e b6cc 7bbd 978b d6be
00000030: 3271 de3e 8f48 a5bd 0077 96be 6d3b b6be
00000040: 45d3 a5be 5015 743e f98b c43e b9e6 20be
00000050: 5e59 033e c26f 47be cfbe aa3e a535 eebd
00000060: 3094 f43d 64eb 24be 9787 3fbe ffdb 333e
00000070: 4c87 16be aa60 91bc 6a97 cd3e cd88 373d
00000080: d8e2 033f 1e20 47be a5a1 6dbd 1eed 88be
00000090: 045b fd3e 2a58 a6be e3f6 8fbe 7e32 df3d
000000a0: 10d6 b5be d9b0 53bd 24ae 963e 1ded 96be
000000b0: 61e5 d93e 20ca d03d 00c7 54bc b668 17be
000000c0: 1219 acbe 4bd1 debe fdf9 c6be b7f6 0c3f
000000d0: e9da 95be 2b6f da3e e15b 2c3e 4f1b d3be
000000e0: 679f c33e cc43 1c3e 0031 d83d 2da9 923d
000000f0: 1c9e 253e 9fff 1abe 9736 e13c eef2 76be
00000100: f7d9 07be f011 cebe a821 bfbe c8ba ec3e
00000110: 954b 27bd be62 80be 23f1 32be 8372 c33e
00000120: 706c acbc 7f68 44be b6be d83c 1066 fdbc
00000130: 0a7d 29be 6e14 85be 52a6 013f c137 83be
00000140: a0a0 be3e b7e3 c0be fd31 d13e bdea babe
00000150: 5a7e c13c a9c1 1a3d 949a 8ebe ac40 b3be
00000160: ade7 a4be 0674 a93e 6bb6 07bd f7d6 a6be
00000170: 7639 cbbe d63f b0be 3eb4 cbbe 10fc 0dbd
00000180: 0829 26bd 0c80 093e 0580 7a3e f286 c2be
00000190: ea50 0ebd bc84 51be 72f5 1cbe 1f92 ca3e
000001a0: 23a9 d8be 77e7 263e 1431 9dbe 5f3f 603e
000001b0: 50a6 32be 20de a4bc 9ab2 c9be 34b3 b5bd
000001c0: 0099 e6bc 0aa2 a2be bab5 dabd c4dd 93be
000001d0: 325e a13e f462 31be 6a92 073f f5f7 883d
000001e0: 92b5 a93e 50bb adbe 3d60 8e3e 773e 2fbe
000001f0: 8290 1fbe 0641 1b3e ecda a9bd 5c50 283e
00000200: 146b a8bd 10d7 7abd aa37 a13c 933f c93d
00000210: 0ad4 8f3e b138 cbbe a307 053f 39d3 cdbe
00000220: 0856 9abd 894c d53e fe59 1c3e 1808 06be
00000230: 227d c63e d8e6 a6be 0cb6 50be df3f a33e
00000240: 1933 bd3e 47c1 9abe 7320 393e 55ca abbe
00000250: 6d50 713e 3aba e53e dfa6 0bbd 8ab0 87be
00000260: 3f4c 753e 180d 89bd c75b 0cbe b49e ab3e
00000270: e515 063e 467c c23e be73 e7be d1c8 583e
00000280: 8e11 0c3e 04fc 7ebe 5305 4dbd 78f1 903e
00000290: a7a4 3abe 2dff 003e 1958 083f 8a8d f0bd
000002a0: d33a 363e 5316 ca3d ed6f 00be 1028 96bc
000002b0: 228c b63d e034 883e 40c6 883e eda3 87be
000002c0: 40de b03d e258 36be 0d22 ca3e 37d2 613e
000002d0: 2767 23be 838d 25be 6c08 89be 422b a73e
000002e0: 8813 ec3d ac39 583e 760b 34be a5dd 10be
000002f0: 89c3 b03e a74e bcbe 49da c03d c4b7 aabd
00000300: 7764 6cbd e167 adbe 70df 223d cd73 5c3d
00000310: 5e0a 0b3f 49a1 c03e 426b dcbe 4ae9 68be
00000320: 6453 923e cfd2 3a3e 8098 3ebd 511d bc3e
00000330: 335c aebd 0e15 853e 849a d2bc ceca 893e
00000340: c4a9 ba3e 3357 5fbe bbdb 783e 17ac 473e
00000350: 46bb a23e 00d9 05bd 5a2d a33e 4c5e acbe
00000360: c81c c33e 1479 bc3e 96a2 883e 952d c03e
00000370: 2851 713e b9cd 61be 421e 86be 3219 15be
00000380: c001 713d c07e b3be 40a1 a4be 4e1d 553e
00000390: b3c7 623e cc87 9abd 841f 68be a2a9 903e
000003a0: 28d1 62be bc42 c7be 5182 4abe ef5a 3e3e
000003b0: fe35 e03e 6d25 333e bbf1 5f3e afd6 a83e
000003c0: 31c9 2e3c 2824 5dbe c634 87bc 8dc2 033f
000003d0: d237 473e a4b9 4c3e c3d0 bc3e 22dd fc3e
000003e0: 4d31 ca3e f4ef ba3d 1f8f 163c 3b09 223e
000003f0: 47ba d63e 6d50 9cbe 5c01 31be 9364 c9be
0.27099758 -0.050888002 0.35767168 0.25615478 0.1450712 -0.12983717 -0.32529375 -0.0688916
-0.20736018 0.34490436 -0.061474524 -0.41903374 0.43445736 -0.0807048 -0.29387665 -0.35592213
-0.32387748 0.23836255 0.3838804 -0.15713014 0.1282706 -0.19476226 0.333487 -0.11631326
0.11942327 -0.1610542 -0.18704067 0.1756439 -0.14700049 -0.017746288 0.40154582 0.044808198
0.5151801 -0.19445845 -0.058015484 -0.26743406 0.49483502 -0.3248914 -0.28118047 0.108983025
-0.3551488 -0.051682327 0.29429734 -0.29477778 0.42557815 0.10194802 -0.012986898 -0.14786038
-0.33612877 -0.43519053 -0.388626 0.55063957 -0.29268578 0.4266294 0.16831924 -0.41231772
0.38207552 0.15260237 0.10556221 0.07161174 0.16173595 -0.15136574 0.02749185 -0.24116108
-0.1326674 -0.4024806 -0.37330365 0.46236253 -0.040843565 -0.25075334 -0.17474799 0.38173303
-0.0210478 -0.19180487 0.026458126 -0.030932456 -0.16551605 -0.2599215 0.5064441 -0.25628474
0.37231922 -0.37673733 0.4085845 -0.36507216 0.02361982 0.037782345 -0.2785231 -0.35010278
-0.32208005 0.3309633 -0.03313295 -0.3258588 -0.39692277 -0.34423703 -0.3978595 -0.034664214
-0.040566474 0.13427752 0.24462898 -0.3799358 -0.034745134 -0.2046079 -0.15328005 0.39564607
-0.4231654 0.16299234 -0.30701506 0.21899174 -0.17446256 -0.020125449 -0.39394075 -0.08872071
-0.028149128 -0.3176425 -0.10679193 -0.2888013 0.31517178 -0.17322904 0.52957785 0.06687919
0.3314634 -0.3393197 0.278078 -0.17113672 -0.15582469 0.15161523 -0.08293709 0.16436905
-0.082235485 -0.061240256 0.019679863 0.09826579 0.2809146 -0.3969169 0.5196478 -0.40200213
-0.075359404 0.41659954 0.15268704 -0.13089025 0.38767344 -0.32597995 -0.20381945 0.31884667
0.36953047 -0.30225584 0.18078785 -0.33552805 0.23565836 0.44868642 -0.034094688 -0.26501876
0.23954867 -0.066919506 -0.13706885 0.33519518 0.1309429 0.37985438 -0.45205492 0.21170355
0.13678572 -0.24900824 -0.050053906 0.28309226 -0.18226872 0.12597342 0.53259426 -0.117457464
0.17795877 0.09867539 -0.12542696 -0.01832965 0.08913447 0.2660284 0.26713753 -0.26492253
0.08636141 -0.17807344 0.39479104 0.22052847 -0.15957318 -0.16167264 -0.26764238 0.3265019
0.11527163 0.2111575 -0.17582497 -0.1414705 0.3452418 -0.36778757 0.094166346 -0.08335832
-0.057713 -0.33868316 0.039763868 0.053821374 0.54312694 0.3762305 -0.4305058 -0.22745243
0.28579247 0.1824448 -0.046532154 0.36741117 -0.08513679 0.25992626 -0.025708444 0.2691254
0.36457646 -0.21810608 0.2430257 0.19499241 0.31783503 -0.03267765 0.31870538 -0.33665693
0.38107896 0.36811125 0.26686543 0.37534776 0.23566115 -0.22051133 -0.2619496 -0.14560392
0.05883956 -0.3505764 -0.32154274 0.2081196 0.22146492 -0.075454324 -0.22668272 0.2825442
-0.221501 -0.38918102 -0.19776274 0.18589376 0.43791193 0.17494746 0.21869557 0.3297629
0.010668085 -0.21595824 -0.016504657 0.51468736 0.19454888 0.19992691 0.36878023 0.4938746
0.3949074 0.09127799 0.009189396 0.15823834 0.41938993 -0.3053011 -0.17285675 -0.39334545

main_model.hiddenlayer_0.weight f4 [256, 256]
00000000: b4b8 82bd 1cb4 b53c eaa4 103d aa28 553d
00000010: 5f33 383b d0cd 27bd 9a87 91bc 70ad e03c
00000020: 7029 a9bb 6a9f 20bd 9553 3c3b 69e8 09bd
00000030: 1e4a 69bd b3ae 273c c066 f5bb 1568 443d
00000040: d41f aa3c 140a 423d 7d2a 623d 187a 1dbd
00000050: 907e 0fbd e866 fbbc e4c5 27bd 8900 b53c
00000060: 26f3 35bd ff80 71bd 9422 383d e455 053d
00000070: 6cd2 87bc 7dca 9abc 74cb a73c 46a1 0abc
00000080: 8890 22bc ac0f 14bd 62f8 27bd 226f 45bc
00000090: 00ae c3bb b4a2 763b ab0e 073c 3645 f73c
000000a0: ed9b 333d 0580 4c3c 7833 85bd a03f 2f3b
000000b0: 403c 72bc 632b 213b f8c0 0d3c 32da 27bd
000000c0: 2ed0 6bbd c576 9a3b 904e 793c dc54 d73c
000000d0: 08ad 9cbc eac0 5a3d 9038 643c d8f9 e0bc
000000e0: e77f d6bc 4da8 a63b dfc2 35bd 004e 46bc
000000f0: 3be5 1bbd 820c 443d d29d 5bbd 6f93 a3bc
00000100: f4b1 a93c 40bf 3cbd 5b17 073d 7e88 4ebd
00000110: efcd 203c c4a8 97bc e81e 04bd 60a8 a2bc
00000120: 00c2 823c 9418 5a3d e171 593d 78cc 1a3d
00000130: 2f51 463d d63a 02bd 1528 59bd 644c e83b
00000140: f2af e739 911b 783c 3066 da3c d668 3b3d
00000150: aec0 0a3d 8335 02bd aa70 253d 68f4 b7bc
00000160: 7cec 0dbd 21e4 b93b 41bc bebc 9c12 4ebd
00000170: 70fd 583c 6a9e 5abc 3dde f7bc d401 b0bc
00000180: 9276 793d 8526 563d dc2c 1a3d b8bf 45bd
00000190: a05a 05bd b861 2dbc a057 4fbc c293 6cbd
000001a0: d4a2 893a 0db3 26bd 7e91 763c 001d 7fbc
000001b0: bde2 79bc 0808 283d 78b4 24bd d0ff 24bd
000001c0: 285a 38bc 788d ad3c 6c0e 943c 1573 74bd
000001d0: 0c1a d1bc 4202 5d3d 44a6 b1bc 3ed4 0bbd
000001e0: 5e27 05bc 0059 cf3c 8291 e1bc 6e26 9d3c
000001f0: e0de 523c 2f35 da3c 30e2 95bb fec3 a8bc
00000200: e0fb 023c 5658 593d 1eb9 153d 2c4e 47bd
00000210: 27bf 3abd f070 b93c d8bc 703c e00a f4bc
00000220: 83a7 82bd 084d e9bc 0fdc 29bd 8c19 33bd
00000230: 209d 2d3c 09ac b5bc 164a 11bc b35b 48bc
00000240: 2048 5c3d ca36 7e3d d0fd 8ebc 9278 46bc
00000250: 3ca7 b43c e673 323d 69da 7cbd 78c3 1dbc
00000260: d48c b83b 8cd2 c23c f994 d33c c044 2cbb
00000270: 443c 033d 8015 54ba a6b7 733c c623 63bb
00000280: f993 13bd 9eb7 fdbc aaf0 b6bc 9661 09bc
00000290: 06ca 1d3d 8028 c03a 7290 56bd 0526 7dbc
000002a0: 1209 72bd 2bbd 403d 5f16 a1bc c840 46bd
000002b0: ef8e 8fbd f697 4dbd 6f43 4cbb 05e0 b2bc
000002c0: 2d55 293c 4054 56bd 421b 643d d8de 8eba
000002d0: e09a 3fbd b9e8 debc 098c 5ebd 78e1 0fbc
000002e0: 8e60 303d 490f 82bc 6a68 57bd 84ea 703d
000002f0: 28fd 4fbc c93f 5b3d 08e1 cdbb fc4b 98bc
00000300: 8811 5abd 3825 b73c 7fe3 f03b e16b 0abd
00000310: 7823 3f3d 14ac 00bd ccac 1d3d 385e f0bc
00000320: 92e5 3e3d da4b 55bd a054 01bb 4add 1a3c
00000330: 5821 28bc c8b7 3d3d c538 91bc 3c5a 2ebd
00000340: a3dd 1fbd 24b6 63bd c8ed 93bc b288 47bd
00000350: 5c0e cf3c 7831 343c 2274 343d e12b 9d3c
00000360: fe1d 34bd 10f6 10bd 50cf 15bd ef80 3b3b
00000370: 400f 8dbd 3a70 2a3d 29c6 afbc 168e 43bd
00000380: a8e6 e4bc 10e7 c8bb 1083 cf3b 51f5 693c
00000390: ef3d 2e3d fab1 c2bc e2a5 d83b 8008 16ba
000003a0: 25b4 d1bc 947c 36bd 1464 ee3c 0c44 3bbd
000003b0: 426e 65bd 8587 d9bc 0251 2e3d 0c8d de3c
000003c0: 30b0 deb9 c4bd b53c 6b17 e23c 6062 b13b
000003d0: dcc2 1e3d cf8c 1b3d c04e d9bb 38b8 603d
000003e0: 3510 65bd d4dd 5dbd 37af 85bc ef22 0a3d
000003f0: 70b3 893b f58f 4cbc c4bd a9bc 2c25 c33c
-0.063828856 0.02218061 0.035313524 0.052040733 0.0028106791 -0.040967762 -0.017764855 0.027426451
-0.0051624104 -0.03921453 0.0028736342 -0.03366891 -0.05695545 0.010234523 -0.0074890554 0.047950823
0.02076713 0.047372892 0.0552163 -0.038446516 -0.03503281 -0.030688718 -0.040960208 0.022094982
-0.044421338 -0.05896091 0.04495485 0.032552615 -0.01657983 -0.018895382 0.020482756 -0.008461302
-0.009922154 -0.03614776 -0.04100836 -0.012050422 -0.00597167 0.00376336 0.008243243 0.03018437
0.043849874 0.012481694 -0.065039575 0.0026740804 -0.0147848725 0.002459251 0.008651964 -0.04097957
-0.057571582 0.0047138655 0.015216485 0.026285581 -0.019125476 0.053406633 0.013929501 -0.027462885
-0.026184035 0.005085981 -0.044375297 -0.012103558 -0.038060408 0.04786349 -0.053617306 -0.019967763
0.020714737 -0.046080828 0.032981258 -0.050423138 0.009814723 -0.01851309 -0.032256037 -0.019855678
0.015961647 0.053246096 0.05308712 0.037792653 0.048417266 -0.03179439 -0.05301674 0.0070891846
0.00044190843 0.015143291 0.026660055 0.045754276 0.03387516 -0.031789314 0.040390648 -0.02245541
-0.034649357 0.005672947 -0.023283126 -0.050310716 0.013244018 -0.013343433 -0.030257339 -0.021485247
0.060904093 0.05228283 0.037640437 -0.04827854 -0.03255713 -0.01058238 -0.012655169 -0.0577581
0.0010500797 -0.0406981 0.0150493365 -0.015570879 -0.0152518125 0.041023284 -0.04021117 -0.040283024
-0.011251964 0.021185622 0.018073283 -0.059680063 -0.025525115 0.05395723 -0.021685727 -0.034137957
-0.008127062 0.025310993 -0.027535204 0.019183364 0.01287052 0.026636688 -0.004574083 -0.020601269
0.007994622 0.05306276 0.036553495 -0.048658535 -0.045592453 0.02263686 0.014693461 -0.029790342
-0.063796066 -0.028479114 -0.04146963 -0.043725535 0.010596544 -0.02217676 -0.008867761 -0.012228894
0.05377972 0.06206397 -0.017455012 -0.012113707 0.0220524 0.04356756 -0.06173173 -0.009629123
0.0056320224 0.023782037 0.025827872 -0.0026286095 0.032039896 -0.0008090362 0.014875328 -0.0034658774
-0.03602979 -0.030971345 -0.022331554 -0.008385083 0.038522743 0.0014660507 -0.052383848 -0.015450959
-0.05909068 0.047055405 -0.019663988 -0.048401624 -0.07009684 -0.05019375 -0.0031168123 -0.021835336
0.010335249 -0.05232644 0.055690058 -0.0010900153 -0.04677856 -0.02721058 -0.054332767 -0.008781783
0.04306083 -0.01587643 -0.05258981 0.0588174 -0.0126946345 0.053527627 -0.0062829293 -0.01859092
-0.053239375 0.022356614 0.0073513384 -0.033794288 0.046664685 -0.031414106 0.03849487 -0.029341802
0.046605654 -0.05207429 -0.0019734278 0.0094521735 -0.010261856 0.046317846 -0.017727265 -0.042566523
-0.03902973 -0.055593625 -0.018057719 -0.048714347 0.025275402 0.010998122 0.044056065 0.019185962
-0.043973915 -0.035390913 -0.03657466 0.0028610786 -0.06887674 0.041610934 -0.021456795 -0.047742926
-0.027942017 -0.0061310604 0.0063327625 0.014279679 0.042539533 -0.023766506 0.0066115716 -0.00057233125
-0.025598595 -0.0445524 0.029100455 -0.04571919 -0.056013353 -0.026553879 0.042557724 0.027166866
-0.0004247441 0.022185214 0.027599057 0.0054133385 0.03876005 0.037976082 -0.006631702 0.054863185
-0.05592366 -0.05416663 -0.0163189 0.03372472 0.004202299 -0.012485494 -0.02072037 0.023821436

main_model.hiddenlayer_0.bias f4 [256]
00000000: 8edf 11bd 600c 54bd 5928 833c 37fc 1b3d
00000010: a9f5 97bb c6d5 ab3c d9ce 6ebd 9353 593c
00000020: d757 153d 8112 6cbc 6265 b53c e40b 7abd
00000030: 0c8d c5bc 7650 a53c 9cbd 5c3d b86d 5d3d
00000040: d017 65bd 412e 783c 06f2 6dbd 8cca f03b
00000050: 5075 ddbb 3c98 493d 56a7 07bd 726d 763d
00000060: 3f91 183d da9e 043d 9614 f6bc d3c7 3fbd
00000070: 8320 5b3d cfbe 0f3e c956 6e38 702d 693d
00000080: 6638 e63b f9d6 1cbd c515 e23b e0af 07bd
00000090: 8397 363b d09e 85bd 1e6d 2b3d 5a6f 69bd
000000a0: 38c7 303e 604e 49bd 277c 3f3d 34db 2ebc
000000b0: 44e0 d93c f7d2 4b3e ae12 89bd 9dab 9f3c
000000c0: 4f98 ecbb 9c0b 2cbc 05ad 543c 59f2 0fbd
000000d0: 973a 9f3c 72b4 51bc e014 c1bc d9ac 1abc
000000e0: 00ba 23bc 7415 f4bc bc79 95bc 38ad c1bc
000000f0: 7d0c 973b e89c 403d 972b 86bc 1721 5dbd
00000100: 3d7b 553c 0894 e8bc c153 0cbd ca0d 5bbd
00000110: 04c8 c73c c49c 5abd 4928 383d 8a81 003e
00000120: 50e2 853c a461 29bd 2233 923c b9c5 e6b9
00000130: fa3f 18bd 0e29 383c 6720 083d dc21 e93c
00000140: 4676 87bd 26f3 5f3d 4710 263d c1de d9bc
00000150: 4c60 2e3d 89e5 8abd 20d7 263c 4094 4b3d
00000160: 5895 06bd 2d98 103c 545c f8bc ea91 61bd
00000170: 72b6 073d dec5 da3d 6eba 10bc 8028 0f3c
00000180: 9c45 dabb 8f93 a5bd ef58 63bd aa78 52bc
00000190: 38d6 3fbc a256 41bd e052 203e 4d04 7abd
000001a0: ca14 0fbc 5ae7 1dbd a4e8 7bbd d28f 59bd
000001b0: 5f4e e83a e40e 96bc 14db 3ebd b591 123e
000001c0: c64a 8e3d b044 d83b 0943 64bd 34f4 1e3d
000001d0: d5d0 d13d 59c2 833d 6939 0cbd 4b13 873c
000001e0: 94dd 413e 9404 cfbc 3c0a 0cbd 1d6e 2b3e
000001f0: c8e1 5d3d 140f 573d a085 503c f0fa 0a3d
00000200: a9cb 353d 0055 38bb 6891 4e3d 40d6 fd3c
00000210: 17e1 afbb e600 7cbd 35f8 d93c 14b9 6fbd
00000220: 0bf1 3e3a 37fe 173e 11a9 013d 87cd 793d
00000230: f1e9 b9bc 158b 2cbc 03cc a13d 18e6 163d
00000240: 9b28 5e3d a025 ea3c a382 073d f216 3c3e
00000250: 5cb1 dbbc ae97 6cbd 45f4 173d db15 fc3c
00000260: f6d8 563d b044 bf3c af36 433d e3cb 3dbd
00000270: b35f 0f3d 39f4 653d 806f 7abd 8eed 213b
00000280: 9d12 863d 4799 18bd 3467 b03c 1179 8d3d
00000290: 9009 bcbb b2e3 08bb 1771 16bb 8355 e73a
000002a0: e508 443e 9afb 98bb 7037 eebb 3ebc 5fbd
000002b0: 86df 4dbd b7d7 2abd a423 18bd f6cf 3f3d
000002c0: dde4 0abc 6747 083d ee67 2d3d 2bf5 2fbd
000002d0: fced 8bbc 9942 bebc 1b01 583d 1369 4d3c
000002e0: ae6f 2c3d c84c da3c 555d 75bc e7b4 4abc
000002f0: f0f6 b83c d6ca 98b9 fbc3 faba 36c1 dd3c
00000300: 74c5 f43c bdb2 8c3c 920e cebc 3ad7 533c
00000310: d851 9e3c 5284 863c eb34 393d 887a 083d
00000320: b79d 47bd 11bc dd3d df48 173e b43f 56bd
00000330: 708e 71bc 6dd6 22bd 1655 81bd 55a3 6bbd
00000340: 26e4 343d 0158 053d b60b 483d 875c 77bc
00000350: e041 77bd 6060 333c 3cd1 d7bc a162 26bd
00000360: ec8a e4ba ceb4 d9bc 1895 ef3b d776 5e3c
00000370: 23d6 af3b 9c7c 0c3d ea7a 8abc f4e2 253c
00000380: 8f94 2abd 638f 0f3d 6783 253e 806a 6b3c
00000390: ad5a 2c3d 0545 d23c 792f 7fbd 85c6 2dbb
000003a0: b08f f8bb da7b 503d af72 013d 4673 373b
000003b0: 33ce 6f3d 1042 c83b d31a 52bd 434c 053d
000003c0: 7ca6 cf3c 1295 10bd 1d9b 6a3c 7b62 33bd
000003d0: 274a 3f3d b905 61bd 3489 6dbc b08b d23c
000003e0: d265 0e3e be71 c4bc 2a84 273d caa5 c63b
000003f0: 0802 793d c485 91bc c913 7bbc f2aa 1cbd
-0.03561359 -0.051769614 0.01601045 0.038082328 -0.0046374393 0.020975959 -0.058302734 0.013264555
0.036460724 -0.014408709 0.02214307 -0.061046496 -0.024115108 0.020179968 0.053891763 0.054059714
-0.055930912 0.015147747 -0.05809214 0.007348364 -0.0067583695 0.049217448 -0.03311857 0.06016297
0.037247892 0.032378055 -0.030039113 -0.046821427 0.053497802 0.14037631 5.6824447e-05 0.0569281
0.007025766 -0.03829095 0.006899568 -0.03312671 0.0027861304 -0.06524432 0.04185211 -0.05699096
0.17263496 -0.04914701 0.04674926 -0.010672379 0.026596196 0.19904695 -0.06693016 0.019491011
-0.007220305 -0.010500815 0.012980704 -0.03514323 0.019437118 -0.012799369 -0.023569524 -0.009440624
-0.009993076 -0.029795386 -0.018246524 -0.023642167 0.004609643 0.047024637 -0.016378207 -0.053986635
0.013029871 -0.0283909 -0.03425956 -0.053479947 0.024387367 -0.05337216 0.044960294 0.12549415
0.016343266 -0.041352883 0.017846648 -0.00044016333 -0.037170388 0.011240257 0.033234026 0.028458528
-0.06614356 0.054675244 0.040542867 -0.026595475 0.042572305 -0.067820616 0.010183126 0.04970193
-0.03285727 0.008825344 -0.030317463 -0.055070795 0.033132978 0.106822714 -0.008833511 0.008737683
-0.00666113 -0.08084785 -0.055504736 -0.012846151 -0.011708789 -0.04720176 0.15656614 -0.061039258
-0.008732984 -0.038550712 -0.06150116 -0.053115673 0.0017723552 -0.018317647 -0.046595648 0.14313395
0.06947856 0.006599985 -0.055727992 0.03880711 0.1024491 0.06433553 -0.034234438 0.016488692
0.18932182 -0.025270738 -0.034189448 0.16741224 0.0541704 0.052504614 0.012727171 0.03393072
0.04438368 -0.0028126836 0.05043164 0.030985951 -0.005367409 -0.061524294 0.026607612 -0.058526114
0.0007283843 0.14843069 0.031655375 0.06098702 -0.02269456 -0.010531207 0.0790024 0.03684053
0.054237943 0.028582394 0.03308357 0.18368128 -0.02681797 -0.05776184 0.037098188 0.03077214
0.052453004 0.023348182 0.047659572 -0.04633702 0.035003375 0.056141112 -0.06114149 0.0024708244
0.06546519 -0.03725555 0.021533586 0.06907857 -0.0057384446 -0.002088767 -0.002295559 0.0017649386
0.19144018 -0.004668665 -0.0072697923 -0.05462288 -0.050261997 -0.041709628 -0.037143365 0.046829186
-0.008477417 0.03327122 0.042335443 -0.04295842 -0.017081253 -0.023225116 0.05273543 0.012537259
0.042098694 0.02664794 -0.014975865 -0.012372232 0.022578686 -0.00029142824 -0.0019131893 0.02706967
0.02987931 0.017175073 -0.025153432 0.012929732 0.019326136 0.016420517 0.045216482 0.03331998
-0.048734393 0.108268864 0.14773892 -0.052306846 -0.014743432 -0.039755274 -0.06315057 -0.057528812
0.04416289 0.03255463 0.048839293 -0.015097744 -0.060365558 0.010948271 -0.026344888 -0.040621404
-0.0017436421 -0.026575472 0.0073114745 0.013578138 0.0053661033 0.034298524 -0.016904313 0.010124911
-0.041645583 0.035048854 0.16163407 0.014368653 0.042078663 0.025667677 -0.062301133 -0.0026516032
-0.0075854883 0.050899364 0.03160351 0.0027992292 0.058546256 0.006111391 -0.051295113 0.032543432
0.02534794 -0.035298415 0.014319208 -0.04379509 0.046701577 -0.0549371 -0.014498044 0.025701374
0.13906029 -0.023980018 0.040897526 0.006062244 0.060792953 -0.01776398 -0.015324541 -0.038248964

main_model.OutputLayer.weight f4 [3, 256]
00000000: 7072 983b 828b 973c 6d1e aebc ff85 7fbd
00000010: da9d db3c c58f aabc 4327 bb3c 3688 78bb
00000020: f089 6bbd 8ba0 01bd 5ef8 5fbc baac 2abd
00000030: 91bb 37bd 448a 53bd 8606 f93b 0c75 4a3d
00000040: 8205 14bd e2ff ad3c d20a 5c3d 5d0b 77bb
00000050: e812 0cbd ba6a 473d 06ca aebc c61b 2d3d
00000060: 52c8 603d 7b71 f8bc f992 653c ded1 d2bc
00000070: 11ce 053d dde3 aa3b c033 053c 6db4 af3b
00000080: 71dc 22bd e648 3fbc d93c b1bc 3c86 d43c
00000090: 51f9 8abc 1a22 e53c f3f0 5d3b 3221 24bd
000000a0: df0a 33be 4094 2a3c c359 323d b6ad 513d
000000b0: ca1e d2bc 00ee cabd a246 23bd 5048 a938
000000c0: 4922 153d 6f00 223d c47f 25bd 0524 873c
000000d0: 5728 883c 5176 983c d8f5 93bc 1861 cb3c
000000e0: 6ca4 59bd 502a 06bb e687 463d 526a 86bc
000000f0: cf8a 4fbd 9c40 393d e2be 14bb 211e d7bc
00000100: bbe2 9abc e438 4d3d c62a 80bc a1ec 9ebb
00000110: df9e 3cbd 3673 1dbd e220 dfbb bf7c 00bd
00000120: fe1d e9bc cecf d4bb d443 0dbc 1c4f 1cbd
00000130: 18bc 6fbd dc14 9cbc f64b b0bc 3120 333d
00000140: 9c1d 9039 3a03 8b3c 2840 01bc 5a04 87bb
00000150: 4d10 7bbc 3a5c d5bc dc69 243d cf86 323d
00000160: e9e0 c8bc 76a4 b53a 40c1 01bc 17b7 613d
00000170: af1c 26bc dc6e 3bbe d478 62bd aa9c 323c
00000180: 3882 123d 619f 53bc 2d53 103d 0628 90bd
00000190: f678 673d 7e7f 793c dcd5 72bd c719 2cbc
000001a0: dd3d 1ebd e00c 753c 57d0 543c 5581 3b3d
000001b0: bd8d ecbc f0f7 6fbd 110e debc 6139 84bd
000001c0: e31a fdbc 66db 4abc bc6b 3dbd 8e93 38bc
000001d0: ba6e 9bbd b580 2bbd 4d36 0a3d da3e 253d
000001e0: 46a8 c03b 68a2 c83c 6018 f6bb 3f53 09be
000001f0: 72eb 463d 7611 8a3b 8c33 3c3d e0bc de3b
00000200: 6d27 7abb aace 02bd f0db 0abc 98a3 04bc
00000210: a11b 723b 336f ddbb 20a5 20bc 224b 623d
00000220: bacb bbbc 30c7 53bd 03a9 c4bc 0ff6 c13c
00000230: 358a cb3c 427a 153d db40 b7bd cc4f 3abd
00000240: 6f26 b83c cf6e d63b 2dc4 f3bc e66a 08be
00000250: 0c40 41bd 0520 e13c ef10 9fbc c3c4 e53c
00000260: 7b66 aebc 54a9 abbc 1ae7 48bd 38bf 503c
00000270: ed56 e1bb 0f79 17bd 451d 0b3c 9ddf 0a3c
00000280: c0d2 eebb 311b 4fbd 0e9e 033d 20aa 50bc
00000290: 1ee7 1b3d 084b 19bd d9c1 d5bc 1f53 6d3a
000002a0: d6ea 1abe d64a 7d3d 6839 713c 4684 6abd
000002b0: de47 6c3b b71e 693c 0f13 ad3c 3a44 e43c
000002c0: c1d3 22bd 77cc cf3c 445a 3d3d a073 173d
000002d0: 736e 993c 6f33 1bbc b88d cebc cf9e 92b9
000002e0: 9bea 08bd 0467 a63c 056c 17bb 682e 4bbd
000002f0: 3478 313d 32e0 fe3c 96f8 ad3c a34d 31bd
00000300: 48cd 9a3c dd30 dbbc d972 67bc 89a2 d1bc
00000310: 7e67 113d 7cd1 5c3d 1ff0 133c 5d07 b23c
00000320: 3095 97bb a991 4dbd 315b 95bd acbb b1bc
00000330: 6c7c 1abd 02bd c9bc 0556 87bd eb4f 403d
00000340: 0b85 c6bc ca11 28bd 58f5 4dbc dc22 65bc
00000350: 7751 083c 58d5 303c 202b ef3c 548a f63b
00000360: 01e5 06bd 3f08 03bd 481e 063c 750e 8fbc
00000370: 1d8b 0d3d 8ca1 b2bc de52 6b39 1c16 24bd
00000380: 480f 56bc fabd 4ebc 8264 4cbd 492e 3fbd
00000390: 5cb6 423c 377a f13b e67f 07bd d963 d0bc
000003a0: 6335 92bc a0c0 f03c f6e5 d8bc 50b4 1ebd
000003b0: a086 f7bc 86b6 033d 730b ebbc f864 f03c
000003c0: 502b a23b 68c9 5a3c 9765 deba e702 283c
000003d0: f4a1 62bc 9cc2 5b3d c0c9 54bd f76e 3a3d
000003e0: de55 3bbe 8339 d93c ce37 4abd d805 1bbd
000003f0: a205 7c3d b0ed cdbb e294 44bd 02ce 71bd
0.004652314 0.01849914 -0.021254743 -0.062383648 0.026808668 -0.020820508 0.02284587 -0.0037922985
-0.057504594 -0.031647246 -0.013670055 -0.04166863 -0.04485661 -0.051645532 0.0075996546 0.04942803
-0.036138065 0.021240178 0.053721257 -0.0037695982 -0.034197718 0.048685767 -0.021336567 0.042262815
0.05487854 -0.03032755 0.014012092 -0.025734838 0.032667223 0.0052151517 0.008130014 0.0053620846
-0.03976101 -0.011675095 -0.02163546 0.025942914 -0.016964586 0.027970362 0.003386554 -0.04007072
-0.17484616 0.010411322 0.043542635 0.051191054 -0.025649447 -0.09908676 -0.039862283 8.072017e-05
0.03640965 0.039551195 -0.04040505 0.016496668 0.016620798 0.018611105 -0.018061563 0.024826571
-0.05313532 -0.0020471998 0.048469447 -0.01640812 -0.050669488 0.045227632 -0.0022696783 -0.026259484
-0.018906942 0.050103083 -0.015645396 -0.0048499857 -0.04604995 -0.03843995 -0.00680934 -0.031368967
-0.028456684 -0.006494499 -0.0086221285 -0.038161382 -0.05852899 -0.019052915 -0.021520596 0.043731872
0.0002748788 0.016969312 -0.007888831 -0.004120392 -0.015323711 -0.026044954 0.040140018 0.043585595
-0.024521308 0.0013858217 -0.00791961 0.05510625 -0.010138675 -0.18304008 -0.055291012 0.010901609
0.035768718 -0.012916417 0.035235573 -0.07038884 0.05651184 0.01522815 -0.059285983 -0.010504193
-0.038633216 0.014956683 0.012989125 0.045777638 -0.02887618 -0.05858606 -0.027106317 -0.06456257
-0.03089661 -0.01238141 -0.04624532 -0.0112656485 -0.07589479 -0.04187079 0.03374319 0.040343143
0.0058794348 0.024491504 -0.00751023 -0.13410662 0.048564382 0.0042135073 0.045947596 0.006797418
-0.0038170472 -0.03193537 -0.008475289 -0.008095644 0.0036942738 -0.0067576407 -0.009804994 0.055247433
-0.022924293 -0.051703632 -0.024006372 0.0236769 0.024846176 0.036493547 -0.08947917 -0.045486256
0.022479264 0.006543971 -0.02975663 -0.13322029 -0.04718022 0.027481088 -0.019417254 0.028047925
-0.0212891 -0.020954765 -0.04904852 0.012740903 -0.0068768174 -0.036980685 0.008490865 0.008476165
-0.007288307 -0.05056304 0.032133155 -0.012735873 0.038062207 -0.03742507 -0.02609341 0.00090532185
-0.15128645 0.061838947 0.014723159 -0.057255052 0.0036053578 0.014228514 0.021127252 0.027864564
-0.039752726 0.025366051 0.046228662 0.036975503 0.018729424 -0.009472712 -0.025214061 -0.00027965612
-0.033426862 0.020312794 -0.0023105156 -0.049604803 0.043327525 0.031112764 0.0212367 -0.04328693
0.018896714 -0.026756698 -0.014126503 -0.025590198 0.03549909 0.053910717 0.009029417 0.021732027
-0.004625939 -0.05018774 -0.07292784 -0.021695934 -0.037716314 -0.024626259 -0.06608204 0.046951216
-0.024233362 -0.04103259 -0.012570702 -0.013985362 0.008320204 0.010793053 0.029195368 0.007523814
-0.03293324 -0.031990286 0.008185931 -0.017462948 0.034556497 -0.021805547 0.00022442217 -0.040060148
-0.013065167 -0.012618536 -0.04990054 -0.046675 0.011884298 0.0073693055 -0.033080958 -0.025438236
-0.017847722 0.029388726 -0.026476841 -0.03874618 -0.030215561 0.03215649 -0.028691983 0.02934502
0.004949011 0.013353683 -0.0016967532 0.010254598 -0.013832558 0.05365239 -0.051950216 0.04551598
-0.18294474 0.026516682 -0.049369626 -0.03784737 0.06152881 -0.006284438 -0.04799355 -0.059034355

main_model.OutputLayer.bias f4 [3]
00000000: 1fb9 003c 8cb5 3a3a 7c0f 1b3d
0.007856636 0.00071223895 0.037856564
