c1-dqn/dqn/src/DQN_├╩▒Γ/xy2Dsimulator/new/save/main_model_000003.pth (torch_old, 274727 bytes, 6 tensors)

main_model.InputLayer.weight f4 [256, 6]
-0.12774062 -0.022501916 0.11600417 -0.34323695 0.38884348 -0.34731743 -0.24989969 -0.0617128
-0.20065522 -0.09402946 -0.36321354 0.3986274 -0.3335575 -0.046298712 0.32003748 0.07861027
-0.21357334 -0.22842908 0.09638095 -0.38833943 0.31075305 -0.27109194 -0.030611306 0.29385555
0.17092025 -0.22133581 0.22581327 0.36418772 0.086566955 0.2580564 0.25139338 0.18531024
0.0053395927 -0.28065577 0.3456788 -0.32344782 0.0948596 0.27602017 -0.13828048 0.3017729
-0.29244202 -0.08342701 0.32194847 -0.37753835 -0.18029587 -0.10337603 0.26599145 0.017677516
0.06069231 -0.13628036 0.04533106 -0.39733532 -0.052872688 -0.39008018 -0.020036161 -0.0243738
0.25445575 -0.003979981 -0.20178132 0.20680994 -0.19478627 0.19475192 -0.035916567 0.043991208
0.26727372 -0.40079135 0.25974947 0.23983932 0.05511728 -0.057359874 -0.17079233 -0.07564822
0.04500267 -0.33775213 -0.10618442 0.1852355 -0.39419153 -0.10764256 -0.011783242 0.4022078
0.10428113 -0.14280117 -0.15156686 0.19130176 0.010494977 -0.22523235 -0.14533317 0.32561368
-0.17566745 -0.33807534 0.28967 0.2888385 0.28459096 0.31379503 -0.032736927 -0.05886534
0.20571887 -0.3575545 -0.15476191 0.11569548 -0.20083922 0.20438963 -0.2196791 0.000582844
0.025260895 -0.4051966 0.28812838 0.1794051 -0.3174684 0.33442992 -0.1334137 0.26839644
-0.007921636 -0.4006989 0.32471848 0.2319516 0.23361391 0.13509005 0.33598143 -0.3351354
0.25809163 0.09207082 -0.020076603 -0.07093555 -0.40608624 0.17430246 -0.08110207 -0.3623101
0.346601 -0.04884097 -0.10710803 0.11736894 0.31161898 0.36246508 0.33129388 0.10146111
-0.044477105 0.0226278 0.22177082 0.17517525 0.17583734 -0.31179228 -0.28764766 -0.09558982
0.25594532 -0.04785663 0.3333797 -0.3773446 0.09797019 -0.10147983 0.0005184114 0.12212819
-0.31178516 0.004342407 0.35859334 0.2587037 -0.20283122 0.31982172 0.062565595 0.029032826
0.23830277 0.22014815 -0.19325069 -0.3860487 -0.145217 -0.10894996 0.05559659 -0.30912358
-0.1870415 0.0283781 -0.2564144 0.1068424 -0.27327603 -0.11272463 0.13135523 -0.027653456
-0.2830506 0.087954134 0.36924624 0.26098984 0.051332623 -0.18129033 -0.26889607 -0.21246694
-0.033786535 0.008629382 0.3053798 -0.19538404 0.33434546 -0.3223649 0.34287053 -0.09027755
-0.14395297 0.11308259 -0.25990778 -0.19849353 0.05462134 -0.36393386 -0.09710315 -0.05135423
-0.13195163 0.17572033 0.3020659 0.1314531 -0.008177668 -0.11131883 0.21520418 -0.009692371
0.23772854 -0.34668192 0.05070278 0.17306173 0.01744318 -0.25984913 0.09356564 -0.1475426
-0.2515407 0.016988575 0.31308675 -0.31581602 -0.26187995 -0.11335456 -0.114632666 -0.03357318
0.25941342 0.22272253 -0.27383962 -0.4073835 0.12517023 0.16673142 -0.26097596 0.042506397
0.21118069 -0.19200267 0.14745754 0.18584633 0.008903563 -0.29823944 0.059619695 0.30723083
-0.16252157 -0.11128515 0.21727425 -0.25833791 0.35978556 -0.20532778 -0.22102308 0.3439445
-0.016810834 0.04638654 -0.025286555 -0.042294145 0.15130508 -0.027305156 -0.35800835 0.29564065
00000000: 70ce 02be f055 b8bc 9893 ed3d c1bc afbe
00000010: 7e16 c73e 97d3 b1be b4e5 7fbe 90c6 7cbd
00000020: 9078 4dbe 8492 c0bd 20f7 b9be e418 cc3e
00000030: 0cc8 aabe b8a3 3dbd f4db a33e 6cfe a03d
00000040: f8b2 5abe 50e9 69be 6063 c53d 6dd4 c6be
00000050: 061b 9f3e 90cc 8abe 90c4 fabc 3c74 963e
00000060: b805 2f3e dba5 62be 983b 673e d076 ba3e
00000070: 044a b13d f81f 843e a2b6 803e f8c1 3d3e
00000080: c0f7 ae3b 1db2 8fbe d0fc b03e f49a a5be
00000090: c045 c23d 8452 8d3e 6699 0dbe fa81 9a3e
000000a0: f6ba 95be c8db aabd 6ed6 a43e b54c c1be
000000b0: 7b9f 38be d0b6 d3bd 0830 883e 70d0 903c
000000c0: 8098 783d 148d 0bbe 10ad 393d 896f cbbe
000000d0: 0891 58bd 97b8 c7be e022 a4bc 90ab c7bc
000000e0: 0648 823e 806a 82bb c39f 4ebe fcc5 533e
000000f0: 0d76 47be 0c6d 473e 401d 13bd 2030 343d
00000100: 1ad8 883e 8634 cdbe e2fd 843e 7098 753e
00000110: a8c2 613d 30f2 6abd 2fe4 2ebe 74ed 9abd
00000120: b854 383d d9ed acbe 3877 d9bd 60ae 3d3e
00000130: 79d3 c9be b473 dcbd 800e 41bc 2eee cd3e
00000140: 5891 d53d 783a 12be 5834 1bbe 9ce4 433e
00000150: 20f3 2b3c 4fa3 66be 38d2 14be d6b6 a63e
00000160: 2be2 33be 3618 adbe a04f 943e a4e2 933e
00000170: e8b5 913e bea9 a03e 2817 06bd c81c 71bd
00000180: f8a7 523e 6211 b7be e879 1ebe c0f1 ec3d
00000190: cca8 4dbe 844b 513e 8ff3 60be 00ca 183a
000001a0: f0ef ce3c ee75 cfbe 9085 933e f8b5 373e
000001b0: 388b a2be 663a ab3e 9a9d 08be 426b 893e
000001c0: c0c9 01bc 6828 cdbe 8041 a63e b884 6d3e
000001d0: 7c38 6f3e 0c55 0a3e c205 ac3e de96 abbe
000001e0: 9624 843e a08f bc3d b077 a4bc a846 91bd
000001f0: 89ea cfbe 587c 323e d818 a6bd b680 b9be
00000200: b075 b13e 780d 48bd 745b dbbd 205f f03d
00000210: 868c 9f3e 0695 b93e 5a9f a93e d8ca cf3d
00000220: a02d 36bd f05d b93c e417 633e 2461 333e
00000230: b40e 343e 3da3 9fbe 8e46 93be 98c4 c3bd
00000240: 440b 833e 5005 44bd beb0 aa3e 5033 c1be
00000250: 98a4 c83d a8d4 cfbd 00e6 073a 581e fa3d
00000260: 4ea2 9fbe c04a 8e3b 8c99 b73e d074 843e
00000270: fdb2 4fbe acbf a33e 6422 803d 40d6 ed3c
00000280: a405 743e 846e 613e 82e3 45be 2da8 c5be
00000290: c4b3 14be 2821 dfbd 40b9 633d 7245 9ebe
000002a0: cf87 3fbe 3079 e83c c048 83be 30d0 da3d
000002b0: d6ea 8bbe 2cdc e6bd fc81 063e 8089 e2bc
000002c0: 02ec 90be 4c21 b43d d80d bd3e 76a0 853e
000002d0: 2842 523d 2ca4 39be bfac 89be ef90 59be
000002e0: c063 0abd 4062 0d3c be5a 9c3e c112 48be
000002f0: 542f ab3e 030d a5be ba8c af3e 70e3 b8bd
00000300: 6868 13be d897 e73d a212 85be e341 4bbe
00000310: a0ba 5f3d 8a55 babe 04de c6bd d058 52bd
00000320: 541e 07be 08f0 333e 62a8 9a3e a49b 063e
00000330: a0fb 05bc 20fb e3bd 7c5e 5c3e c0cc 1ebc
00000340: 1c6f 733e 4b80 b1be b8ad 4f3d 1837 313e
00000350: 00e5 8e3c f20a 85be 589f bf3d 6815 17be
00000360: f1c9 80be a02b 8b3c e84c a03e a3b2 a1be
00000370: 2115 86be 7026 e8bd 88c4 eabd 0884 09bd
00000380: d6d1 843e 6011 643e b534 8cbe 9294 d0be
00000390: a02c 003e a4bb 2a3e a49e 85be 301b 2e3d
000003a0: c03f 583e 599c 44be 1cff 163e 804e 3e3e
000003b0: 40e0 113c d7b2 98be c833 743d 5c4d 9d3e
000003c0: 0e6c 26be 78e9 e3bd 247d 5e3e de44 84be
000003d0: d035 b83e 7241 52be e053 62be 7e19 b03e
000003e0: e0b6 89bc d0ff 3d3d c025 cfbc a03c 2dbd
000003f0: b8ef 1a3e 10af dfbc df4c b7be 365e 973e

main_model.InputLayer.bias f4 [256]
0.27211994 -0.050888002 0.17730874 0.10343492 0.20325947 -0.09443098 -0.30996597 -0.054024845
-0.2141444 0.19253218 -0.052897066 -0.40500635 0.2540593 -0.05964601 -0.29387665 -0.3415771
-0.30665877 0.14721596 0.34253496 -0.13126352 0.041434288 -0.17846327 0.34470248 -0.09515783
0.1273027 -0.14314553 -0.15950587 0.022692204 -0.14700049 -0.009557903 0.21673793 0.05838573
0.33724052 -0.17109674 -0.029040128 -0.26102406 0.30636573 -0.30054834 -0.25904348 0.15894306
-0.3308565 -0.031045586 0.2687282 -0.28565478 0.24144757 0.10622203 -0.012986898 -0.1347884
-0.33612877 -0.4026315 -0.39013928 0.36487806 -0.2748586 0.25271767 0.14814746 -0.39337352
0.24503112 0.1681568 0.016721398 0.08595884 0.04690963 -0.11719823 0.048940003 -0.2252974
-0.12243107 -0.3909504 -0.34561497 0.30393225 -0.021669894 -0.25075334 -0.12259409 0.37369287
-0.0210478 -0.17343245 0.13161063 -0.030932456 -0.14759111 -0.22449036 0.3424086 -0.25023013
0.37423068 -0.33690536 0.26447344 -0.36507216 0.03837377 0.057052076 -0.2785231 -0.33908424
-0.31516388 0.24713302 -0.004329115 -0.31614938 -0.36113828 -0.31528637 -0.392688 -0.037974954
-0.03419602 0.16097397 0.07298812 -0.3700044 -0.0070852935 -0.2046079 -0.15328005 0.20870888
-0.4023005 0.16619319 -0.2693587 0.18624055 -0.15825737 -0.020125449 -0.39394075 -0.08872071
-0.028149128 -0.30669168 -0.10860953 -0.27345538 0.18577254 -0.16611728 0.34512573 0.07007077
0.38835996 -0.3393197 0.25367796 -0.15783164 -0.15582469 0.16034812 -0.041656554 0.21382183
-0.082235485 -0.061240256 0.013464928 0.08810574 0.09665108 -0.38945234 0.3460204 -0.3642264
-0.09726581 0.23643273 0.17784595 -0.13089025 0.20651698 -0.31945568 -0.17108715 0.34681404
0.29512912 -0.30225584 0.019097716 -0.30592746 0.22925663 0.2779708 -0.026293695 -0.26501876
0.26090127 -0.066919506 -0.10591665 0.1619528 0.073180854 0.19546938 -0.40210438 0.26391476
0.14681858 -0.22405061 -0.042041123 0.12711883 -0.1665822 0.08529517 0.3431288 -0.09699321
0.1540637 0.122796 -0.11374721 -0.01832965 0.14050776 0.07977319 0.27678192 -0.23462361
0.028156728 -0.17807344 0.25087953 0.25732768 -0.14269435 -0.116535485 -0.25718635 0.3370806
0.08159828 0.1690954 -0.15641138 -0.13081175 0.15238845 -0.32265282 0.066779494 -0.08335832
-0.03335294 -0.3375401 0.14759445 0.105373144 0.36633617 0.21581173 -0.40387523 -0.22745243
0.11837238 0.1884216 -0.046532154 0.385234 -0.101697475 0.297494 -0.014080524 0.09009716
0.3681954 -0.20184143 0.05939153 0.02463466 0.1411258 -0.03267765 0.20496202 -0.32102874
0.3806048 0.20829517 0.28269708 0.39640534 0.22748744 -0.22314593 -0.25488105 -0.13696167
0.095863044 -0.3505764 -0.29941106 0.24788892 0.20452243 -0.02764839 -0.2008514 0.21485895
-0.19194694 -0.38918102 -0.19776274 0.2699932 0.2714023 0.20681089 0.18632293 0.15410161
0.06101644 -0.19365467 0.0038319528 0.32899255 0.013638288 0.20061558 0.17915952 0.3236913
0.38908738 0.12264764 0.025944144 0.021552086 0.3391117 -0.29169732 -0.14743236 -0.39334545
00000000: 4e53 8b3e f06f 50bd 6c90 353e b0d5 d33d
00000010: 4023 503e 0865 c1bd dcb3 9ebe 2849 5dbd
00000020: ab48 5bbe 2827 453e 98aa 58bd fe5c cfbe
00000030: 1014 823e 604f 74bd 0077 96be 32e3 aebe
00000040: 6102 9dbe c8bf 163e be60 af3e f269 06be
00000050: 00b7 293d 13bf 36be d87c b03e 1ce2 c2bd
00000060: a45b 023e be94 12be 8255 23be 00e5 b93c
00000070: 4c87 16be c098 1cbc 8cf0 5d3e e025 6f3d
00000080: caaa ac3e fc33 2fbe 90e5 edbc f2a4 85be
00000090: f8db 9c3e 79e1 99be 59a1 84be f8c1 223e
000000a0: 0666 a9be 5053 febc be96 893e 5841 92be
000000b0: 083e 773e f08a d93d 00c7 54bc f805 0abe
000000c0: 1219 acbe b725 cebe 56c0 c7be 4cd1 ba3e
000000d0: 44ba 8cbe 3664 813e f8b3 173e 4168 c9be
000000e0: 70e9 7a3e 4c31 2c3e 50fb 883c 300b b03d
000000f0: 5024 403d a005 f0bd 5075 483d 5db4 66be
00000100: 24bd fabd a72a c8be 72f4 b0be 029d 9b3e
00000110: 1085 b1bc be62 80be 9c12 fbbd ac54 bf3e
00000120: 706c acbc 4798 31be f0c4 063e 1066 fdbc
00000130: 2022 17be cde0 65be 2e50 af3e 2a1e 80be
00000140: 2a9b bf3e dc7e acbe 1069 873e bdea babe
00000150: d02d 1d3d 70af 693d 949a 8ebe 739c adbe
00000160: 295d a1be 7010 7d3e 40db 8dbb 55de a1be
00000170: 1ee7 b8be 376d a1be 670e c9be a08b 1bbd
00000180: 2011 0cbd 5cd6 243e cc7a 953d 3771 bdbe
00000190: c02b e8bb bc84 51be 72f5 1cbe c8b7 553e
000001a0: 55fa cdbe 8c2e 2a3e 62e9 89be d8b5 3e3e
000001b0: 380e 22be 20de a4bc 9ab2 c9be 34b3 b5bd
000001c0: 0099 e6bc b106 9dbe ac6e debd 5802 8cbe
000001d0: 283b 3e3e a61a 2abe 52b4 b03e 4481 8f3d
000001e0: 1ed7 c63e 50bb adbe 14e2 813e 9e9e 21be
000001f0: 8290 1fbe 4c32 243e 10a0 2abd 1cf4 5a3e
00000200: 146b a8bd 10d7 7abd 009c 5c3c c870 b43d
00000210: 00f1 c53d 4c66 c7be 9629 b13e e27b babe
00000220: 4c33 c7bd 6c1b 723e 401d 363e 1808 06be
00000230: 3079 533e b28f a3be 7831 2fbe 9c91 b13e
00000240: 2a1b 973e 47c1 9abe d072 9c3c 86a2 9cbe
00000250: 40c2 6a3e 3052 8e3e e065 d7bc 8ab0 87be
00000260: da94 853e 180d 89bd d4ea d8bd f4d6 253e
00000270: d8df 953d 2029 483e a0e0 cdbe d61f 873e
00000280: 9c57 163e 866d 65be 5033 2cbd 702b 023e
00000290: 8694 2abe 3caf ae3d 94ae af3e 60a4 c6bd
000002a0: e0c2 1d3e 787c fb3d 4cf4 e8bd 1028 96bc
000002b0: 44e1 0f3e 2060 a33d 5cb6 8d3e 2c41 70be
000002c0: f0a8 e63c e258 36be 4873 803e 74c0 833e
000002d0: 781e 12be 28aa eebd eead 83be d495 ac3e
000002e0: 001d a73d 5827 2d3e 4e2a 20be 84f3 05be
000002f0: b80b 1c3e c032 a5be b0c3 883d c4b7 aabd
00000300: 189d 08bd 0ed2 acbe 0023 173e e0cd d73d
00000310: 6a90 bb3e c0fd 5c3e bcc8 cebe 4ae9 68be
00000320: 386d f23d 98f1 403e 8098 3ebd 643d c53e
00000330: c446 d0bd 2251 983e 00b2 66bc dc84 b83d
00000340: 1c84 bc3e 85af 4ebe 8844 733d a0ce c93c
00000350: 4883 103e 00d9 05bd 90e1 513e e15d a4be
00000360: a2de c23e 544b 553e acbd 903e a4f5 ca3e
00000370: 78f2 683e 5e80 64be c57f 82be ae3f 0cbe
00000380: d853 c43d c07e b3be 684c 99be 98d6 7d3e
00000390: 546e 513e e07e e2bc fdab 4dbe fc03 5c3e
000003a0: bd8d 44be bc42 c7be 5182 4abe 8c3c 8a3e
000003b0: 3ef5 8a3e 3cc6 533e 70cb 3e3e d0cc 1d3e
000003c0: 60ec 793d 694d 46be 8021 7b3b b671 a83e
000003d0: 2073 5f3c 2c6e 4d3e 9875 373e deba a53e
000003e0: 7636 c73e b02e fb3d d088 d43c 008e b03c
000003f0: 0ca0 ad3e 5a59 95be 82f8 16be 9364 c9be

main_model.hiddenlayer_0.weight f4 [256, 256]
-0.05847463 0.02218061 0.035313524 0.052040733 0.00913804 -0.033662245 -0.01027254 0.027426451
-0.0051624104 -0.0329877 0.00969249 -0.026303492 -0.05695545 0.017511182 -0.0074890554 0.055187114
0.02076713 0.047372892 0.061221324 -0.031185575 -0.02751109 -0.030688718 -0.03372903 0.0293499
-0.037383743 -0.052955456 0.052217893 0.032552615 -0.01657983 -0.012889929 0.020482756 -0.0015316531
-0.009922154 -0.03614776 -0.034735493 -0.0045965314 -0.00597167 0.0097108185 0.015693083 0.037576586
0.039441526 0.01974301 -0.059034154 0.0026740804 -0.0147848725 0.008983046 0.008651964 -0.033549584
-0.057571582 0.0121791065 0.015216485 0.026285581 -0.013120115 0.053406633 0.019934855 -0.019976616
-0.020178683 0.012305781 -0.038369887 -0.004556708 -0.032055423 0.054851428 -0.047807 -0.012584269
0.020714737 -0.039044403 0.039732084 -0.043701902 0.017003559 -0.01851309 -0.026250586 -0.014211088
0.015961647 0.060341075 0.060253717 0.037792653 0.0544227 -0.026046298 -0.047011353 0.0135777965
0.007723354 0.022465907 0.03266552 0.045754276 0.041123517 -0.02550666 0.040390648 -0.02245541
-0.028644212 0.012857862 -0.015866704 -0.043174006 0.013244018 -0.0062153414 -0.024251908 -0.021485247
0.060904093 0.0595543 0.037640437 -0.04827854 -0.025135487 -0.01058238 -0.012655169 -0.0577581
0.00808204 -0.033885695 0.022298858 -0.021575816 -0.008889228 0.041023284 -0.04021117 -0.040283024
-0.011251964 0.021185622 0.018073283 -0.052345827 -0.025525115 0.05395723 -0.021685727 -0.026767477
-0.0009184256 0.025310993 -0.021213464 0.025915638 0.01287052 0.033652082 -0.004574083 -0.0134273395
0.007994622 0.05306276 0.036553495 -0.048658535 -0.039290465 0.02263686 0.014693461 -0.029790342
-0.057790868 -0.028479114 -0.034741715 -0.043725535 0.010596544 -0.016070679 -0.001627922 -0.0050002635
0.05377972 0.06206397 -0.017455012 -0.0047973543 0.029469408 0.04356756 -0.055726327 -0.009629123
0.011773355 0.023782037 0.0328904 -0.0026286095 0.039373226 -0.0008090362 0.021222554 0.003471315
-0.029359877 -0.024513409 -0.015000425 -0.0023796037 0.04535956 0.0014660507 -0.052383848 -0.008084945
-0.05909068 0.054348826 -0.013222158 -0.048401624 -0.062412113 -0.05019375 0.0041221753 -0.015829884
0.017490007 -0.05232644 0.055690058 0.006237395 -0.04028003 -0.019844227 -0.046733335 -0.0016519725
0.04306083 -0.009496264 -0.045427687 0.0588174 -0.0126946345 0.060953796 0.00022745878 -0.01859092
-0.046521798 0.022356614 0.014649376 -0.026531324 0.046664685 -0.031414106 0.03849487 -0.029341802
0.046605654 -0.04455465 -0.0019734278 0.0159541 -0.010261856 0.053546764 -0.0101602 -0.042566523
-0.03254211 -0.055593625 -0.018057719 -0.048714347 0.025275402 0.010998122 0.050289117 0.025191307
-0.036845185 -0.035390913 -0.029207587 0.009243898 -0.061776266 0.041610934 -0.014192246 -0.04173761
-0.020470649 -0.0061310604 0.01302585 0.021470927 0.049771465 -0.017441832 0.012617059 -0.00057233125
-0.018824182 -0.0445524 0.029100455 -0.038209826 -0.056013353 -0.019440435 0.04984206 0.027166866
0.0066781417 0.02949395 0.034700572 0.0054133385 0.03876005 0.04500352 -0.006631702 0.054863185
-0.048524924 -0.047005787 -0.009530626 0.039730176 0.004202299 -0.0053484812 -0.01534348 0.023821436
00000000: 1883 6fbd 1cb4 b53c eaa4 103d aa28 553d
00000010: b8b7 153c 6ce1 09bd 284e 28bc 70ad e03c
00000020: 7029 a9bb 1c1e 07bd 40cd 1e3c 6c7a d7bc
00000030: 1e4a 69bd 9c73 8f3c c066 f5bb e20b 623d
00000040: d41f aa3c 140a 423d 36c3 7a3d e478 ffbc
00000050: f05e e1bc e866 fbbc 7427 0abd 346f f03c
00000060: b21f 19bd d2e7 58bd 6ee2 553d e455 053d
00000070: 6cd2 87bc 4830 53bc 74cb a73c c0c1 c8ba
00000080: 8890 22bc ac0f 14bd ce46 0ebd 809e 96bb
00000090: 00ae c3bb 201a 1f3c c88e 803c e8e9 193d
000000a0: 708d 213d 18bc a13c cccd 71bd a03f 2f3b
000000b0: 403c 72bc a02d 133c f8c0 0d3c 4a6b 09bd
000000c0: 2ed0 6bbd e08a 473c 904e 793c dc54 d73c
000000d0: c0f5 56bc eac0 5a3d 6c4e a33c 00a6 a3bc
000000e0: c44d a5bc 309e 493c be29 1dbd 7050 95bb
000000f0: 8c4c 03bd e4ab 603d 46d1 43bd 402e 4ebc
00000100: f4b1 a93c 06ed 1fbd 1cbe 223d c400 33bd
00000110: 0c4b 8b3c c4a8 97bc 780b d7bc a0d5 68bc
00000120: 00c2 823c 3428 773d 9acc 763d 78cc 1a3d
00000130: 56ea 5e3d 0c5f d5bc fa8e 40bd 6875 5e3c
00000140: 3014 fd3b 6c0a b83c 48cc 053d d668 3b3d
00000150: 2271 283d 58f3 d0bc aa70 253d 68f4 b7bc
00000160: 44a7 eabc c8a9 523c e4fa 81bc 3ad7 30bd
00000170: 70fd 583c 10aa cbbb f0ab c6bc d401 b0bc
00000180: 9276 793d 36ef 733d dc2c 1a3d b8bf 45bd
00000190: f0e8 cdbc b861 2dbc a057 4fbc c293 6cbd
000001a0: 886a 043c bacb 0abd 18ac b63c c4bf b0bc
000001b0: 20a4 11bc 0808 283d 78b4 24bd d0ff 24bd
000001c0: 285a 38bc 788d ad3c 6c0e 943c 9468 56bd
000001d0: 0c1a d1bc 4202 5d3d 44a6 b1bc 7847 dbbc
000001e0: 80c2 70ba 0059 cf3c dcc7 adbc 084d d43c
000001f0: e0de 523c c4d6 093d 30e2 95bb 58fe 5bbc
00000200: e0fb 023c 5658 593d 1eb9 153d 2c4e 47bd
00000210: 0aef 20bd f070 b93c d8bc 703c e00a f4bc
00000220: 1eb6 6cbd 084d e9bc 544d 0ebd 8c19 33bd
00000230: 209d 2d3c a8a6 83bc 0060 d5ba 40d9 a3bb
00000240: 2048 5c3d ca36 7e3d d0fd 8ebc 2033 9dbb
00000250: d469 f13c e673 323d 4a41 64bd 78c3 1dbc
00000260: 08e5 403c 8cd2 c23c 16b8 063d c044 2cbb
00000270: d245 213d 8015 54ba ecda ad3c 007f 633b
00000280: 2084 f0bc 58d0 c8bc 58c4 75bc 20f3 1bbb
00000290: f2ca 393d 8028 c03a 7290 56bd b876 04bc
000002a0: 1209 72bd e09c 5e3d c0a1 58bc c840 46bd
000002b0: d8a3 7fbd f697 4dbd 5013 873b acad 81bc
000002c0: 3447 8f3c 4054 56bd 421b 643d 1063 cc3b
000002d0: acfc 24bd 5c90 a2bc 746b 3fbd 0087 d8ba
000002e0: 8e60 303d 3896 1bbc 6212 3abd 84ea 703d
000002f0: 28fd 4fbc b0aa 793d 0082 6e39 fc4b 98bc
00000300: a48d 3ebd 3825 b73c f003 703c 3858 d9bc
00000310: 7823 3f3d 14ac 00bd ccac 1d3d 385e f0bc
00000320: 92e5 3e3d f07e 36bd a054 01bb 2cb2 823c
00000330: 5821 28bc da53 5b3d f876 26bc 3c5a 2ebd
00000340: e04a 05bd 24b6 63bd c8ed 93bc b288 47bd
00000350: 5c0e cf3c 7831 343c f6fb 4d3d 005e ce3c
00000360: faea 16bd 10f6 10bd c044 efbc b873 173c
00000370: 1c09 7dbd 3a70 2a3d 9886 68bc 0ef5 2abd
00000380: 10b2 a7bc 10e7 c8bb 606a 553c cce3 af3c
00000390: 2add 4b3d 2ce2 8ebc c8b7 4e3c 8008 16ba
000003a0: 2c35 9abc 947c 36bd 1464 ee3c e881 1cbd
000003b0: 426e 65bd 8c41 9fbc 3027 4c3d 0c8d de3c
000003c0: 50d4 da3b 4c9d f13c 3022 0e3d 6062 b13b
000003d0: dcc2 1e3d 9c55 383d c04e d9bb 38b8 603d
000003e0: 12c2 46bd 2489 40bd 5826 1cbc 1cbc 223d
000003f0: 70b3 893b 5042 afbb 3863 7bbc 2c25 c33c

main_model.hiddenlayer_0.bias f4 [256]
-0.028205961 -0.04789193 0.011293411 -0.0068638325 0.0008804947 0.029698275 -0.04978118 0.01797343
0.04380648 -0.008403584 0.021021016 -0.05129408 -0.02015791 0.026180021 0.05810728 0.054059714
-0.05122654 0.020467423 -0.050136834 0.0040664524 -0.0067583695 0.049217448 -0.038453013 0.05895509
0.044734888 0.03473007 -0.024033755 -0.04353685 0.055609263 0.01167196 0.004880339 0.059620656
0.0074565783 -0.032676235 0.015205681 -0.03312671 0.008786328 -0.060934275 0.03616886 -0.05699096
0.030555889 -0.04914701 0.052163452 -0.009111196 0.029656172 0.053655855 -0.060925066 0.022171438
-0.0031285062 -0.004822336 0.015795857 -0.031921394 0.022357449 -0.009341277 -0.016327448 -0.0009046793
0.016628288 -0.02465292 -0.012470402 -0.014793411 -0.032081828 0.047024637 -0.008900754 -0.048774406
0.019030482 -0.0283909 -0.03579481 -0.047477566 -0.02252394 -0.05337216 0.045889236 0.04783994
0.02500049 -0.033089325 0.022837944 0.005562581 -0.02728679 0.01967454 0.035418108 0.02682817
-0.061994553 0.01832071 0.053258367 -0.02532091 0.05400931 -0.062059164 0.014307566 0.053424418
-0.02962491 0.0124451965 -0.030317463 -0.050191484 0.037818454 -0.06102036 -0.0035103112 0.007686995
0.0008789599 -0.05792778 -0.028881818 -0.046316355 -0.011708789 -0.044829376 0.049691267 -0.058445632
-0.0040987805 -0.03715525 -0.059444852 -0.047792144 0.0103558 -0.018317647 -0.044705585 -0.0074876174
0.048814178 0.015996374 -0.04822386 0.033476375 0.004902087 0.02989646 -0.026301406 0.020176888
0.055143744 -0.020166129 -0.034189448 0.052251086 0.060173787 0.057277776 0.012727171 0.039060503
0.047256254 -0.0028126836 0.05043164 0.030985951 -0.0016249865 -0.054010794 0.037565514 -0.057257853
0.0025669187 0.06245932 0.036832467 0.05913438 -0.025594927 -0.0062025785 -0.0024024546 0.047403462
0.057009347 0.030849136 0.035390384 0.053100437 -0.02316887 -0.055296764 0.044050165 0.033826753
0.05202627 0.023348182 0.05044198 -0.041681074 0.04006195 0.023105726 -0.05160232 0.0072881654
0.050097875 -0.029745497 0.024271853 0.014063932 -0.0057384446 -0.0005120784 -0.00960701 0.005558893
0.031514697 0.010049984 -0.0072697923 -0.05462288 -0.04849595 -0.036368147 -0.050745316 0.053039066
-0.005922653 0.039883442 0.047842346 -0.037300445 -0.017180137 -0.02538903 0.05873178 0.008761451
0.042615518 0.02664794 -0.008967742 -0.010364294 0.027557746 0.0061547384 0.0015381053 0.016078874
0.05483684 -0.0527979 -0.01584293 0.019221291 0.019326136 0.012324721 0.051790744 0.03687554
-0.041777655 0.048384644 0.04862707 -0.052306846 -0.014743432 -0.037124254 -0.056501254 -0.052205183
0.04675953 0.032073833 0.048839293 -0.010794111 -0.050354123 0.010948271 -0.026344888 -0.03099756
0.0037077442 -0.021506295 0.014753193 0.019042827 0.011216506 0.037593424 -0.014822729 0.011500396
-0.034728147 -0.025829457 0.024586089 0.020701885 0.045048982 0.027722761 -0.056157544 -0.00027367473
-0.0031469911 0.050899364 0.009293497 -0.000612475 0.051426522 0.006111391 -0.055060722 0.034253657
0.039547183 -0.035298415 0.02032458 -0.039951324 0.013656221 -0.04928481 -0.015280694 0.031050012
0.014846221 -0.021665275 0.047139198 -9.615719e-05 0.060792953 -0.01776398 -0.010849759 -0.038248964
00000000: 3010 e7bc 542a 44bd 0008 393c 00ea e0bb
00000010: 00d1 663a cc49 f33c 5ae7 4bbd 043d 933c
00000020: 6c6e 333d 30af 09bc 4434 ac3c be19 52bd
00000030: 3422 a5bc 7c77 d63c e601 6e3d b86d 5d3d
00000040: ecd2 51bd 4cab a73c 485c 4dbd e03f 853b
00000050: 5075 ddbb 3c98 493d e880 1dbd e47a 713d
00000060: ee3b 373d 1e41 0e3d 70e2 c4bc b253 32bd
00000070: 8ac6 633d c03b 3f3c 40eb 9f3b ca34 743d
00000080: 5056 f43b 84d7 05bd 4021 793c e0af 07bd
00000090: 88f4 0f3c 3896 79bd cc25 143d 5a6f 69bd
000000a0: 5850 fa3c 604e 49bd 58a9 553d 2047 15bc
000000b0: 80f1 f23c 3ec6 5b3d 908c 79bd e0a0 b53c
000000c0: a007 4dbb b004 9ebb 5066 813c 02c0 02bd
000000d0: f826 b73c 280c 19bc 24c1 85bc 0028 6dba
000000e0: 0c38 883c ecf4 c9bc a850 4cbc 1060 72bc
000000f0: 3c68 03bd e89c 403d 78d4 11bc acc7 47bd
00000100: d0e5 9b3c 0894 e8bc 949d 12bd d677 42bd
00000110: 2084 b8bc c49c 5abd 5af6 3b3d d0f3 433d
00000120: d4cd cc3c ac88 07bd a416 bb3c 5046 b63b
00000130: 8c88 dfbc 802c a13c 9412 113d c0c6 db3c
00000140: 00ee 7dbd 5015 963c 7225 5a3d cc6d cfbc
00000150: de38 5d3d c031 7ebd 486a 6a3c 90d3 5a3d
00000160: f0af f2bc f0e6 4b3c 545c f8bc 9695 4dbd
00000170: 86e7 1a3d 7cf0 79bd 400d 66bb 30e3 fb3b
00000180: 006a 663a ae45 6dbd 9099 ecbc 38b6 3dbd
00000190: 38d6 3fbc 029f 37bd 1289 4b3d b064 6fbd
000001a0: 104f 86bb 1a30 18bd 727c 73bd b2c1 43bd
000001b0: 60ab 293c e40e 96bc 341d 37bd b05a f5bb
000001c0: 60f1 473d d40a 833c 6286 45bd 861e 093d
000001d0: b0a1 a03b 6ce9 f43c 0c76 d7bc 004a a53c
000001e0: 68de 613d 7033 a5bc 3c0a 0cbd 3c05 563d
000001f0: ca78 763d 1a9c 6a3d a085 503c e8fd 1f3d
00000200: c68f 413d 0055 38bb 6891 4e3d 40d6 fd3c
00000210: 80fd d4ba 6c3a 5dbd 4cde 193d 3687 6abd
00000220: c039 283b 58d5 7f3d a4dd 163d e436 723d
00000230: 74ac d1bc 003f cbbb 8072 1dbb 222a 423d
00000240: a282 693d 54b7 fc3c 82f5 103d d87f 593d
00000250: a4cc bdbc dc7e 62bd f26d 343d ec8d 0a3d
00000260: 8019 553d b044 bf3c 409c 4e3d c6b9 2abd
00000270: 0018 243d 3848 bd3c f45c 53bd 90d1 ee3b
00000280: 6e33 4d3d d4ac f3bc c4d5 c63c 686c 663c
00000290: 9009 bcbb 003d 06ba b866 1dbc 6027 b63b
000002a0: 8e15 013d b0a8 243c 7037 eebb 3ebc 5fbd
000002b0: b0a3 46bd c4f6 14bd 52da 4fbd 7e3f 593d
000002c0: d012 c2bb d25c 233d 56f6 433d 5ac8 18bd
000002d0: 5cbd 8cbc a8fc cfbc bc90 703d 308c 0f3c
000002e0: 9c8d 2e3d c84c da3c 70ed 12bc 00cf 29bc
000002f0: c8c0 e13c b0ad c93b 409a c93a d8b7 833c
00000300: 989c 603d 9c42 58bd 08c9 81bc f875 9d3c
00000310: d851 9e3c a0ed 493c 8822 543d ce0a 173d
00000320: 0c1f 2bbd fa2e 463d 2e2d 473d b43f 56bd
00000330: 708e 71bc 9a0f 18bd dc6d 67bd 1ad5 55bd
00000340: ec86 3f3d da5f 033d b60b 483d c8d9 30bc
00000350: 2040 4ebd 6060 333c 3cd1 d7bc 98ee fdbc
00000360: a0fd 723b f82d b0bc 60b7 713c b4ff 9b3c
00000370: 70c5 373c 90fb 193d 08db 72bc 286c 3c3c
00000380: 1a3f 0ebd 4c98 d3bc c468 c93c 0097 a93c
00000390: 4885 383d d81a e33c 7405 66bd 007c 8fb9
000003a0: c03d 4ebb da7b 503d c043 183c 808e 20ba
000003b0: 9ea4 523d 1042 c83b 5a87 61bd 904d 0c3d
000003c0: 3afc 213d 1295 10bd bc7f a63c 00a4 23bd
000003d0: 58be 5f3c dede 49bd e05b 7abc 985c fe3c
000003e0: 903d 733c 607b b1bc 0815 413d 00a8 c9b8
000003f0: 0802 793d c485 91bc 30c3 31bc f2aa 1cbd

main_model.OutputLayer.weight f4 [3, 256]
0.004652314 0.024573937 -0.037542082 -0.051804423 0.03108871 -0.022886604 0.018768206 -0.0051147193
-0.057504594 -0.037652716 -0.0101035535 -0.05046168 -0.058030523 -0.051645532 0.016923472 0.04942803
-0.036138065 0.02886159 0.062149473 0.0014520511 -0.034197718 0.048685767 -0.02900958 0.05046574
0.061555944 -0.03522172 0.008007742 -0.045485005 0.03895638 0.026178598 0.014506862 0.0008747056
-0.04976651 -0.019013941 -0.029052228 0.025942914 -0.022970036 0.03550092 0.012138784 -0.04007072
-0.03316684 0.010411322 0.058060624 0.060026146 -0.038017742 0.042078927 -0.045867756 -0.0011580586
0.039169915 0.043225273 -0.04562545 0.020635694 0.02548568 0.018589579 -0.018061563 0.024826571
-0.05313532 -0.008052699 0.054380737 -0.024873637 -0.048134655 0.045227632 -0.008144096 -0.017720528
-0.02491241 0.050103083 -0.014493458 -0.0108554885 -0.025588997 -0.03843995 -0.014839686 -0.01762706
-0.039412513 -0.0019589067 -0.013657555 -0.04416667 -0.05852899 -0.019052915 -0.027920842 0.057507448
-0.0013565123 0.018662438 -0.007888831 -0.004452549 -0.02132921 -0.0142798945 0.042153917 0.05774907
-0.023019686 0.008844815 -0.00791961 0.058149874 -0.008160941 -0.05114933 -0.055291012 0.016582027
0.035768718 -0.033330306 0.061850518 0.020955473 0.05651184 0.032812156 -0.026008576 -0.0043717995
-0.042826273 0.019207962 0.022216588 0.051913835 -0.027107596 -0.05858606 -0.01745563 -0.0066820756
-0.03441958 -0.017740272 -0.052250795 -0.013967015 -0.04849176 -0.04026018 0.03504177 0.04675536
0.00028014183 0.0374752 -0.00751023 -0.036251754 0.048564382 0.009167992 0.045947596 0.006797418
-0.010907888 -0.03193537 -0.008475289 -0.008095644 -0.00080052763 -0.014911279 -0.009804994 0.061126247
-0.034530625 -0.051747113 -0.057563685 0.038552307 0.031592607 0.04284925 -0.026743993 -0.045486256
0.025593005 0.006074846 -0.03440609 -0.038634077 -0.05327727 0.03923799 -0.019723013 0.031855755
-0.021957777 -0.020954765 -0.05312436 0.017799355 0.0014108494 -0.034165733 0.016863398 0.0062149316
-0.0038240403 -0.04772552 0.052757613 0.016636781 0.038062207 -0.04251615 -0.028480396 0.000121466815
-0.039463744 0.061838947 0.014723159 -0.057255052 0.0061119273 0.019575544 0.021635242 0.022578575
-0.055651188 0.027411886 0.05315058 0.039468005 0.025443882 -0.0052224025 -0.025214061 -0.0023692176
-0.043999642 0.020312794 -0.0015346259 -0.05494012 0.061730355 0.022235781 0.028114632 -0.033004917
0.046320416 -0.021751843 -0.011722475 -0.019771822 0.03549909 0.05806967 0.00347054 0.027653076
-0.004625939 -0.009759009 0.044325456 -0.021695934 -0.037716314 -0.03498034 -0.06187895 0.058187142
-0.023937993 -0.05535262 -0.012570702 -0.038473196 0.014674589 0.010793053 0.029195368 0.013082527
-0.033697158 -0.04405328 0.008185931 -0.031692088 0.036171168 -0.02664864 0.00094462186 -0.051366404
-0.019835182 -0.012201026 0.047744088 -0.05511555 0.021563753 0.018156841 -0.035169125 -0.03645754
-0.02391629 0.029388726 -0.026363157 -0.056682438 -0.028423034 0.03215649 -0.0447492 0.041286476
0.004949011 0.013353683 -0.0077022538 0.008348294 -0.008270368 0.05365239 -0.051118225 0.05396425
-0.05764895 0.041876256 -0.049369626 -0.037477687 0.06152881 -0.006284438 -0.05743611 -0.059034355
00000000: 7072 983b 484f c93c bac5 19bd e030 54bd
00000010: c0ad fe3c b07c bbbc c8bf 993c 6099 a7bb
00000020: f089 6bbd bc39 1abd 6089 25bc e8b0 4ebd
00000030: 6ab1 6dbd 448a 53bd 18a3 8a3c 0c75 4a3d
00000040: 8205 14bd 246f ec3c 7290 7e3d c052 be3a
00000050: e812 0cbd ba6a 473d 80a5 edbc 2ab5 4e3d
00000060: 1622 7c3d a644 10bd e832 033c 7c4e 3abd
00000070: ba90 1f3d 8074 d63c 30ae 6d3c 804c 653a
00000080: f8d7 4bbd 20c3 9bbc f0fe edbc 3c86 d43c
00000090: a82b bcbc 6a69 113d c0e1 463c 3221 24bd
000000a0: f4d9 07bd 4094 2a3c fad0 6d3d fadd 753d
000000b0: 7eb8 1bbd f45a 2c3d d4df 3bbd 00ca 97ba
000000c0: a270 203d fc0c 313d c0e1 3abd 300c a93c
000000d0: 58c7 d03c 2c49 983c d8f5 93bc 1861 cb3c
000000e0: 6ca4 59bd 78ef 03bc 56be 5e3d ccc3 cbbc
000000f0: d828 45bd 9c40 393d d06e 05bc a42a 91bc
00000100: 1c15 ccbc e438 4d3d f875 6dbc 38db 31bc
00000110: 04a0 d1bc 3673 1dbd 2822 73bc a066 90bc
00000120: 046f 21bd 0061 00bb f0c3 5fbc 1ce8 34bd
00000130: 18bc 6fbd dc14 9cbc 40ba e4bc ee8c 6b3d
00000140: 00cd b1ba f8e1 983c 2840 01bc b0e6 91bb
00000150: 98ba aebc 38f6 69bc 96a9 2c3d 4a8a 6c3d
00000160: c893 bcbc d8e9 103c 40c1 01bc 902e 6e3d
00000170: 78b5 05bc f681 51bd d478 62bd 08d7 873c
00000180: 3882 123d 5c85 08bd f856 7d3d d0aa ab3c
00000190: f678 673d 0a66 063d f00f d5bc 5041 8fbb
000001a0: 9a6a 2fbd 045a 9d3c 90ff b53c 9aa3 543d
000001b0: c010 debc f0f7 6fbd 1cff 8ebc 50f5 dabb
000001c0: 8cfb 0cbd 0c54 91bc ee04 56bd e8d5 64bc
000001d0: 4c9f 46bd dce7 24bd f687 0f3d 8c82 3f3d
000001e0: 00e0 9239 987f 193d 6018 f6bb b87c 14bd
000001f0: 72eb 463d 5835 163c 8c33 3c3d e0bc de3b
00000200: 00b7 32bc aace 02bd f0db 0abc 98a3 04bc
00000210: 80da 51ba 704e 74bc 20a5 20bc 845f 7a3d
00000220: fc6f 0dbd c8f4 53bd e6c7 6bbd 06e9 1d3d
00000230: 4067 013d b282 2f3d 3816 dbbc cc4f 3abd
00000240: 6ca8 d13c 800f c73b 66ed 0cbd c43e 1ebd
00000250: 4439 5abd 04b8 203d 2892 a1bc 2e7b 023d
00000260: cce0 b3bc 54a9 abbc ee98 59bd f4cf 913c
00000270: 40ec b83a 5ef1 0bbd 1c25 8a3c a0a6 cb3b
00000280: c09c 7abb d67b 43bd 5e18 583d dc49 883c
00000290: 1ee7 1b3d 6a25 2ebd b84f e9bc 00bc fe38
000002a0: bca4 21bd d64a 7d3d 6839 713c 4684 6abd
000002b0: 9046 c83b e45c a03c 643c b13c b4f6 b83c
000002c0: 80f2 63bd e48e e03c 6cb4 593d 34a9 213d
000002d0: b06f d03c b020 abbb b88d cebc e044 1bbb
000002e0: f838 34bd 0467 a63c 8025 c9ba e408 61bd
000002f0: f8d8 7c3d d027 b63c a850 e63c 2a30 07bd
00000300: 7aba 3d3d ec30 b2bc a00f 40bc 84f8 a1bc
00000310: 7e67 113d 76da 6d3d 0072 633b b488 e23c
00000320: 3095 97bb 40e4 1fbc 9c8e 353d acbb b1bc
00000330: 6c7c 1abd 8c47 0fbd c874 7dbd a455 6e3d
00000340: 9c19 c4bc 6eb9 62bd 58f5 4dbc 1296 1dbd
00000350: b06d 703c 58d5 303c 202b ef3c 1858 563c
00000360: 0806 0abd 3671 34bd 481e 063c 90cf 01bd
00000370: 3828 143d 404e dabc 80a0 773a 9465 52bd
00000380: 647d a2bc d0e6 47bc 4e8f 433d d8c0 61bd
00000390: 78a6 b03c a8bd 943c 800d 10bd 8054 15bd
000003a0: 18ec c3bc a0c0 f03c 8cf7 d7bc d82b 68bd
000003b0: 6cd7 e8bc 86b6 033d f04a 37bd 021c 293d
000003c0: 502b a23b 68c9 5a3c 3063 fcbb 48c7 083c
000003d0: 7080 07bc 9cc2 5b3d 5861 51bd 9e09 5d3d
000003e0: 4e21 6cbd 7086 2b3d ce37 4abd 3482 19bd
000003f0: a205 7c3d b0ed cdbb 2042 6bbd 02ce 71bd

main_model.OutputLayer.bias f4 [3]
0.015192263 0.021713734 0.042318128
00000000: f8e8 783c 00e1 b13c c655 2d3d
