c1-dqn/dqn/src/DQN_├╩▒Γ/xy2Dsimulator/new/save/main_model_000007.pth (torch_old, 274727 bytes, 6 tensors)

main_model.InputLayer.weight f4 [256, 6]
0	0xbe0f8d07	-0.14018641
1	0xbd0eb4ef	-0.03484052
2	0x3dd65618	0.1046564
3	0xbeb6234b	-0.355738
4	0x3ec0abe8	0.37631154
5	0xbea5079c	-0.32232368
6	0xbe7fe5b4	-0.24989969
7	0xbd7cc690	-0.0617128
8	0xbe4d7890	-0.20065522
9	0xbdc09284	-0.09402946
10	0xbeb9f720	-0.36321354
11	0x3ecc18e4	0.3986274
12	0xbeaac80c	-0.3335575
13	0xbd3da3b8	-0.046298712
14	0x3ea3dbf4	0.32003748
15	0x3da0fe6c	0.07861027
16	0xbe5ab2f8	-0.21357334
17	0xbe69e950	-0.22842908
18	0x3db92708	0.09040648
19	0xbeca1545	-0.39469352
20	0x3e9aafb6	0.30212182
21	0xbe94b7a2	-0.2904635
22	0xbd8ec5e1	-0.06971336
23	0x3ea93221	0.33046058
24	0x3e043d9c	0.12914127
25	0xbe8638a9	-0.26215103
26	0x3e2b79e0	0.1674571
27	0x3ea3fc72	0.32028538
28	0x3d3cad21	0.046063546
29	0x3e8c7d47	0.2743933
30	0x3e5f0ea2	0.21782926
31	0x3e1c61f8	0.15271747
32	0xbcdbbf27	-0.026824547
33	0xbe9eca87	-0.3101389
34	0x3ea003c0	0.3125286
35	0xbe9a0b13	-0.30086574
36	0x3da1e6d9	0.07905359
37	0x3e83b8bd	0.25726882
38	0xbe231e43	-0.15929513
39	0x3e8e2fe1	0.27770904
40	0xbe9e126b	-0.30873427
41	0xbd58bc0d	-0.052913714
42	0x3e9f656b	0.31132063
43	0xbec247b1	-0.3794532
44	0xbe2ea920	-0.17056704
45	0xbde68904	-0.112566024
46	0x3e86e2c0	0.26344872
47	0x3d5bda61	0.05367506
48	0x3d88eaa3	0.066853784
49	0xbe077352	-0.13227585
50	0xbd177c64	-0.036983863
51	0xbeeda2e9	-0.46413353
52	0xbced5925	-0.028973171
53	0xbef9c137	-0.48780224
54	0xbd711da9	-0.058866177
55	0xbd8170fc	-0.06320378
56	0x3e5ccd0f	0.21562599
57	0xbc9e8a64	-0.0193531
58	0xbe5f3713	-0.21798353
59	0x3e82d86b	0.2555574
60	0xbe500bc9	-0.20316996
61	0x3e3f2b32	0.18668821
62	0xbd328ea9	-0.043593083
63	0x3d13614a	0.035981454
64	0x3e84d39b	0.25942692
65	0xbec2f82e	-0.3807997
66	0x3e7cc768	0.24685442
67	0x3e691dbd	0.2276525
68	0x3d2a0733	0.041510772
69	0xbd9a2af5	-0.07527725
70	0xbe3bf859	-0.18356456
71	0xbd6fee26	-0.058576725
72	0x3d3854b8	0.04500267
73	0xbeacedd9	-0.33775213
74	0xbdd97738	-0.10618442
75	0x3e3dae60	0.1852355
76	0xbec9d379	-0.39419153
77	0xbddc73b4	-0.10764256
78	0xbd0aec32	-0.03391666
79	0x3ebffd54	0.37497962
80	0x3d9cd5a9	0.0765794
81	0xbe2b25dc	-0.16713661
82	0xbe361e6c	-0.17785043
83	0x3e5ddcf8	0.21666324
84	0x3c2bf320	0.010494977
85	0xbe66a34f	-0.22523235
86	0xbe14d238	-0.14533317
87	0x3ea6b6d6	0.32561368
88	0xbe33e22b	-0.17566745
89	0xbead1836	-0.33807534
90	0x3e8dca46	0.27693385
91	0x3e8c59f1	0.2741237
92	0x3e8a7c28	0.2704785
93	0x3e9abd2e	0.30222458
94	0xbd3a2eb7	-0.045454707
95	0xbd55b960	-0.05217874
96	0x3e439d64	0.19103009
97	0xbebfce0b	-0.37461886
98	0xbe419ecd	-0.18908234
99	0x3da99ed2	0.08282246
100	0xbe553323	-0.20820288
101	0x3e42166b	0.18953864
102	0xbe5d4854	-0.21609622
103	0x3b93909b	0.0045033223
104	0x3d1afcac	0.037838623
105	0xbed355a8	-0.41276288
106	0x3e955b42	0.29171187
107	0x3e6c8496	0.23097453
108	0xbea89f40	-0.32933998
109	0x3ea5265e	0.32255834
110	0xbe17a2ab	-0.14808147
111	0x3e81a6d0	0.2532258
112	0xbc9c4c74	-0.019079424
113	0xbecb1072	-0.39660984
114	0x3e999d37	0.30002758
115	0x3e549ec6	0.20763692
116	0x3e553fa4	0.20825058
117	0x3debf517	0.115213566
118	0x3e9ff1e0	0.31239223
119	0xbea1ee00	-0.31626892
120	0x3e5a5604	0.21321875
121	0x3d729954	0.059228256
122	0xbd1e2cc1	-0.0386169
123	0xbdbe1e41	-0.09283114
124	0xbeeac1ab	-0.45850882
125	0x3d2a131a	0.041522123
126	0xbdc435a8	-0.095805466
127	0xbec107ef	-0.37701365
128	0x3ea9ee7b	0.3318976
129	0xbd82239e	-0.0635445
130	0xbdf97844	-0.12181142
131	0x3e073e05	0.13207252
132	0x3e98d2a4	0.29848206
133	0x3eb30f38	0.34972548
134	0x3ea34c33	0.31894073
135	0x3dbbd465	0.091713704
136	0xbd6617e3	-0.056175124
137	0x3d091efe	0.033476822
138	0x3e50d5b9	0.20394029
139	0x3e217d5b	0.15770476
140	0x3e21c952	0.15799454
141	0xbeb05a87	-0.34444067
142	0xbe9b5f35	-0.30346075
143	0xbd87dde1	-0.06634117
144	0x3e7f321f	0.24921463
145	0xbd5d617a	-0.05404804
146	0x3ea78f06	0.32726306
147	0xbec43abd	-0.38326064
148	0x3dbd049d	0.092293955
149	0xbdb96dab	-0.09054121
150	0xbc803059	-0.015648054
151	0x3ddb3042	0.10702564
152	0xbea5e302	-0.32399756
153	0xbbd6916f	-0.0065480988
154	0x3eb0621a	0.34449846
155	0x3e941b43	0.2892705
156	0xbe67ff11	-0.22655894
157	0x3e975c2d	0.29562512
158	0x3d12e463	0.035862338
159	0x3b4ec533	0.0031550645
160	0x3e5b7f19	0.21435203
161	0x3e5529d5	0.20816739
162	0xbe45e382	-0.19325069
163	0xbec5a82d	-0.3860487
164	0xbe14b3c4	-0.145217
165	0xbddf2128	-0.10894996
166	0x3d63b940	0.05559659
167	0xbe9e4572	-0.30912358
168	0xbe3f87cf	-0.1870415
169	0x3ce87930	0.0283781
170	0xbe8348c0	-0.2564144
171	0x3ddad030	0.1068424
172	0xbe8bead6	-0.27327603
173	0xbde6dc2c	-0.11272463
174	0x3dfd49b6	0.12367575
175	0xbd116769	-0.03549901
176	0xbe94aee8	-0.29039693
177	0x3da34cf7	0.07973664
178	0x3eb8c02b	0.36084113
179	0x3e83a258	0.25709796
180	0x3d524228	0.051332623
181	0xbe39a42c	-0.18129033
182	0xbe89acbf	-0.26889607
183	0xbe5990ef	-0.21246694
184	0xbd0a63c0	-0.033786535
185	0x3c0d6240	0.008629382
186	0x3e992143	0.2990819
187	0xbe4de2d9	-0.20106067
188	0x3ea8a7cb	0.32940516
189	0xbea7610f	-0.32691237
190	0x3eace33a	0.3376711
191	0xbda25993	-0.07927241
192	0xbe1ad5f7	-0.15120684
193	0x3dd8bcb6	0.10582869
194	0xbe88c967	-0.26716158
195	0xbe52af6a	-0.20574728
196	0x3d420458	0.047367424
197	0xbeb69ec5	-0.35668007
198	0xbdf28c67	-0.11843186
199	0xbd952c0f	-0.07283794
200	0xbe1b7b05	-0.15183647
201	0x3e19d163	0.15021281
202	0x3e8fbcd0	0.2807374
203	0x3e1f4174	0.15552312
204	0xbd2131df	-0.0393542
205	0xbe1d5804	-0.15365607
206	0x3e2df765	0.16988905
207	0xbd74069d	-0.05957662
208	0x3e4a208d	0.1973898
209	0xbe9a24a6	-0.30106086
210	0x3d377614	0.044790342
211	0x3e2b03d7	0.16700684
212	0x3c3fef21	0.011714728
213	0xbe87a760	-0.26494884
214	0x3db2da9a	0.08733101
215	0xbe19acbb	-0.15007298
216	0xbe80c9f1	-0.2515407
217	0x3c8b2ba0	0.016988575
218	0x3ea04ce8	0.31308675
219	0xbea1b2a3	-0.31581602
220	0xbe861521	-0.26187995
221	0xbde82670	-0.11335456
222	0xbe0c5785	-0.13705261
223	0xbd65596c	-0.055993482
224	0x3e72ae6f	0.23699354
225	0x3e4f5ad8	0.20249498
226	0xbe96ae97	-0.29430076
227	0xbecb40e0	-0.39697933
228	0x3dd4aaa8	0.103841126
229	0x3e162737	0.14663397
230	0xbe91a5e9	-0.28446892
231	0x3ce0d5aa	0.027445633
232	0x3e4137ac	0.18868893
233	0xbe43fd4a	-0.19139591
234	0x3df14513	0.11780753
235	0x3e20336f	0.1564462
236	0xbca2e246	-0.019883286
237	0xbea42367	-0.3205826
238	0x3cdfccf2	0.027319405
239	0x3ea742e0	0.3266821
240	0xbe3c9240	-0.18415165
241	0xbe08661a	-0.13320199
242	0x3e4a007c	0.19726747
243	0xbe8a05cf	-0.26957557
244	0x3ead2900	0.33820343
245	0xbe3fc19e	-0.18726203
246	0xbe779e39	-0.24181451
247	0x3ea5745a	0.32315332
248	0xbd1c5b65	-0.038173098
249	0x3cce8f88	0.025214925
250	0xbd3ce94f	-0.046120938
251	0xbcc57549	-0.024103777
252	0x3e080c34	0.13285905
253	0xbd359087	-0.044327285
254	0xbebec057	-0.3725612
255	0x3e906e1d	0.2820901

main_model.InputLayer.bias f4 [256]
0	0x3e8aeb9a	0.27132875
1	0xbd506ff0	-0.050888002
2	0x3eb6ca53	0.35701236
3	0x3e82b5b4	0.25529253
4	0x3e15fc2d	0.14646979
5	0xbe031104	-0.1279946
6	0xbea6cb6e	-0.3257708
7	0xbd84686f	-0.064652316
8	0xbe54f98d	-0.20798321
9	0x3eb0cebf	0.34532735
10	0xbd7b0154	-0.061280563
11	0xbed5f72f	-0.4179015
12	0x3ede1844	0.43377888
13	0xbda77bf2	-0.081779376
14	0xbe967700	-0.29387665
15	0xbeb568a1	-0.35431388
16	0xbea487a1	-0.32134727
17	0x3e73dc03	0.23814397
18	0x3ec4720a	0.38368255
19	0xbe1fb2ad	-0.15595503
20	0x3e05a675	0.1305178
21	0xbe45d069	-0.19317783
22	0x3eab712d	0.33484784
23	0xbde76645	-0.11298803
24	0x3df5fcf9	0.12011141
25	0xbe2322ae	-0.15931198
26	0xbe3ba185	-0.18323334
27	0x3e331c07	0.1749116
28	0xbe16874c	-0.14700049
29	0xbc8d350f	-0.017237214
30	0x3ecd44ea	0.4009164
31	0x3d3bc698	0.04584369
32	0x3f03bdd4	0.5146153
33	0xbe450b23	-0.1924253
34	0xbd76a555	-0.060216267
35	0xbe88abea	-0.2669366
36	0x3efcfeb2	0.49413067
37	0xbea55bef	-0.32296702
38	0xbe8f8cf2	-0.2803722
39	0x3de68cf1	0.11257351
40	0xbeb47906	-0.35248584
41	0xbd5452f4	-0.051836923
42	0x3e96fd08	0.29489923
43	0xbe980fe6	-0.2969963
44	0x3ed990ff	0.42493436
45	0x3dd543aa	0.104132965
46	0xbc54c700	-0.012986898
47	0xbe165b72	-0.14683321
48	0xbeac1912	-0.33612877
49	0xbeddd541	-0.43326762
50	0xbec769ad	-0.38947812
51	0x3f0ccc4e	0.54999244
52	0xbe961186	-0.29310244
53	0x3eda42f0	0.42629194
54	0x3e2c3566	0.16817245
55	0xbed2663c	-0.41093624
56	0x3ec3275c	0.38115966
57	0x3e1d3f0e	0.15356085
58	0x3dd58a05	0.10426716
59	0x3d94a475	0.0725793
60	0x3e25253c	0.16127485
61	0xbe1a8474	-0.1508959
62	0x3cf739fc	0.030179016
63	0xbe77f783	-0.24215512
64	0xbdfabd24	-0.12243107
65	0xbecd6e92	-0.4012342
66	0xbebe9ca1	-0.37228873
67	0x3eec6881	0.4617348
68	0xbd23f97b	-0.040032845
69	0xbe8062be	-0.25075334
70	0xbe2ef821	-0.17086841
71	0x3ec41f43	0.383051
72	0xbcac6c70	-0.0210478
73	0xbe42df0e	-0.19030401
74	0x3cfb0441	0.030641677
75	0xbcfd6610	-0.030932456
76	0xbe2741a0	-0.16333628
77	0xbe844a28	-0.25837827
78	0x3f0163b0	0.50542736
79	0xbe835af6	-0.25655335
80	0x3ebec1e5	0.37257305
81	0xbebfbc48	-0.37448335
82	0x3ed158a3	0.40887937
83	0xbebaeabd	-0.36507216
84	0x3cc9cf05	0.024634847
85	0x3d2373b6	0.039905272
86	0xbe8e9a94	-0.2785231
87	0xbeb5a7c8	-0.3547957
88	0xbea4f9e0	-0.3222189
89	0x3ea73d60	0.32664013
90	0xbd035aef	-0.032069143
91	0xbea62f4e	-0.32457966
92	0xbeb8e71e	-0.36113828
93	0xbead6028	-0.33862424
94	0xbecbad98	-0.3978088
95	0xbd17c9d8	-0.037057728
96	0xbd1a52ed	-0.03767674
97	0x3e0ac013	0.13549833
98	0x3e78511b	0.2424969
99	0xbec286f2	-0.3799358
100	0xbd07880c	-0.03308873
101	0xbe5184bc	-0.2046079
102	0xbe1cf572	-0.15328005
103	0x3eca3d90	0.39500093
104	0xbed856a3	-0.422536
105	0x3e27f0b8	0.1640042
106	0xbe9c7834	-0.30560458
107	0x3e5faf7b	0.21844284
108	0xbe31de1e	-0.17369887
109	0xbca4de20	-0.020125449
110	0xbec9b29a	-0.39394075
111	0xbdb5b334	-0.08872071
112	0xbce69900	-0.028149128
113	0xbea2194d	-0.31659928
114	0xbde11e55	-0.109921135
115	0xbe92cf7c	-0.28673923
116	0x3ea15a29	0.315141
117	0xbe3089dc	-0.17240089
118	0x3f0768ad	0.528941
119	0x3d8b5acf	0.0680443
120	0x3eaa6cab	0.33286032
121	0xbeadbb50	-0.3393197
122	0x3e9000a5	0.28125492
123	0xbe2e82e3	-0.17042117
124	0xbe1f9082	-0.15582469
125	0x3e1bebb6	0.15226635
126	0xbd9b3a84	-0.0757952
127	0x3e3273c7	0.17426978
128	0xbda86b14	-0.082235485
129	0xbd7ad710	-0.061240256
130	0x3caafe5b	0.02087324
131	0x3dc9c955	0.09852854
132	0x3e8f8579	0.2803152
133	0xbeca8ff9	-0.39562967
134	0x3f04db1f	0.5189685
135	0xbeccbc50	-0.3998742
136	0xbd9c2137	-0.07623523
137	0x3ed4faf7	0.4159772
138	0x3e1f6d0d	0.15568943
139	0xbe060818	-0.13089025
140	0x3ec62c14	0.38705504
141	0xbea68bb6	-0.32528466
142	0xbe4deed9	-0.20110644
143	0x3ea3f706	0.320244
144	0x3ebd550f	0.36978957
145	0xbe9ac147	-0.30225584
146	0x3e37ff87	0.1796857
147	0xbeaa53bb	-0.33267006
148	0x3e7366a0	0.23769617
149	0x3ee5645b	0.44803128
150	0xbd092b7a	-0.033488728
151	0xbe87b08a	-0.26501876
152	0x3e75b430	0.23994517
153	0xbd890d18	-0.066919506
154	0xbe0bbdba	-0.13646594
155	0x3eab44e1	0.33450988
156	0x3e06c67d	0.13161655
157	0x3ec2289e	0.37921613
158	0xbee4c0f1	-0.44678453
159	0x3e5d96b3	0.21639518
160	0x3e0d1b58	0.13779962
161	0xbe7c7e3f	-0.24657534
162	0xbd4ababb	-0.049494486
163	0x3e923616	0.2855689
164	0xbe39c9f0	-0.1814344
165	0x3e01a257	0.12659584
166	0x3f082cb1	0.53193194
167	0xbded9804	-0.1160126
168	0x3e369b1c	0.17832607
169	0x3dcef645	0.10105566
170	0xbdff9435	-0.1247944
171	0xbc962810	-0.01832965
172	0x3dbed5c1	0.09318114
173	0x3e87e177	0.26539204
174	0x3e894cff	0.26816556
175	0xbe875bc1	-0.2643719
176	0x3db6083e	0.08888291
177	0xbe3658e2	-0.17807344
178	0x3ec98810	0.3936162
179	0x3e64a918	0.22330129
180	0xbe21ac20	-0.15788317
181	0xbe23dc1f	-0.16001938
182	0xbe889477	-0.2667577
183	0x3ea782f6	0.32717103
184	0x3dee95a8	0.116496384
185	0x3e5b3b9a	0.21409455
186	0xbe30e48c	-0.17274684
187	0xbe0f611d	-0.1400189
188	0x3eaf450c	0.34232366
189	0xbeb9e90e	-0.3631062
190	0x3dc73652	0.09727158
191	0xbdaab7c4	-0.08335832
192	0xbd58c71b	-0.052924257
193	0xbead6f6c	-0.3387407
194	0x3d27a9ad	0.0409333
195	0x3d66e251	0.056368176
196	0x3f0b024f	0.543004
197	0x3ec04a16	0.37556523
198	0xbecec8bc	-0.40387523
199	0xbe68e94a	-0.22745243
200	0x3e91fb98	0.28512263
201	0x3e3aea27	0.18253385
202	0xbd3e9880	-0.046532154
203	0x3ebcd3f3	0.36880454
204	0xbdaf1e26	-0.08550672
205	0x3e85d281	0.26137164
206	0xbce1078d	-0.02746942
207	0x3e897315	0.26845613
208	0x3ebdbc93	0.37057933
209	0xbe5d6e59	-0.21624126
210	0x3e7a06d3	0.24416666
211	0x3e46f46a	0.19429174
212	0x3ea25fca	0.31713706
213	0xbd05d900	-0.03267765
214	0x3ea43801	0.32073978
215	0xbeac7129	-0.33680084
216	0x3ec40291	0.38283208
217	0x3ebcb322	0.36855417
218	0x3e892364	0.26784813
219	0x3ec08d65	0.37607875
220	0x3e72e4c4	0.2372008
221	0xbe5ff812	-0.21871975
222	0xbe85bcd5	-0.2612063
223	0xbe1433d6	-0.14472899
224	0x3d7bd243	0.061479818
225	0xbeb37ec0	-0.3505764
226	0xbea40134	-0.32032168
227	0x3e56efff	0.20989989
228	0x3e64283e	0.22280976
229	0xbd967d26	-0.07348089
230	0xbe64cbb5	-0.22343333
231	0x3e90dc95	0.2829329
232	0xbe5ccf2e	-0.21563408
233	0xbec742bc	-0.38918102
234	0xbe4a8251	-0.19776274
235	0x3e3f9db4	0.18712503
236	0x3edfd9fb	0.43720993
237	0x3e3683ed	0.17823763
238	0x3e5ffa39	0.21872796
239	0x3ea880bf	0.32910725
240	0x3c46526b	0.012104611
241	0xbe5bf867	-0.21481477
242	0xbc740b40	-0.01489526
243	0x3f0397d9	0.51403576
244	0x3e46904d	0.19390984
245	0x3e4ceab2	0.20011404
246	0x3ebc7af6	0.36812562
247	0x3efc9b56	0.49337262
248	0x3eca69fc	0.39533985
249	0x3dbd828d	0.09253416
250	0x3c31d5ed	0.010854227
251	0x3e217ecd	0.15771027
252	0x3ed6825a	0.41896325
253	0xbe9b3d7e	-0.30320352
254	0xbe2ef000	-0.1708374
255	0xbec96493	-0.39334545

main_model.hiddenlayer_0.weight f4 [256, 256]
0	0xbd82b8b4	-0.063828856
1	0x3cb5b41c	0.02218061
2	0x3d10a4ea	0.035313524
3	0x3d5528aa	0.052040733
4	0x3b38335f	0.0028106791
5	0xbd27cdd0	-0.040967762
6	0xbc91879a	-0.017764855
7	0x3ce0ad70	0.027426451
8	0xbba92970	-0.0051624104
9	0xbd209f6a	-0.03921453
10	0x3b3c5395	0.0028736342
11	0xbd09e869	-0.03366891
12	0xbd694a1e	-0.05695545
13	0x3c27aeb3	0.010234523
14	0xbbf566c0	-0.0074890554
15	0x3d446815	0.047950823
16	0x3caa1fd4	0.02076713
17	0x3d420a14	0.047372892
18	0x3d622a7d	0.0552163
19	0xbd1d7a18	-0.038446516
20	0xbd0f7e90	-0.03503281
21	0xbcfb66e8	-0.030688718
22	0xbd27c5e4	-0.040960208
23	0x3cb50089	0.022094982
24	0xbd35f326	-0.044421338
25	0xbd7180ff	-0.05896091
26	0x3d382294	0.04495485
27	0x3d0555e4	0.032552615
28	0xbc87d26c	-0.01657983
29	0xbc9aca7d	-0.018895382
30	0x3ca7cb74	0.020482756
31	0xbc0aa146	-0.008461302
32	0xbc229088	-0.009922154
33	0xbd140fac	-0.03614776
34	0xbd27f862	-0.04100836
35	0xbc456f22	-0.012050422
36	0xbbc3ae00	-0.00597167
37	0x3b76a2b4	0.00376336
38	0x3c070eab	0.008243243
39	0x3cf74536	0.03018437
40	0x3d339bed	0.043849874
41	0x3c4c8005	0.012481694
42	0xbd853378	-0.065039575
43	0x3b2f3fa0	0.0026740804
44	0xbc723c40	-0.0147848725
45	0x3b212b63	0.002459251
46	0x3c0dc0f8	0.008651964
47	0xbd27da32	-0.04097957
48	0xbd6bd02e	-0.057571582
49	0x3b9a76c5	0.0047138655
50	0x3c794e90	0.015216485
51	0x3cd754dc	0.026285581
52	0xbc9cad08	-0.019125476
53	0x3d5ac0ea	0.053406633
54	0x3c643890	0.013929501
55	0xbce0f9d8	-0.027462885
56	0xbcd67fe7	-0.026184035
57	0x3ba6a84d	0.005085981
58	0xbd35c2df	-0.044375297
59	0xbc464e00	-0.012103558
60	0xbd1be53b	-0.038060408
61	0x3d440c82	0.04786349
62	0xbd5b9dd2	-0.053617306
63	0xbca3936f	-0.019967763
64	0x3ca9b1f4	0.020714737
65	0xbd3cbf40	-0.046080828
66	0x3d07175b	0.032981258
67	0xbd4e887e	-0.050423138
68	0x3c20cdef	0.009814723
69	0xbc97a8c4	-0.01851309
70	0xbd041ee8	-0.032256037
71	0xbca2a860	-0.019855678
72	0x3c82c200	0.015961647
73	0x3d5a1894	0.053246096
74	0x3d5971e1	0.05308712
75	0x3d1acc78	0.037792653
76	0x3d46512f	0.048417266
77	0xbd023ad6	-0.03179439
78	0xbd592815	-0.05301674
79	0x3be84c64	0.0070891846
80	0x39e7aff2	0.00044190843
81	0x3c781b91	0.015143291
82	0x3cda6630	0.026660055
83	0x3d3b68d6	0.045754276
84	0x3d0ac0ae	0.03387516
85	0xbd023583	-0.031789314
86	0x3d2570aa	0.040390648
87	0xbcb7f468	-0.02245541
88	0xbd0dec7c	-0.034649357
89	0x3bb9e421	0.005672947
90	0xbcbebc41	-0.023283126
91	0xbd4e129c	-0.050310716
92	0x3c58fd70	0.013244018
93	0xbc5a9e6a	-0.013343433
94	0xbcf7de3d	-0.030257339
95	0xbcb001d4	-0.021485247
96	0x3d797692	0.060904093
97	0x3d562685	0.05228283
98	0x3d1a2cdc	0.037640437
99	0xbd45bfb8	-0.04827854
100	0xbd055aa0	-0.03255713
101	0xbc2d61b8	-0.01058238
102	0xbc4f57a0	-0.012655169
103	0xbd6c93c2	-0.0577581
104	0x3a89a2d4	0.0010500797
105	0xbd26b30d	-0.0406981
106	0x3c76917e	0.0150493365
107	0xbc7f1d00	-0.015570879
108	0xbc79e2bd	-0.0152518125
109	0x3d280808	0.041023284
110	0xbd24b478	-0.04021117
111	0xbd24ffd0	-0.040283024
112	0xbc385a28	-0.011251964
113	0x3cad8d78	0.021185622
114	0x3c940e6c	0.018073283
115	0xbd747315	-0.059680063
116	0xbcd11a0c	-0.025525115
117	0x3d5d0242	0.05395723
118	0xbcb1a644	-0.021685727
119	0xbd0bd43e	-0.034137957
120	0xbc05275e	-0.008127062
121	0x3ccf5900	0.025310993
122	0xbce19182	-0.027535204
123	0x3c9d266e	0.019183364
124	0x3c52dee0	0.01287052
125	0x3cda352f	0.026636688
126	0xbb95e230	-0.004574083
127	0xbca8c3fe	-0.020601269
128	0x3c02fbe0	0.007994622
129	0x3d595856	0.05306276
130	0x3d15b91e	0.036553495
131	0xbd474e2c	-0.048658535
132	0xbd3abf27	-0.045592453
133	0x3cb970f0	0.02263686
134	0x3c70bcd8	0.014693461
135	0xbcf40ae0	-0.029790342
136	0xbd82a783	-0.063796066
137	0xbce94d08	-0.028479114
138	0xbd29dc0f	-0.04146963
139	0xbd33198c	-0.043725535
140	0x3c2d9d20	0.010596544
141	0xbcb5ac09	-0.02217676
142	0xbc114a16	-0.008867761
143	0xbc485bb3	-0.012228894
144	0x3d5c4820	0.05377972
145	0x3d7e36ca	0.06206397
146	0xbc8efdd0	-0.017455012
147	0xbc467892	-0.012113707
148	0x3cb4a73c	0.0220524
149	0x3d3273e6	0.04356756
150	0xbd7cda69	-0.06173173
151	0xbc1dc378	-0.009629123
152	0x3bb88cd4	0.0056320224
153	0x3cc2d28c	0.023782037
154	0x3cd394f9	0.025827872
155	0xbb2c44c0	-0.0026286095
156	0x3d033c44	0.032039896
157	0xba541580	-0.0008090362
158	0x3c73b7a6	0.014875328
159	0xbb6323c6	-0.0034658774
160	0xbd1393f9	-0.03602979
161	0xbcfdb79e	-0.030971345
162	0xbcb6f0aa	-0.022331554
163	0xbc096196	-0.008385083
164	0x3d1dca06	0.038522743
165	0x3ac02880	0.0014660507
166	0xbd569072	-0.052383848
167	0xbc7d2605	-0.015450959
168	0xbd720912	-0.05909068
169	0x3d40bd2b	0.047055405
170	0xbca1165f	-0.019663988
171	0xbd4640c8	-0.048401624
172	0xbd8f8eef	-0.07009684
173	0xbd4d97f6	-0.05019375
174	0xbb4c436f	-0.0031168123
175	0xbcb2e005	-0.021835336
176	0x3c29552d	0.010335249
177	0xbd565440	-0.05232644
178	0x3d641b42	0.055690058
179	0xba8eded8	-0.0010900153
180	0xbd3f9ae0	-0.04677856
181	0xbcdee8b9	-0.02721058
182	0xbd5e8c09	-0.054332767
183	0xbc0fe178	-0.008781783
184	0x3d30608e	0.04306083
185	0xbc820f49	-0.01587643
186	0xbd57686a	-0.05258981
187	0x3d70ea84	0.0588174
188	0xbc4ffd28	-0.0126946345
189	0x3d5b3fc9	0.053527627
190	0xbbcde108	-0.0062829293
191	0xbc984bfc	-0.01859092
192	0xbd5a1188	-0.053239375
193	0x3cb72538	0.022356614
194	0x3bf0e37f	0.0073513384
195	0xbd0a6be1	-0.033794288
196	0x3d3f2378	0.046664685
197	0xbd00ac14	-0.031414106
198	0x3d1daccc	0.03849487
199	0xbcf05e38	-0.029341802
200	0x3d3ee592	0.046605654
201	0xbd554bda	-0.05207429
202	0xbb0154a0	-0.0019734278
203	0x3c1add4a	0.0094521735
204	0xbc282158	-0.010261856
205	0x3d3db7c8	0.046317846
206	0xbc9138c5	-0.017727265
207	0xbd2e5a3c	-0.042566523
208	0xbd1fdda3	-0.03902973
209	0xbd63b624	-0.055593625
210	0xbc93edc8	-0.018057719
211	0xbd4788b2	-0.048714347
212	0x3ccf0e5c	0.025275402
213	0x3c343178	0.010998122
214	0x3d347422	0.044056065
215	0x3c9d2be1	0.019185962
216	0xbd341dfe	-0.043973915
217	0xbd10f610	-0.035390913
218	0xbd15cf50	-0.03657466
219	0x3b3b80ef	0.0028610786
220	0xbd8d0f40	-0.06887674
221	0x3d2a703a	0.041610934
222	0xbcafc629	-0.021456795
223	0xbd438e16	-0.047742926
224	0xbce4e6a8	-0.027942017
225	0xbbc8e710	-0.0061310604
226	0x3bcf8310	0.0063327625
227	0x3c69f551	0.014279679
228	0x3d2e3def	0.042539533
229	0xbcc2b1fa	-0.023766506
230	0x3bd8a5e2	0.0066115716
231	0xba160880	-0.00057233125
232	0xbcd1b425	-0.025598595
233	0xbd367c94	-0.0445524
234	0x3cee6414	0.029100455
235	0xbd3b440c	-0.04571919
236	0xbd656e42	-0.056013353
237	0xbcd98785	-0.026553879
238	0x3d2e5102	0.042557724
239	0x3cde8d0c	0.027166866
240	0xb9deb030	-0.0004247441
241	0x3cb5bdc4	0.022185214
242	0x3ce2176b	0.027599057
243	0x3bb16260	0.0054133385
244	0x3d1ec2dc	0.03876005
245	0x3d1b8ccf	0.037976082
246	0xbbd94ec0	-0.006631702
247	0x3d60b838	0.054863185
248	0xbd651035	-0.05592366
249	0xbd5dddd4	-0.05416663
250	0xbc85af37	-0.0163189
251	0x3d0a22ef	0.03372472
252	0x3b89b370	0.004202299
253	0xbc4c8ff5	-0.012485494
254	0xbca9bdc4	-0.02072037
255	0x3cc3252c	0.023821436

main_model.hiddenlayer_0.bias f4 [256]
0	0xbd11df8e	-0.03561359
1	0xbd539fc4	-0.051666036
2	0x3c830cde	0.015997346
3	0x3d1a6a70	0.037699163
4	0xbb97f5a9	-0.0046374393
5	0x3cabd5c6	0.020975959
6	0xbd6eced9	-0.058302734
7	0x3c606c83	0.013697746
8	0x3d1557d7	0.036460724
9	0xbc6c1281	-0.014408709
10	0x3cb6d3a2	0.022317711
11	0xbd7a0be4	-0.061046496
12	0xbcb56477	-0.022142632
13	0x3ca55076	0.020179968
14	0x3d5f93ea	0.05458442
15	0x3d5d6db8	0.054059714
16	0xbd6517d0	-0.055930912
17	0x3c782e41	0.015147747
18	0xbd6bddca	-0.05758456
19	0x3bef0f2f	0.007295511
20	0xbbdd7550	-0.0067583695
21	0x3d49983c	0.049217448
22	0xbd080958	-0.033212036
23	0x3d7719ab	0.060327213
24	0x3d18913f	0.037247892
25	0x3d0530da	0.03251729
26	0xbcf61496	-0.030039113
27	0xbd3ded03	-0.04636861
28	0x3d5cacb1	0.05387563
29	0x3e0fb8f1	0.14035393
30	0x386e56c9	5.6824447e-05
31	0x3d68d5ad	0.056844402
32	0x3bfad735	0.007655049
33	0xbd1cd6f9	-0.03829095
34	0x3be215c5	0.006899568
35	0xbd07afe0	-0.03312671
36	0x3b369783	0.0027861304
37	0xbd80d567	-0.06290703
38	0x3d2d9c4e	0.042385392
39	0xbd696f5a	-0.05699096
40	0x3e3075b1	0.17232396
41	0xbd494e60	-0.04914701
42	0x3d465a11	0.048425738
43	0xbc2b75f1	-0.010465131
44	0x3cd9e044	0.026596196
45	0x3e4b60b0	0.19861102
46	0xbd8912ae	-0.06693016
47	0x3ca04c37	0.019567592
48	0xbbec984f	-0.007220305
49	0xbc2c0b9c	-0.010500815
50	0x3c5b8b3e	0.013399897
51	0xbd0ff259	-0.03514323
52	0x3ca28bfd	0.019842142
53	0xbc4939d1	-0.012281851
54	0xbcc114e0	-0.023569524
55	0xbc1aacd9	-0.009440624
56	0x3c88380c	0.016628288
57	0xbcf41574	-0.029795386
58	0xbc9579bc	-0.018246524
59	0xbcc1ad26	-0.023642134
60	0x3b8eaa2a	0.004353781
61	0x3d409ce8	0.047024637
62	0xbc7688b6	-0.015047243
63	0xbd5d2117	-0.053986635
64	0x3c557b3d	0.013029871
65	0xbce89408	-0.0283909
66	0xbd0bcbf5	-0.034130055
67	0xbd5b0dca	-0.053479947
68	0x3cc67ab6	0.024228435
69	0xbd5a9cc4	-0.05337216
70	0x3d3875dc	0.045034274
71	0x3e005603	0.12532811
72	0x3c8a8282	0.016907934
73	0xbd2961a4	-0.041352883
74	0x3c96bfe0	0.01840204
75	0xb9e6c5b9	-0.00044016333
76	0xbd183ffa	-0.037170388
77	0x3c38290e	0.011240257
78	0x3d082067	0.033234026
79	0x3cec0d80	0.028815031
80	0xbd877646	-0.06614356
81	0x3d6190a1	0.05506957
82	0x3d261047	0.040542867
83	0xbcd8b678	-0.026454195
84	0x3d2e604c	0.042572305
85	0xbd8ae589	-0.067820616
86	0x3c25e370	0.010125026
87	0x3d4a41ef	0.049379285
88	0xbd049e22	-0.03237737
89	0x3c18ef34	0.009334374
90	0xbcf85c54	-0.030317463
91	0xbd6191ea	-0.055070795
92	0x3d07b672	0.033132978
93	0x3dd98d42	0.10622646
94	0xbc10ba6e	-0.008833511
95	0x3c126ef1	0.008937583
96	0xbbda459c	-0.00666113
97	0xbd6d45ae	-0.05792778
98	0xbcec9990	-0.028881818
99	0xbc5a40c4	-0.013321105
100	0xbc3fd638	-0.011708789
101	0xbd413278	-0.04716727
102	0x3e1ffd58	0.15623987
103	0xbd7b306d	-0.06132548
104	0xbc0f14ca	-0.008732984
105	0xbd1d5525	-0.03841128
106	0xbd7bd035	-0.06147786
107	0xbd598fd2	-0.053115673
108	0x3ae84e5f	0.0017723552
109	0xbc960ee4	-0.018317647
110	0xbd3fc1f5	-0.04681583
111	0x3e126a2b	0.14298312
112	0x3d8e2e42	0.06942417
113	0x3bd844b0	0.006599985
114	0xbd644309	-0.055727992
115	0x3d1fadf8	0.03898427
116	0x3dd0233a	0.10162969
117	0x3d835530	0.064127326
118	0xbd0c3969	-0.034234438
119	0x3c87134b	0.016488692
120	0x3e41dad0	0.18931127
121	0xbcbf0a06	-0.02332021
122	0xbd0c0a3c	-0.034189448
123	0x3e2b19b6	0.16709027
124	0x3d5de1c8	0.0541704
125	0x3d570f14	0.052504614
126	0x3c5085a0	0.012727171
127	0x3d0afaf0	0.03393072
128	0x3d37e393	0.044894766
129	0xbb385500	-0.0028126836
130	0x3d4e9168	0.05043164
131	0x3cfdd640	0.030985951
132	0xbba01f20	-0.004886523
133	0xbd7b3da8	-0.061338097
134	0x3cd9f835	0.026607612
135	0xbd6d4073	-0.05792279
136	0x3a8a7c6e	0.0010565647
137	0x3e17c652	0.14821747
138	0x3d07b79a	0.03313408
139	0x3d7a1735	0.06105729
140	0xbcb79d2d	-0.022413814
141	0xbc2469b7	-0.01003497
142	0x3da0d242	0.078526035
143	0x3d16e618	0.03684053
144	0x3d5ed04c	0.054397866
145	0x3cebecbe	0.02879941
146	0x3d08e235	0.033418853
147	0x3e3b2a4f	0.18277858
148	0xbcdbb15c	-0.02681797
149	0xbd6cb2c1	-0.05778766
150	0x3d1ce200	0.038301468
151	0x3cfee265	0.031113813
152	0x3d57cedf	0.052687522
153	0x3cbf44b0	0.023348182
154	0x3d4336af	0.047659572
155	0xbd3dcbe3	-0.04633702
156	0x3d0ff112	0.035142012
157	0x3d657af6	0.056025468
158	0xbd7a6f80	-0.06114149
159	0x3b21ed8e	0.0024708244
160	0x3d86052d	0.06543956
161	0xbd189947	-0.03725555
162	0x3cb10571	0.02160904
163	0x3d8d4260	0.06897426
164	0xbbbc0990	-0.0057384446
165	0xbaf67442	-0.0018802958
166	0xbadb6792	-0.001673924
167	0x3afe8564	0.0019418416
168	0x3e439d29	0.1910292
169	0xbb98fb9a	-0.004668665
170	0xbbee3770	-0.0072697923
171	0xbd5fbc3e	-0.05462288
172	0xbd4d2c4a	-0.050091065
173	0xbd2ad7b7	-0.041709628
174	0xbd176dbf	-0.036969896
175	0x3d3fcff6	0.046829186
176	0xbc06a7a6	-0.008218681
177	0x3d089883	0.03334857
178	0x3d32ab2b	0.04362027
179	0xbd2fd603	-0.042928707
180	0xbc8a957b	-0.016916981
181	0xbcbf1d44	-0.023329385
182	0x3d58011b	0.05273543
183	0x3c60b679	0.01371538
184	0x3d2f0512	0.042729445
185	0x3cda4cc8	0.02664794
186	0xbc755d55	-0.014975865
187	0xbc479fe6	-0.012184119
188	0x3cb96d9a	0.02263527
189	0xb84ef889	-4.9345694e-05
190	0xbaf087a6	-0.0018350973
191	0x3cdce01a	0.026962329
192	0x3d609c98	0.05483684
193	0x3c8ca926	0.0171705
194	0xbcce0e92	-0.025153432
195	0x3c53d73a	0.012929732
196	0x3c9e51d8	0.019326136
197	0x3c8623ad	0.016374433
198	0x3d3934eb	0.045216482
199	0x3d0a8fe5	0.033828635
200	0xbd479db7	-0.048734393
201	0x3ddcffce	0.10790978
202	0x3e16fa40	0.147439
203	0xbd563fb4	-0.052306846
204	0xbc718e70	-0.014743432
205	0xbd22d66d	-0.039755274
206	0xbd815516	-0.06315057
207	0xbd6ba355	-0.057528812
208	0x3d34e01e	0.044159047
209	0x3d054d9b	0.032544713
210	0x3d480bb6	0.048839293
211	0xbc6a6948	-0.014307328
212	0xbd74564c	-0.05965261
213	0x3c336060	0.010948271
214	0xbcd7d13c	-0.026344888
215	0xbd2662a1	-0.040621404
216	0xbae48aec	-0.0017436421
217	0xbcd8ebac	-0.026479565
218	0x3bef9518	0.0073114745
219	0x3c76cfad	0.015064162
220	0x3bdbb19c	0.0067045223
221	0x3d0dcd05	0.03461935
222	0xbc88913a	-0.016670812
223	0x3c2d9e3c	0.010596808
224	0xbd2a948f	-0.041645583
225	0x3d0f95c7	0.03505495
226	0x3e25525a	0.16144696
227	0x3c74e2e4	0.014946673
228	0x3d2dc004	0.04241945
229	0x3cd3ce24	0.025855131
230	0xbd7f2f79	-0.062301133
231	0xbb28156a	-0.002564753
232	0xbbf676c1	-0.007521481
233	0x3d507bda	0.050899364
234	0x3d01403e	0.031555407
235	0x3b3a3e76	0.0028418577
236	0x3d6f0fc1	0.058364633
237	0x3bc84210	0.006111391
238	0xbd51f174	-0.05125566
239	0x3d06a7ad	0.03287475
240	0x3ccfa67c	0.02534794
241	0xbd109512	-0.035298415
242	0x3c6a9b1d	0.014319208
243	0xbd33627b	-0.04379509
244	0x3d3ee1f7	0.046602216
245	0xbd6105b9	-0.0549371
246	0xbc69fc24	-0.014281306
247	0x3cd28bb0	0.025701374
248	0x3e0def83	0.13860898
249	0xbcc2364a	-0.023707528
250	0x3d27842a	0.040897526
251	0x3bccc42b	0.006248971
252	0x3d790208	0.060792953
253	0xbc9185c4	-0.01776398
254	0xbc6d2b3c	-0.01447564
255	0xbd1caaf2	-0.038248964

main_model.OutputLayer.weight f4 [3, 256]
0	0x3b987270	0.004652314
1	0x3c9d4a84	0.01920057
2	0xbcbe5da6	-0.023238014
3	0xbd7e949d	-0.062153447
4	0x3cdb9dda	0.026808668
5	0xbcaa8fc5	-0.020820508
6	0x3cbb2743	0.02284587
7	0xbb8c5ff5	-0.0042839
8	0xbd6b89f0	-0.057504594
9	0xbd01a08b	-0.031647246
10	0xbc539337	-0.012913517
11	0xbd2aacba	-0.04166863
12	0xbd4a6b55	-0.049418766
13	0xbd538a44	-0.051645532
14	0x3c2ba11e	0.010475425
15	0x3d4a750c	0.04942803
16	0xbd140582	-0.036138065
17	0x3cadffe2	0.021240178
18	0x3d579a18	0.05263719
19	0xbb373696	-0.002795612
20	0xbd0c12e8	-0.034197718
21	0x3d476aba	0.048685767
22	0xbccb0a61	-0.024785222
23	0x3d2d911d	0.04237472
24	0x3d60c852	0.05487854
25	0xbcf4c6e2	-0.029879991
26	0x3c6592f9	0.014012092
27	0xbcedca63	-0.02902717
28	0x3d293e39	0.041319106
29	0x3baf3374	0.00534671
30	0x3c0533c0	0.008130014
31	0x3b7d0a7a	0.003861098
32	0xbd255082	-0.04035998
33	0xbc3f48e6	-0.011675095
34	0xbcb13cd9	-0.02163546
35	0x3cd4863c	0.025942914
36	0xbc8af951	-0.016964586
37	0x3ce846ee	0.028354134
38	0x3bfec414	0.007774839
39	0xbd242132	-0.04007072
40	0xbe320451	-0.17384459
41	0x3c2a9440	0.010411322
42	0x3d45dd08	0.048306495
43	0x3d5d48e5	0.054024596
44	0xbcd21eca	-0.025649447
45	0xbdc90350	-0.09815085
46	0xbd2346a2	-0.039862283
47	0xbac41247	-0.001495906
48	0x3d152249	0.03640965
49	0x3d22006f	0.039551195
50	0xbd2ae7ea	-0.041725077
51	0x3c872405	0.016496668
52	0x3cad957a	0.02118944
53	0x3c96b289	0.01839568
54	0xbc93f5d8	-0.018061563
55	0x3ccb6118	0.024826571
56	0xbd59a46c	-0.05313532
57	0xbb062a50	-0.0020471998
58	0x3d4687e6	0.048469447
59	0xbc866a56	-0.016408127
60	0xbd4f47a3	-0.050605427
61	0x3d39409c	0.045227632
62	0xbbc82d9e	-0.0061089536
63	0xbcd71e21	-0.026259484
64	0xbc9ae2bb	-0.018906942
65	0x3d4d38e4	0.050103083
66	0xbc827687	-0.015925659
67	0xbb9eeca1	-0.0048499857
68	0xbd3c3523	-0.045949113
69	0xbd1d7336	-0.03843995
70	0xbc0e5cfe	-0.008689163
71	0xbcffeed5	-0.031241814
72	0xbd0a287f	-0.033730026
73	0xbbd4cfce	-0.006494499
74	0xbc2437ac	-0.010023039
75	0xbd1c4f1c	-0.038161382
76	0xbd6fbc18	-0.05852899
77	0xbc9c14dc	-0.019052915
78	0xbcb04bf6	-0.021520596
79	0x3d415296	0.0471979
80	0x39901d9c	0.0002748788
81	0x3c8b440a	0.017000217
82	0xbc014028	-0.007888831
83	0xbb9d89f5	-0.0048077055
84	0xbc7b104d	-0.015323711
85	0xbcd55c3a	-0.026044954
86	0x3d2469dc	0.040140018
87	0x3d121eb3	0.03567381
88	0xbcd7b364	-0.026330657
89	0x3ab5a476	0.0013858217
90	0xbc01c140	-0.00791961
91	0x3d61b717	0.05510625
92	0xbc261caf	-0.010138675
93	0xbe3a60ea	-0.18201032
94	0xbd6278d4	-0.055291012
95	0x3c5eeaeb	0.0136058135
96	0x3d128238	0.035768718
97	0xbd08855c	-0.033330306
98	0x3d7d56f8	0.061850518
99	0xbd8e5870	-0.06950462
100	0x3d6778f6	0.05651184
101	0x3c8f3ef8	0.01748608
102	0xbd70f60d	-0.058828402
103	0xbb62e39e	-0.0034620534
104	0xbd1e3ddd	-0.038633216
105	0x3c8471f5	0.01616762
106	0x3c326a92	0.010889666
107	0x3d3b8155	0.045777638
108	0xbcec8dbd	-0.02887618
109	0xbd6ff7f0	-0.05858606
110	0xbccefc6d	-0.02526685
111	0xbd83c58e	-0.06434165
112	0xbcfcf71a	-0.030879546
113	0xbc4adb66	-0.01238141
114	0xbd3d6bbc	-0.04624532
115	0xbc3fa273	-0.011696446
116	0xbd9a7e09	-0.075435705
117	0xbd2b3eef	-0.041808065
118	0x3d0a364d	0.03374319
119	0x3d253eda	0.040343143
120	0x3bc151c1	0.0058996384
121	0x3cb57042	0.022148255
122	0xbbf61860	-0.00751023
123	0xbe086a5b	-0.13321821
124	0x3d46eb72	0.048564382
125	0x3b8a1176	0.0042135073
126	0x3d3c338c	0.045947596
127	0x3bdebce0	0.006797418
128	0xbb94fb33	-0.004546547
129	0xbd02ceaa	-0.03193537
130	0xbc0adbf0	-0.008475289
131	0xbc04a398	-0.008095644
132	0x3b2e46ec	0.0026592566
133	0xbbdd7fe0	-0.0067596287
134	0xbc20a520	-0.009804994
135	0x3d4f44fa	0.05060289
136	0xbcba9446	-0.02277578
137	0xbd537e1d	-0.051633943
138	0xbcdcd0a2	-0.026954953
139	0x3ceabe2f	0.02865514
140	0x3cdb733a	0.026788343
141	0x3d1f6453	0.038914036
142	0xbdb5cb8e	-0.088767156
143	0xbd3a4fcc	-0.045486256
144	0x3cd45075	0.025917271
145	0x3c047d3a	0.008086497
146	0xbcf76ebf	-0.030204175
147	0xbe07774c	-0.13229102
148	0xbd41400c	-0.04718022
149	0x3ce60679	0.028079258
150	0xbca4218b	-0.020035526
151	0x3cf3947d	0.02973389
152	0xbcd41627	-0.02588947
153	0xbcaba954	-0.020954765
154	0xbd48e71a	-0.04904852
155	0x3c50bf38	0.012740903
156	0xbb24467c	-0.0025066426
157	0xbd173fa3	-0.036925923
158	0x3c0b1d45	0.008490865
159	0x3c0adf9d	0.008476165
160	0xbbedef63	-0.007261203
161	0xbd4f1b31	-0.05056304
162	0x3d1a102d	0.037613083
163	0xbc4c5e2c	-0.012473624
164	0x3d1be71e	0.038062207
165	0xbd1f2abd	-0.038859118
166	0xbcd5a0f8	-0.026077732
167	0xbac5d9c6	-0.0015094809
168	0xbe19f564	-0.15035015
169	0x3d7d4ad6	0.061838947
170	0x3c713968	0.014723159
171	0xbd6a8446	-0.057255052
172	0x3b83b6c1	0.0040195887
173	0x3c691eb7	0.014228514
174	0x3c9a64bb	0.01884686
175	0x3ce4443a	0.027864564
176	0xbd28b17c	-0.041184887
177	0x3ccfcc77	0.025366051
178	0x3d3d5a44	0.046228662
179	0x3d1773a0	0.036975503
180	0x3ca7cd96	0.020483773
181	0xbc0ef016	-0.008724233
182	0xbcce8db8	-0.025214061
183	0xb994c98d	-0.00028378927
184	0xbd1f8d45	-0.038953084
185	0x3ca66704	0.020312794
186	0xbb176c05	-0.0023105156
187	0xbd522c46	-0.051311754
188	0x3d3b3393	0.045703482
189	0x3cfee032	0.031112764
190	0x3cb925b6	0.02260099
191	0xbd311101	-0.043229107
192	0x3d3dba7a	0.046320416
193	0xbcdaf24c	-0.026726864
194	0xbc6772d9	-0.014126503
195	0xbcd1a289	-0.025590198
196	0x3d11677e	0.03549909
197	0x3d5e9402	0.05434037
198	0x3c13f01f	0.009029417
199	0x3cbdc7b1	0.02316651
200	0xbb979530	-0.004625939
201	0xbd4c9786	-0.04994919
202	0xbd938358	-0.07202786
203	0xbcb1bbac	-0.021695934
204	0xbd1a7c6c	-0.037716314
205	0xbcc9bd02	-0.024626259
206	0xbd875605	-0.06608204
207	0x3d404feb	0.046951216
208	0xbcb46494	-0.022020616
209	0xbd3f9496	-0.046772562
210	0xbc4df558	-0.012570702
211	0xbc9ae481	-0.018907787
212	0x3c3e4823	0.011613878
213	0x3c30d558	0.010793053
214	0x3cef2b20	0.029195368
215	0x3bf68a54	0.007523814
216	0xbd06e501	-0.03293324
217	0xbd03083f	-0.031990286
218	0x3c061e48	0.008185931
219	0xbcc35df0	-0.023848504
220	0x3d0d020d	0.034425784
221	0xbcbd5856	-0.02311341
222	0x3a786c38	0.0009476575
223	0xbd3bf38f	-0.045886572
224	0xbc560f48	-0.013065167
225	0xbc4e1479	-0.012578123
226	0xbd496024	-0.049163952
227	0xbd3f2e49	-0.046675
228	0x3c7fd222	0.015614064
229	0x3c2b551a	0.0104573015
230	0xbd077fe6	-0.033080958
231	0xbce76c2b	-0.02824982
232	0xbc923563	-0.017847722
233	0x3cf0c0a0	0.029388726
234	0xbcd89c47	-0.026441706
235	0xbd28565d	-0.041097987
236	0xbcf586f4	-0.029971577
237	0x3d03b686	0.03215649
238	0xbd0ff88b	-0.03514914
239	0x3d047841	0.032341246
240	0x3ba22b50	0.004949011
241	0x3c5ac968	0.013353683
242	0xbade6597	-0.0016967532
243	0x3c2802e7	0.010254598
244	0xbc620715	-0.013795634
245	0x3d5bc29c	0.05365239
246	0xbd53ecda	-0.05173955
247	0x3d3a6ef7	0.04551598
248	0xbe3a4c01	-0.18193056
249	0x3d05fcfa	0.03271196
250	0xbd4a37ce	-0.049369626
251	0xbd1bdf21	-0.03805459
252	0x3d7c05a2	0.06152881
253	0xbbcdedb0	-0.006284438
254	0xbd5177c7	-0.05113962
255	0xbd71ce02	-0.059034355

main_model.OutputLayer.bias f4 [3]
0	0x3c08b7d4	0.008344609
1	0x3a755ecb	0.00093601336
2	0x3d1b663d	0.0379393
