c1-dqn/dqn/src/DQN_├╩▒Γ/xy2Dsimulator/new/save/main_model_000378.pth (torch_old, 274727 bytes, 6 tensors)

main_model.InputLayer.weight f4 [256, 6]
0	0xbf23e9c1	-0.64028555
1	0xbe82ff75	-0.25585523
2	0xbdf51fb4	-0.119689375
3	0xbf0da2cd	-0.5532654
4	0x3da04880	0.07826328
5	0xbf8a6ba6	-1.0814102
6	0xbe7fe5b4	-0.24989969
7	0xbd7cc690	-0.0617128
8	0xbe4d7890	-0.20065522
9	0xbdc09284	-0.09402946
10	0xbeb9f720	-0.36321354
11	0x3ecc18e4	0.3986274
12	0xbfadc40e	-1.3575456
13	0xbc9149b9	-0.017735349
14	0x3e9e7d56	0.30955
15	0x3b99fa89	0.0046990556
16	0xbeb7cbe3	-0.3589774
17	0xbef1576f	-0.4713702
18	0x3d76fb10	0.060298026
19	0xbf89664b	-1.0734342
20	0x3eb518be	0.3537044
21	0xbedb0d88	-0.4278376
22	0x3cea8be3	0.028631156
23	0x3fa8fb07	1.3201607
24	0xbed7c328	-0.4214108
25	0xbeb4afc7	-0.35290357
26	0x3d861151	0.065462716
27	0xbd97dd7b	-0.07415291
28	0xbddc0fc1	-0.10745192
29	0x4007b6d2	2.1205335
30	0x3e773124	0.2413984
31	0x3c88d37f	0.016702412
32	0xbea84e31	-0.32872155
33	0xbd8ffe41	-0.07030917
34	0x3d2004f1	0.039067212
35	0xbee94a5b	-0.4556454
36	0xbd8fa943	-0.07014706
37	0x3e86af11	0.2630544
38	0xbf3c0d0a	-0.73457396
39	0xbc1d2507	-0.009591348
40	0xbf164d88	-0.58712053
41	0xbfba36ac	-1.4547935
42	0x3e48c8ed	0.19607897
43	0xbf3dd65d	-0.7415522
44	0xbe8de8de	-0.27716726
45	0xbd717c04	-0.05895616
46	0x3e813f09	0.25243405
47	0xbe668307	-0.2251092
48	0xbd8cf4a3	-0.06882598
49	0xbf259357	-0.6467795
50	0xbeffe713	-0.49980983
51	0xbf1fd2bb	-0.62430924
52	0x3d62243f	0.05521035
53	0xbf566b2d	-0.8375729
54	0xbe12584d	-0.14291497
55	0xbe26a427	-0.16273557
56	0x3dd41a00	0.103565216
57	0xbe12f0d6	-0.14349684
58	0xbe943792	-0.28948647
59	0x3e63025e	0.22168872
60	0xbeb4916c	-0.35267198
61	0xbc1c9db4	-0.009559084
62	0xbe265242	-0.16242316
63	0xbd0966a1	-0.03354514
64	0xbc8973d1	-0.016778858
65	0xbef94e82	-0.4869271
66	0x3cb0bf3a	0.021575559
67	0x3cd51bd3	0.026014244
68	0xbd4a41b4	-0.049379066
69	0xbe22057d	-0.15822406
70	0xbea58cce	-0.32333988
71	0xbb3fdcd7	-0.0029275918
72	0xbcf69a5c	-0.030102901
73	0xbf31ee3f	-0.6950416
74	0xbe9a2e66	-0.30113524
75	0x3e13e71d	0.14443631
76	0xbec6f173	-0.38856086
77	0x3ef1bc95	0.4721419
78	0xbdbc0bc6	-0.09181933
79	0x3df2652a	0.11835702
80	0xbe38ac50	-0.18034482
81	0xbe9ed7ea	-0.31024104
82	0xbee48f57	-0.4464061
83	0x3e955cce	0.29172367
84	0x3d2cb577	0.042165246
85	0xbee92595	-0.45536485
86	0xbe2629a2	-0.16226819
87	0x3ef7dab0	0.48409033
88	0xbdb721e3	-0.0894201
89	0x3d6b45f7	0.05743977
90	0xbcf9e6a6	-0.03050549
91	0xbd5b45ea	-0.053533472
92	0xbbe8fff3	-0.0071105896
93	0x3d201db3	0.039090823
94	0xbe5e0e53	-0.21685152
95	0x3d27c6f9	0.04096124
96	0x3e1fcadf	0.15604733
97	0xbf6bbd4b	-0.92085713
98	0xbf2899fd	-0.6585997
99	0xbdca273a	-0.09870763
100	0xbef7b64d	-0.48381272
101	0x3fb06529	1.3780872
102	0xbddd2788	-0.107985556
103	0x3c91bbcd	0.017789746
104	0x3d1ea23a	0.03872893
105	0xbf12239d	-0.5708559
106	0x3ede4a19	0.43415907
107	0x3e3a68f7	0.18204103
108	0xbed3111e	-0.41223997
109	0x3e52ca22	0.2058492
110	0xbdba16d8	-0.09086388
111	0x3e6589c3	0.22415833
112	0x3d9da3d7	0.076972656
113	0xbfc7d4be	-1.5611799
114	0xbc8cb780	-0.017177343
115	0xbcebd237	-0.028786762
116	0x3cbcd7dc	0.023052149
117	0xbe761ca7	-0.24034368
118	0xbe41bf78	-0.18920696
119	0xbf1e72f9	-0.61894184
120	0x3e80b67a	0.2513922
121	0x3d9a976e	0.07548414
122	0x3ce1760a	0.027522106
123	0xbd0cc00b	-0.034362834
124	0xc01c22cf	-2.4396245
125	0x3e03bbc5	0.12864597
126	0xbcd6e4d3	-0.026232159
127	0xbfdc93d1	-1.723261
128	0x3e998725	0.2998592
129	0xbbe47cce	-0.0069728857
130	0xbdebd2da	-0.11514826
131	0x3f5ed727	0.87047046
132	0xbc1ae935	-0.009455015
133	0xbd0fd0ca	-0.035111226
134	0x3cd1e735	0.025622943
135	0xbe17485f	-0.14773701
136	0xbe7fef61	-0.2499366
137	0x3e02d780	0.12777519
138	0x3cf070fa	0.029350746
139	0xbd8f9306	-0.07010464
140	0x3e6430d0	0.22284245
141	0xbf9f2671	-1.2433606
142	0xbe446367	-0.19178544
143	0xbf9fa70c	-1.2472854
144	0x3d745fc2	0.059661634
145	0xbfacd1e2	-1.3501551
146	0x3e1728cf	0.14761661
147	0xbf1c923a	-0.61160624
148	0x3d4c2cef	0.04984754
149	0xbf613caf	-0.8798322
150	0xbe5ff083	-0.21869092
151	0xbe84a05c	-0.25903594
152	0xbfac9432	-1.3482726
153	0xbd6236b7	-0.05522796
154	0x3e304840	0.17215061
155	0x3fb7bfd2	1.4355414
156	0xbf3653a9	-0.71221405
157	0x3d78bde5	0.060727973
158	0xbd11adf5	-0.03556629
159	0x3cef96ec	0.02924677
160	0x3d77fda8	0.06054464
161	0x3fb95a24	1.4480634
162	0xbe665595	-0.22493584
163	0xbed5e024	-0.41772568
164	0xbe3519bf	-0.17685603
165	0xbe100521	-0.14064457
166	0x3cc34503	0.023836618
167	0xbe9e4572	-0.30912358
168	0xbe6e08c1	-0.23245527
169	0xbc8b8b7d	-0.017034287
170	0xbe9a88e6	-0.3018257
171	0x3d7b97ef	0.061424192
172	0xbea32b9e	-0.31869215
173	0xbde6dc2c	-0.11272463
174	0x3d9e1098	0.07718009
175	0xbdac5f47	-0.0841661
176	0xbefdfd52	-0.4960733
177	0xbe013ead	-0.12621565
178	0x3e3f9eb1	0.1871288
179	0x3fe8953a	1.817054
180	0x3c8cf84a	0.017208237
181	0xbe80318b	-0.25037798
182	0xbe953f7f	-0.29150006
183	0xbe82b96c	-0.2553209
184	0xbd945797	-0.07243269
185	0x3daf264b	0.08552226
186	0x3ee9efe2	0.4569083
187	0xbe514fe6	-0.20440635
188	0x3e63d163	0.22247843
189	0xbeb983f8	-0.36233497
190	0x3b21134e	0.0024578157
191	0xbf22a24a	-0.63528883
192	0xbe3e121b	-0.18561594
193	0x3d8b7998	0.068103015
194	0xbe9e4f10	-0.30919695
195	0xbe7f765f	-0.24947499
196	0x3baf59bc	0.0053512733
197	0xbeb34842	-0.35016066
198	0xbf3ec009	-0.7451177
199	0xbf22eb61	-0.6364041
200	0xbedc238f	-0.4299588
201	0xbcaa00b1	-0.020752283
202	0x3e11caca	0.14237514
203	0x3e84c233	0.25929412
204	0xbf45a0d1	-0.7719851
205	0xbee02661	-0.4377928
206	0x3d850711	0.064954884
207	0xbeb66595	-0.35624376
208	0xbd655515	-0.055989344
209	0xbfe9d72d	-1.8268791
210	0xbd2296ba	-0.039694525
211	0x3e5d0731	0.21584775
212	0x3d51cfe6	0.051223658
213	0xbfce4c1c	-1.6116977
214	0x3ded57a2	0.1158898
215	0xbec5e676	-0.3865239
216	0xbf6320ce	-0.8872193
217	0xbe08ffa6	-0.13378772
218	0x3e56fb4c	0.209943
219	0xbeaef442	-0.3417073
220	0xbea34330	-0.31887197
221	0xbef07e59	-0.46971396
222	0xbd36e14f	-0.044648465
223	0xbf19684c	-0.5992477
224	0x3e32f417	0.17475925
225	0x3e00b263	0.12568049
226	0xbfa406f7	-1.2814626
227	0xc0169636	-2.3529181
228	0xbeeb9dc2	-0.46018797
229	0xbf6b459a	-0.9190308
230	0xbf8efec3	-1.1171497
231	0x3dbb3233	0.09140434
232	0x3e81d212	0.25355583
233	0x3f632034	0.88721013
234	0xbc8e9b6a	-0.017408092
235	0x3dc89bd5	0.097953476
236	0xbb7d214d	-0.0038624585
237	0xbf9adf65	-1.2099425
238	0x3e499cd5	0.19688733
239	0x3f717062	0.9431211
240	0xbf86fb4e	-1.0545442
241	0xbe6fca26	-0.23416957
242	0x3e055a53	0.13022737
243	0xbf174503	-0.5908968
244	0x3e1c5e30	0.15270305
245	0xbf90f790	-1.132555
246	0xbf008e35	-0.5021699
247	0x3e166014	0.14685088
248	0xbe00961a	-0.12557259
249	0xbe1d04f5	-0.15333922
250	0xbddc3f53	-0.10754266
251	0x3d2e7456	0.042591415
252	0x3e13f138	0.14447486
253	0xbceda42c	-0.029008947
254	0xbf7e3068	-0.9929261
255	0x3e341d62	0.17589334

main_model.InputLayer.bias f4 [256]
0	0x3e17395b	0.14767973
1	0xbd506ff0	-0.050888002
2	0x3d8c8633	0.06861534
3	0x3ea6bf80	0.32567978
4	0xb974f6cb	-0.00023361591
5	0xbeed8d70	-0.4639697
6	0xbefa8951	-0.4893289
7	0xbe349fce	-0.17639086
8	0xbea65668	-0.32487798
9	0x3f99175d	1.1960255
10	0xbe8699a6	-0.262891
11	0xbf243dd4	-0.6415684
12	0x3f8cab59	1.0989791
13	0xbea787f5	-0.32720914
14	0xbe30c9c1	-0.17264463
15	0xbf29de25	-0.6635459
16	0xbeba21f9	-0.36354044
17	0x3e9ff71a	0.3124321
18	0x3eb25ea9	0.34837845
19	0xbf077622	-0.5291463
20	0x3e82cbb0	0.25546026
21	0xbe66976e	-0.22518703
22	0x3fa0de54	1.2567849
23	0xbe6fa588	-0.23402989
24	0xbe7f8fd6	-0.24957213
25	0xbe900fa0	-0.2813692
26	0xbea1e1cd	-0.31617585
27	0xbccacce8	-0.02475591
28	0xbe44cd2a	-0.19218889
29	0xbeed457f	-0.46342084
30	0x3f94bd6b	1.1620306
31	0xbe8b64eb	-0.27225432
32	0x3fa4d59a	1.2877686
33	0xbeaba591	-0.33524755
34	0xbe78e12c	-0.24304646
35	0xbe6be3a1	-0.23036052
36	0xbc68b042	-0.014202179
37	0xbec9af87	-0.3939173
38	0xbe732030	-0.23742747
39	0xbe4d7dbf	-0.200675
40	0xbf094667	-0.5362305
41	0xbe6996fb	-0.228115
42	0x3eab81be	0.33497423
43	0xbeaf74af	-0.3426871
44	0x3f995835	1.1980044
45	0xbe9913dc	-0.29897964
46	0xbc54c700	-0.012986898
47	0xbe872fc6	-0.26403636
48	0xbeac1912	-0.33612877
49	0xbed9f1ab	-0.4256719
50	0xbe8273cb	-0.25478968
51	0xb94bfe51	-0.00019454329
52	0xbed538c9	-0.41644886
53	0x3e91e0ef	0.28491923
54	0x3e90c6ae	0.2827658
55	0xbf677b91	-0.9042292
56	0x3ecf74bb	0.40518746
57	0xbe19f8b4	-0.15036279
58	0x3e86813c	0.26270473
59	0xbeb159d4	-0.34638846
60	0x3f0122ed	0.5044392
61	0xbea8e104	-0.32984173
62	0xbe176ab6	-0.147868
63	0xbef827d8	-0.48467898
64	0x3ea534ad	0.3226675
65	0xbf2e9499	-0.6819549
66	0xbeb4bb12	-0.35298973
67	0x3f4265b3	0.7593643
68	0xbda21da1	-0.079158075
69	0xbe974d08	-0.29550958
70	0xbd164514	-0.03668697
71	0xbd8165cf	-0.063182466
72	0xbdb0efc3	-0.08639481
73	0xbf02631f	-0.50932497
74	0xbe4f9c99	-0.20274581
75	0xbd256131	-0.040375892
76	0xbddd21e6	-0.10797481
77	0xbf1c8039	-0.6113315
78	0x3fa5a3b9	1.2940589
79	0xbec05208	-0.37562585
80	0x3e62b983	0.2214108
81	0xbf255250	-0.64578724
82	0xbd5ee30b	-0.054415744
83	0xbebec91e	-0.37262815
84	0xbec47323	-0.38369092
85	0xbe9cf2bf	-0.3065395
86	0xbe55f7b6	-0.20895275
87	0xbebaa36d	-0.3645281
88	0xbf2170b8	-0.6306262
89	0x3e69b5a4	0.22823197
90	0xbd584330	-0.05279845
91	0xbf3ba617	-0.7330031
92	0xbeadc315	-0.33937898
93	0xbdd5f58b	-0.10447224
94	0xbeb056c9	-0.34441212
95	0xbdd749ef	-0.105121486
96	0x3ebbabb4	0.36654437
97	0xbd8b5c49	-0.06804711
98	0xbd2fa22d	-0.042879272
99	0xbf169edd	-0.58836156
100	0xbe3fe83e	-0.18740937
101	0xbedef331	-0.43544915
102	0xbe2be838	-0.16787803
103	0x3f987681	1.1911165
104	0xbf09505b	-0.5363824
105	0xbd27d506	-0.04097464
106	0xbf02b633	-0.51059264
107	0x3d832ea5	0.06405381
108	0xbedb2957	-0.42804977
109	0xbd1d5e85	-0.03842022
110	0xbeb9527d	-0.36195746
111	0xbdb5b334	-0.08872071
112	0xbe087aba	-0.13328066
113	0xbe5e544f	-0.21711849
114	0xbd1a2eca	-0.037642278
115	0xbec94287	-0.3930857
116	0x3e15936a	0.14607015
117	0x3d59b350	0.05314952
118	0x3f5060aa	0.813975
119	0xbd6f8b4b	-0.05848245
120	0x3fa38581	1.2775117
121	0xbedfaf43	-0.43688402
122	0x3e065f93	0.13122396
123	0xbe75f6ec	-0.24019974
124	0xbe1f9082	-0.15582469
125	0xbe1baf4a	-0.15203586
126	0xbea3785e	-0.3192777
127	0xbe0e9dde	-0.13927409
128	0xbe0ff1eb	-0.14057128
129	0xbd7ad710	-0.061240256
130	0xbe013ba3	-0.12620406
131	0x3ca2474a	0.019809384
132	0x3ecbc0a2	0.39795405
133	0xbf14db75	-0.58147365
134	0x3fa4cef5	1.2875658
135	0xbf1a8f70	-0.6037512
136	0x3e603fc7	0.21899329
137	0x3d81a95c	0.06331131
138	0xbe54adcb	-0.20769422
139	0xbe9ab5a6	-0.30216712
140	0x3f8bafa7	1.091298
141	0xbf131152	-0.57448304
142	0xbf16f03b	-0.5896031
143	0x3f9c6900	1.2219543
144	0x3f526420	0.8218403
145	0xbec9e312	-0.39431053
146	0x3efcf48b	0.4940532
147	0xbf110352	-0.5664569
148	0xbb4d2b66	-0.0031306385
149	0x3f997d9f	1.1991462
150	0xbdc67295	-0.096898235
151	0xbe87b08a	-0.26501876
152	0x3f250d9c	0.6447389
153	0x3d673536	0.05644723
154	0xbecaf0de	-0.39636892
155	0x3f25507d	0.6457594
156	0x3cf6b3ea	0.030115087
157	0x3f8e9261	1.1138421
158	0xbf2e8ff4	-0.68188405
159	0xbd185d87	-0.03719857
160	0xbe882ff0	-0.26599073
161	0xbef035a4	-0.46915925
162	0xbebd4453	-0.3696619
163	0xbd1c369e	-0.038138025
164	0xbed2196e	-0.41035026
165	0xbd99d156	-0.07510631
166	0x3fa08acb	1.2542356
167	0xbed1637b	-0.4089621
168	0x3e071130	0.1319015
169	0x3bfd7e0a	0.0077359723
170	0xbeca5205	-0.395157
171	0xbc26d073	-0.010181534
172	0x3e89ab7d	0.26888648
173	0x3f8753d8	1.0572462
174	0xbe60ba80	-0.21946144
175	0xbe9c3ea6	-0.30516547
176	0x3e5a5f57	0.21325432
177	0xbe3658e2	-0.17807344
178	0x3e031af9	0.12803258
179	0x3f576d7f	0.8415145
180	0xbec16c98	-0.37778163
181	0xbeeb78fb	-0.45990738
182	0xbf0cd2fb	-0.5500943
183	0x3fa48585	1.2853247
184	0x3dec2540	0.115305424
185	0xbdb85be0	-0.09001899
186	0xbe773594	-0.24141532
187	0xbe1413ff	-0.14460753
188	0xbc4d722a	-0.012539426
189	0xbf15f137	-0.5857119
190	0xbe257884	-0.16159254
191	0xbe145e0f	-0.14489006
192	0xbc42f81b	-0.011899973
193	0xbe9ce4c9	-0.306433
194	0xbd613f74	-0.054992154
195	0xbec648b3	-0.3872734
196	0x3c8c3a4d	0.017117644
197	0x3f6635c0	0.89925766
198	0xbe27c8f0	-0.16385245
199	0xbe68e94a	-0.22745243
200	0xbd78dfa2	-0.060760148
201	0xbaeff5d7	-0.0018307519
202	0x3cf0731d	0.029351765
203	0x3f3a2b49	0.727223
204	0xbdb419a3	-0.08793952
205	0x3f987460	1.1910515
206	0xbe6e88af	-0.23294328
207	0x3f871e72	1.0556166
208	0xb820fa26	-3.837994e-05
209	0xbedf03b4	-0.43557513
210	0xbd677067	-0.05650368
211	0xbd8e40d3	-0.06945958
212	0xbc0da372	-0.008644925
213	0xbe22d382	-0.15900996
214	0x3f2b9dc2	0.67037594
215	0xbf01352c	-0.5047176
216	0x3f20474b	0.62608784
217	0x3f119a52	0.568761
218	0xbd72bc22	-0.05926145
219	0x3f95539b	1.1666139
220	0xbcf8b6d1	-0.030360611
221	0xbe72ce8d	-0.23711605
222	0xbf2cc36f	-0.6748571
223	0xbe1a6b29	-0.15079941
224	0xbd786c83	-0.06065036
225	0xbeb37ec0	-0.3505764
226	0xbf257148	-0.6462598
227	0xbe22ccf3	-0.15898494
228	0xbd02d80d	-0.031944323
229	0xbc305ab2	-0.010763811
230	0xbe33a911	-0.17544962
231	0x3e5f2377	0.21790873
232	0xbebd10cf	-0.36926886
233	0xbec742bc	-0.38918102
234	0xbe83a23b	-0.2570971
235	0x3de4e7b9	0.1117701
236	0x3f996f4d	1.1987091
237	0x3e99bb58	0.30025744
238	0xbd3a0f4f	-0.045424756
239	0x3f8dbfe1	1.1074182
240	0x3c1fd724	0.009755883
241	0xbf010e06	-0.50412023
242	0xbe2871d7	-0.16449676
243	0x3fa6557b	1.2994837
244	0x3bfeab1f	0.007771864
245	0xbd77890f	-0.060433444
246	0x3d871140	0.06595087
247	0x3e5e9157	0.2173513
248	0xbd8d178a	-0.06889255
249	0xbe6fd7c2	-0.23422149
250	0x3d6fbf99	0.05853233
251	0xbce149e3	-0.027501052
252	0x3e8b13f9	0.27163675
253	0xbf4e8d0f	-0.8068399
254	0xbe95c90f	-0.29254958
255	0xbee361ab	-0.44410452

main_model.hiddenlayer_0.weight f4 [256, 256]
0	0xbd82b8b4	-0.063828856
1	0x3cb5b41c	0.02218061
2	0xbbfcfae4	-0.007720338
3	0xbc59b75f	-0.013288348
4	0xbcc9f76d	-0.024654115
5	0xbd4f9d48	-0.050687104
6	0x3b001024	0.001954087
7	0x3cc3b0f9	0.023888098
8	0xbba92970	-0.0051624104
9	0xbd209f6a	-0.03921453
10	0xbc287f2d	-0.010284227
11	0xbd09e869	-0.03366891
12	0xbd694a1e	-0.05695545
13	0x3c27aeb3	0.010234523
14	0xbdb52c5b	-0.08846351
15	0x3c9e596b	0.019329747
16	0x3caa1fd4	0.02076713
17	0x3d06914e	0.032853417
18	0xbd90b2a5	-0.07065324
19	0xbd87c6e5	-0.06629733
20	0xbd9c32b5	-0.07626859
21	0xbc7e8211	-0.01553394
22	0xbd7dc2ae	-0.06195324
23	0x3cb50089	0.022094982
24	0xbdd21acd	-0.10259018
25	0xbdb9cc58	-0.090721786
26	0xbd0a8b92	-0.03382451
27	0x3d0555e4	0.032552615
28	0xbc87d26c	-0.01657983
29	0xbbf93a31	-0.007605814
30	0x3ca7cb74	0.020482756
31	0xbd9f379f	-0.07774281
32	0xbc229088	-0.009922154
33	0xbd140fac	-0.03614776
34	0xbc485f31	-0.012229727
35	0xbd7f170c	-0.06227784
36	0xbbc3ae00	-0.00597167
37	0xbc1d8496	-0.0096141305
38	0xbcc0a72c	-0.023517214
39	0x3cee7ce9	0.029112296
40	0x3c5e93a2	0.013585003
41	0x3c4c8005	0.012481694
42	0xbdc1466d	-0.09437261
43	0x3b2f3fa0	0.0026740804
44	0xbc723c40	-0.0147848725
45	0xbda561d8	-0.08075303
46	0x3c0dc0f8	0.008651964
47	0xbd70c971	-0.05878586
48	0xbd6bd02e	-0.057571582
49	0xbd1ba391	-0.037997786
50	0x3c794e90	0.015216485
51	0x3d9fcc63	0.078026555
52	0xbc9cad08	-0.019125476
53	0x3db0b6bc	0.08628604
54	0x3c643890	0.013929501
55	0x3cc78015	0.024353066
56	0xbcd67fe7	-0.026184035
57	0xbcc15a70	-0.023602694
58	0xbc40eac7	-0.011774725
59	0xbd2d68dc	-0.04233633
60	0xbd1b9960	-0.037988067
61	0x3c811526	0.015757155
62	0xbdaf1150	-0.08548224
63	0xbca3936f	-0.019967763
64	0xbd745ad7	-0.059656944
65	0xbd722991	-0.059121672
66	0xbcba924c	-0.022774838
67	0xbd4e887e	-0.050423138
68	0x3c20cdef	0.009814723
69	0xbc97a8c4	-0.01851309
70	0xbd041ee8	-0.032256037
71	0xbca2a860	-0.019855678
72	0x3c82c200	0.015961647
73	0x3bf3107b	0.007417736
74	0x3d5971e1	0.05308712
75	0x3bc57f1b	0.006027115
76	0x3cd9dfa6	0.026595902
77	0xbd91569e	-0.07096599
78	0xbd592815	-0.05301674
79	0xbd084d0b	-0.0332766
80	0xbd9fb98e	-0.077990636
81	0x3c781b91	0.015143291
82	0x3cda6630	0.026660055
83	0x3d3b68d6	0.045754276
84	0x3af9d0b6	0.0019059393
85	0xbd8228d2	-0.06355442
86	0x3cfa1e0d	0.030531907
87	0xbcb7f468	-0.02245541
88	0xbdcf3f68	-0.10119516
89	0x3b806b32	0.0039190287
90	0xbcbebc41	-0.023283126
91	0xbd8b9834	-0.0681614
92	0xbc4766bf	-0.012170493
93	0xbc5a9e6a	-0.013343433
94	0xbd7e0ac6	-0.062021993
95	0xbb6c02ee	-0.0036012488
96	0xbb89e474	-0.004208142
97	0x3d562685	0.05228283
98	0x3d2daefe	0.042403214
99	0xbd45bfb8	-0.04827854
100	0xbd83bb17	-0.06432169
101	0xbc91e068	-0.0178072
102	0xbc4f57a0	-0.012655169
103	0xbd6c93c2	-0.0577581
104	0xbd76dd60	-0.060269713
105	0xbd08a173	-0.033357095
106	0x3c76917e	0.0150493365
107	0xbd8f32d6	-0.06992118
108	0xbdaa08d6	-0.083024666
109	0x3d280808	0.041023284
110	0xbdaa6ac6	-0.08321147
111	0xbd24ffd0	-0.040283024
112	0xbc385a28	-0.011251964
113	0x3c94c132	0.018158529
114	0xbc605590	-0.013692275
115	0xbca47c86	-0.020078909
116	0xbbae8b88	-0.005326692
117	0xbc81f773	-0.015865063
118	0xbcb1a644	-0.021685727
119	0xbd0bd43e	-0.034137957
120	0xbd031046	-0.03199794
121	0x3ccf5900	0.025310993
122	0xbdf0dd57	-0.11760967
123	0xbd2d8ef7	-0.04237267
124	0x3c52dee0	0.01287052
125	0xbc9b6f15	-0.018973866
126	0xbd8501c9	-0.06494481
127	0xbca8c3fe	-0.020601269
128	0x3d1ade31	0.037809554
129	0x3d595856	0.05306276
130	0x3d8781b4	0.06616536
131	0xbdd6fb5d	-0.104971625
132	0xbd84c088	-0.06482035
133	0xbc15886e	-0.009126766
134	0x3c70bcd8	0.014693461
135	0xbceda804	-0.02901078
136	0xbdacf312	-0.084447995
137	0xbd76c242	-0.060243852
138	0xbdb4f347	-0.08835464
139	0xbd33198c	-0.043725535
140	0x3c2d9d20	0.010596544
141	0xbc97691b	-0.018482735
142	0xbd9e96bb	-0.07743593
143	0x3ca0065a	0.019534279
144	0x3cd30e11	0.025763543
145	0x3d7e36ca	0.06206397
146	0xbc4defed	-0.01256941
147	0xbd33b7be	-0.043876402
148	0x3cb4a73c	0.0220524
149	0x3d3273e6	0.04356756
150	0xbd7cda69	-0.06173173
151	0xbc1dc378	-0.009629123
152	0xbce9011a	-0.028442908
153	0x3ce7d0b7	0.028297765
154	0xbbe84046	-0.00708774
155	0xbb2c44c0	-0.0026286095
156	0x3d033c44	0.032039896
157	0xba541580	-0.0008090362
158	0xbbc140b1	-0.0058976044
159	0xbd02703b	-0.031845313
160	0xbd838c61	-0.064232595
161	0xbcfdb79e	-0.030971345
162	0xbd9ecf39	-0.07754368
163	0xbc096196	-0.008385083
164	0x3d1dca06	0.038522743
165	0xbda56295	-0.08075444
166	0xbd569072	-0.052383848
167	0xbc7d2605	-0.015450959
168	0xbe1c7368	-0.15278399
169	0x3d801ef4	0.06255904
170	0xbca1165f	-0.019663988
171	0xbda02687	-0.078198485
172	0xbd8f8eef	-0.07009684
173	0xbd4d97f6	-0.05019375
174	0xbc2801f0	-0.010254368
175	0xbcb2e005	-0.021835336
176	0xbdddc016	-0.10827653
177	0xbd565440	-0.05232644
178	0x3d641b42	0.055690058
179	0xba8eded8	-0.0010900153
180	0xbd993299	-0.07480354
181	0xbcdee8b9	-0.02721058
182	0xbdca3d20	-0.0987494
183	0xbd01ce19	-0.03169069
184	0x3d4dca0f	0.050241526
185	0xbdc42738	-0.09577793
186	0xbdacc03e	-0.08435105
187	0x3d47e540	0.048802614
188	0xbc4ffd28	-0.0126946345
189	0x3d5b3fc9	0.053527627
190	0xbd4391e0	-0.04774654
191	0xbc984bfc	-0.01859092
192	0xbd5a1188	-0.053239375
193	0xbd096fab	-0.03355376
194	0x3bf0e37f	0.0073513384
195	0xbd9be6f8	-0.07612413
196	0x3db0fc4b	0.08641871
197	0xbd00ac14	-0.031414106
198	0x3c221a06	0.0098939
199	0xbcf05e38	-0.029341802
200	0x3da07fa1	0.07836843
201	0xbd3e0fa3	-0.04640163
202	0xbd02aebb	-0.031904917
203	0xbd76e635	-0.060278136
204	0xbd63b1f5	-0.055589635
205	0x3d3db7c8	0.046317846
206	0xbd1f10ab	-0.038834255
207	0xbd2e5a3c	-0.042566523
208	0xbdd129cd	-0.10213051
209	0xbe0fc965	-0.1404167
210	0x3c488be6	0.012240386
211	0xbc8cbc25	-0.017179558
212	0xbbd4a83b	-0.006489781
213	0x3c343178	0.010998122
214	0xbc738473	-0.014863121
215	0x3c9d2be1	0.019185962
216	0xbcd2c684	-0.025729425
217	0xbd890cee	-0.06691919
218	0xbd15cf50	-0.03657466
219	0xbd05c34c	-0.032656953
220	0xbdcd75ac	-0.1003221
221	0x3d852064	0.06500319
222	0xbda8e90e	-0.08247577
223	0xbd85a04f	-0.06524717
224	0xbd71612e	-0.05893057
225	0xbbc8e710	-0.0061310604
226	0xbcd05776	-0.02543233
227	0xbd547804	-0.05187227
228	0x3ccf6804	0.025318153
229	0x3c3b7784	0.011442069
230	0xbcce0e80	-0.025153399
231	0xbc474554	-0.012162525
232	0xbcf78381	-0.030214073
233	0xbd367c94	-0.0445524
234	0x3cee6414	0.029100455
235	0xbe0581c4	-0.13037783
236	0xbd656e42	-0.056013353
237	0xbe0ff5b2	-0.14058569
238	0x3d2e5102	0.042557724
239	0x3cde8d0c	0.027166866
240	0xb9deb030	-0.0004247441
241	0x3cb5bdc4	0.022185214
242	0xbd132c85	-0.03593113
243	0x3bb16260	0.0054133385
244	0x3be534af	0.0069948058
245	0x3ca6e2f8	0.020371899
246	0x3cccc05c	0.024994068
247	0x3dadcb6e	0.08486067
248	0xbda43db6	-0.08019583
249	0xbd9d2700	-0.07673454
250	0xbd3a3f34	-0.04547043
251	0x3d0a22ef	0.03372472
252	0xbc987a6b	-0.018613061
253	0xbd6d3505	-0.05791189
254	0xbd868c21	-0.06569696
255	0x3cc3252c	0.023821436

main_model.hiddenlayer_0.bias f4 [256]
0	0xbe13eefd	-0.14446636
1	0xbea9b49c	-0.33145607
2	0xbe0467d1	-0.12930228
3	0xbe589915	-0.21152146
4	0xbd8d4c98	-0.06899375
5	0xbd97445c	-0.073860854
6	0xbe1a3af3	-0.1506155
7	0xbe2a67f5	-0.16641219
8	0xbde4db6f	-0.11174666
9	0xbdcfc617	-0.101452045
10	0xbe3e8698	-0.18606031
11	0xbd88d1b5	-0.066806234
12	0xbe59270a	-0.21206298
13	0xbd70263b	-0.05863021
14	0xbe5b3733	-0.21407776
15	0xbd76e0a4	-0.060272828
16	0xbd2ecf68	-0.042678267
17	0xbd3798e9	-0.04482356
18	0xbeb50b89	-0.35360363
19	0xbe57da10	-0.21079278
20	0xbdaa508a	-0.08316143
21	0xbcf6b4ee	-0.03011557
22	0xbe792bc5	-0.24333103
23	0x3e40d35d	0.18830629
24	0xbc890681	-0.016726734
25	0xbe1475f4	-0.1449812
26	0xbdddf7ca	-0.10838278
27	0xbde66809	-0.11250312
28	0xbe0c9ee1	-0.13732482
29	0xbd6333ec	-0.05546944
30	0xbdbe138b	-0.09281071
31	0xbd382873	-0.04496045
32	0xbe20299e	-0.15640876
33	0xbdd3cbfa	-0.1034164
34	0xbd68551c	-0.05672179
35	0xbdba8c56	-0.09108798
36	0xbddab713	-0.1067945
37	0xbe54dde7	-0.20787774
38	0xbd1cd4fc	-0.038289055
39	0xbdf69606	-0.120403334
40	0x3c0cb263	0.008587453
41	0xbdd3391d	-0.10313628
42	0xbecf7b7a	-0.40523893
43	0xbdf3d105	-0.11905102
44	0xbc90f872	-0.017696593
45	0x3d36d919	0.044640634
46	0xbe0b941d	-0.1363072
47	0xbe5cb991	-0.21555163
48	0xbd94c3e6	-0.07263927
49	0xbd97b569	-0.07407648
50	0xbdb81e44	-0.08990148
51	0xbe13b9fc	-0.14426416
52	0xbd0870c1	-0.033310656
53	0xbe60eac8	-0.21964562
54	0xbd92bf75	-0.07165424
55	0xbd853f2a	-0.06506188
56	0xbdc0ea65	-0.09419707
57	0xbde668be	-0.11250447
58	0xbd5d7f25	-0.054076333
59	0xbdb8d0d2	-0.09024204
60	0xbe1e2ea3	-0.15447478
61	0xbc85f82c	-0.01635369
62	0xbe1583a3	-0.14600997
63	0xbdcd26ef	-0.100171916
64	0xbc982d96	-0.018576425
65	0xbde30d72	-0.11086549
66	0xbd1713f6	-0.03688427
67	0xbe250d17	-0.16118275
68	0xbdcaa721	-0.098951586
69	0xbdab57d7	-0.083663635
70	0xbd48eaec	-0.049052164
71	0xbdc0e4f9	-0.09418673
72	0xbd40a63b	-0.04703353
73	0xbe159635	-0.1460808
74	0xbddee30e	-0.10883151
75	0xbd88219b	-0.06647035
76	0xbde15f07	-0.11004453
77	0xbcb44fc2	-0.022010688
78	0xbd4084a0	-0.04700148
79	0xbd80f181	-0.06296063
80	0xbe20b561	-0.1569419
81	0xbceeac35	-0.02913485
82	0xbc0acb9b	-0.008471395
83	0xbdf1013f	-0.11767816
84	0xbbaaab85	-0.005208435
85	0xbdcbde4d	-0.0995451
86	0xbd853fcc	-0.06506309
87	0xbe034060	-0.12817526
88	0xbe420108	-0.18945706
89	0xbddc7c56	-0.10765903
90	0xbdeb4016	-0.11486833
91	0xbde90213	-0.11377349
92	0xbd42a86c	-0.0475239
93	0xbe0a4b52	-0.13505295
94	0xbdf84be7	-0.12123852
95	0xbe2dfd10	-0.16991067
96	0xbd1d57d1	-0.038413826
97	0xbe043bd2	-0.12913445
98	0xbdb206cb	-0.08692702
99	0xbe1d490d	-0.15359898
100	0xbd99d083	-0.075104736
101	0xbdc89a5c	-0.09795067
102	0xbc59040c	-0.013245594
103	0xbe66799e	-0.22507331
104	0xbda52f86	-0.08065705
105	0x3c21fdac	0.00988714
106	0xbe36ed89	-0.1786405
107	0xbddec600	-0.10877609
108	0xbd77f20d	-0.060533572
109	0xbd82e857	-0.063919716
110	0xbde18de9	-0.11013395
111	0xbc5b00da	-0.013366902
112	0xbe31807d	-0.1733417
113	0xbdb35ad6	-0.0875756
114	0xbe1a290f	-0.15054725
115	0xbdc848dd	-0.097795226
116	0xbc967f0e	-0.018371131
117	0xbdd708b9	-0.104997106
118	0xbd871d25	-0.06597356
119	0xbd60dcea	-0.05489818
120	0xbd66dbcf	-0.05636197
121	0xbdaa9653	-0.08329453
122	0xbd969db8	-0.07354301
123	0xbce27e90	-0.02764824
124	0x3cbf5bd7	0.023359222
125	0xbbe45070	-0.0069675967
126	0xbd95d622	-0.07316233
127	0xbd9b730f	-0.07590305
128	0xbcda303a	-0.026634324
129	0xbdf78cb2	-0.120873824
130	0x3ca57367	0.02019663
131	0xbd047e65	-0.0323471
132	0xbe9defcf	-0.30847022
133	0xbe2517a7	-0.16122304
134	0xb86cdb9a	-5.6471305e-05
135	0xbd49916b	-0.049210947
136	0xbde6ce8d	-0.11269865
137	0x3d0152d0	0.031573117
138	0x3a2cdaf7	0.00065939076
139	0xbd3c7c02	-0.0460167
140	0xbe652d11	-0.22380473
141	0xbe030e12	-0.12798336
142	0xbdbfb971	-0.09361542
143	0xbc9f06b2	-0.019412372
144	0x3f08e826	0.5347923
145	0xbe9a0828	-0.30084348
146	0x3f0987d5	0.5372289
147	0xbc08a89f	-0.008340984
148	0xbdd813a1	-0.10550619
149	0xbde27b89	-0.11058719
150	0xbda25aa3	-0.07927444
151	0x3f872cbb	1.0560526
152	0xbd5e0d36	-0.054211818
153	0x3dff3702	0.12461664
154	0x3bd2991c	0.0064269435
155	0xbddbfa54	-0.10741106
156	0xbce1b06b	-0.027549943
157	0xbe202c42	-0.15641883
158	0xbe1ef7d0	-0.1552422
159	0xbd411916	-0.047143064
160	0xbce36f2f	-0.027762977
161	0xbdb8a915	-0.09016625
162	0xbd7fce94	-0.062452868
163	0xbd43c27f	-0.047792908
164	0xbd7de9f0	-0.06199068
165	0xbe342e0b	-0.17595689
166	0xbe00d284	-0.12580305
167	0xbe653ca7	-0.22386418
168	0xbc06f81f	-0.008237868
169	0xbd8736f7	-0.066022806
170	0xbd1fd7bb	-0.039024096
171	0xbdefd928	-0.11711341
172	0x3d139dcb	0.036039155
173	0xbd965270	-0.073399425
174	0xbe1ec176	-0.15503487
175	0xbc4f48a3	-0.012651595
176	0xbebe24b1	-0.37137368
177	0xbd951957	-0.07280224
178	0xbc9fe337	-0.019517524
179	0xbe1dc557	-0.1540731
180	0xbe12f6c5	-0.14351948
181	0xbda1d805	-0.079025306
182	0xbdb3bb23	-0.08775928
183	0xbe16e274	-0.14734823
184	0xbe3c77f8	-0.1840514
185	0xbd0372ff	-0.03209209
186	0xbdc10af8	-0.0942592
187	0xbe939145	-0.2882177
188	0xbda8b703	-0.08238032
189	0xbdd175d0	-0.10227549
190	0xbdefb2f0	-0.117040515
191	0xbe54e0a7	-0.20788823
192	0xbd00fef4	-0.031493142
193	0xbe4a78e9	-0.19772686
194	0xbd93277c	-0.071852654
195	0xbd558cdb	-0.052136283
196	0xbd148e85	-0.03626873
197	0xbe230df2	-0.15923288
198	0xbb7d05f1	-0.0038608278
199	0x3e49e406	0.1971589
200	0xbdcba81f	-0.09944176
201	0xbd921cf6	-0.0713443
202	0xbd895398	-0.06705397
203	0xbde53279	-0.111912675
204	0xbd9da7b7	-0.07698005
205	0xbdc68ab6	-0.09694426
206	0xbdf62007	-0.120178275
207	0xbdda8236	-0.10669367
208	0xbe18ea7b	-0.14933197
209	0xbe2822cb	-0.16419522
210	0xbd815cae	-0.06316505
211	0xbe26299e	-0.16226813
212	0xbde9e0b7	-0.11419814
213	0xbd589ecf	-0.052885827
214	0xbe87038e	-0.263699
215	0xbe05be3c	-0.1306085
216	0xbdb10ef1	-0.08645428
217	0xbdbd0072	-0.092286006
218	0xbd3ea230	-0.046541393
219	0xbe10b7c4	-0.14132601
220	0xbe156fbd	-0.14593406
221	0xbdaebde5	-0.08532313
222	0x3eb78b94	0.35848677
223	0xbe4959fa	-0.1966323
224	0xbd963316	-0.073339626
225	0xbdb79e5d	-0.08965752
226	0xbd0b3eb1	-0.033995334
227	0xbd3f882f	-0.046760734
228	0x3cb83729	0.02248724
229	0xbe49c187	-0.19702731
230	0xbe0d6a38	-0.1381005
231	0xbd7999f6	-0.060937844
232	0xbd52591a	-0.051354505
233	0x3c9ea75f	0.019366918
234	0xbe0802c2	-0.13282302
235	0xbe3927a9	-0.18081535
236	0xbdeb6bae	-0.11495148
237	0xbdb5dbae	-0.08879791
238	0xbe78bd2e	-0.24290916
239	0xbf14836c	-0.58013034
240	0xbc58ad28	-0.013224877
241	0xbddc4193	-0.10754695
242	0xbd46dc98	-0.04855022
243	0xbe08612f	-0.13318323
244	0xbdc7181f	-0.097213976
245	0xbdfb5223	-0.12271526
246	0xbdb3d7bf	-0.08781385
247	0xbd639d5f	-0.055570003
248	0xbd837ed5	-0.06420676
249	0xbe179c28	-0.14805663
250	0xbd0e29c0	-0.034707785
251	0xbd493620	-0.049123883
252	0xbd3d3438	-0.046192378
253	0xbd4c3b8e	-0.049861483
254	0xbe0e3e39	-0.13890924
255	0xbdefb96f	-0.117052905

main_model.OutputLayer.weight f4 [3, 256]
0	0xbc70a5ac	-0.014687937
1	0xbd96dabe	-0.073659405
2	0x3cfc426d	0.030793393
3	0xbce24cbd	-0.027624482
4	0x3d1cd8db	0.038292747
5	0xbb836cf8	-0.004010793
6	0xbd5401ea	-0.051759638
7	0xbd1f0f89	-0.038833175
8	0x3c5df4e6	0.013547158
9	0x3c9ac15f	0.018891035
10	0xbcf76e5f	-0.030203996
11	0x3c360585	0.011109714
12	0x3cbb0db9	0.022833692
13	0x3a866c09	0.0010255586
14	0x3bb99860	0.0056639165
15	0x3c854605	0.01626874
16	0x3d9ac283	0.075566314
17	0x3cadffe2	0.021240178
18	0xbc96bad9	-0.018399643
19	0x3d3d0ca7	0.046154644
20	0xbce367d8	-0.027759477
21	0x3bb65e86	0.0055654673
22	0x3c9bbec8	0.01901187
23	0x3ea13528	0.31485868
24	0x3c575d60	0.013144821
25	0x3c6a2753	0.014291602
26	0xbc916732	-0.017749403
27	0xbbcecd43	-0.00631109
28	0x3c97af03	0.01851607
29	0x3d9c0f69	0.07620127
30	0xbbf969b3	-0.0076114773
31	0xbc7582e9	-0.014984825
32	0x3cb86a53	0.022511637
33	0xbc8b3d22	-0.016996924
34	0xbd4dec2a	-0.05027405
35	0x3cbfa480	0.02339387
36	0xbca911dd	-0.0206384
37	0xbcae4201	-0.021271707
38	0x3c33c925	0.01097325
39	0xbc08f7c2	-0.008359851
40	0xbcab2044	-0.020889409
41	0xbba3c3c6	-0.0049977032
42	0xbc2a3bc2	-0.010390224
43	0xbc3fec61	-0.011714072
44	0x3cb73838	0.022365674
45	0x3d244c2a	0.0401117
46	0x3bd09200	0.006365061
47	0xbe856d7f	-0.260601
48	0xbb96b635	-0.0045993575
49	0x3cd612b4	0.026131965
50	0xbc9d56d3	-0.01920644
51	0xbc7a0dd3	-0.015262085
52	0x3bdaffef	0.0066833417
53	0xbcaffc9c	-0.021482758
54	0xbc93f5d8	-0.018061563
55	0x3ccb9dd4	0.024855532
56	0x3c8ae8d1	0.016956719
57	0xbb062a50	-0.0020471998
58	0x3b737ae5	0.0037152108
59	0xbc8ecabd	-0.017430658
60	0xbbfbb529	-0.007681508
61	0x3d39409c	0.045227632
62	0xbba8c10d	-0.0051499666
63	0xbd5660e4	-0.052338496
64	0xbc9ae2bb	-0.018906942
65	0x3cd3e8b0	0.02586779
66	0xbd6c2384	-0.057651058
67	0x3ce04280	0.02737546
68	0x3c1f269a	0.009713793
69	0xbc053e35	-0.008132507
70	0x3a6860cc	0.00088645215
71	0xbcc7ce8b	-0.02439048
72	0x3cf54315	0.029939214
73	0x3c92ce86	0.017920744
74	0xbc8db3e2	-0.017297689
75	0x3bb2bdf3	0.0054547726
76	0x3b6fbeb0	0.0036582164
77	0x3ca10bd7	0.019658966
78	0xbbc0ba9e	-0.0058816215
79	0xbc9f718e	-0.019463327
80	0xbd00f9c1	-0.031488184
81	0x3c571507	0.013127572
82	0x3b9caa3f	0.004781037
83	0xbc1177ae	-0.0088786315
84	0xbd076f03	-0.033064853
85	0xbcd55c3a	-0.026044954
86	0xbc144714	-0.0090501495
87	0xbc38dd03	-0.011283162
88	0xbd180676	-0.037115537
89	0xbd6ed874	-0.058311895
90	0x3cb3148c	0.021860383
91	0xbcb9a41b	-0.02266126
92	0x3c718c53	0.014742929
93	0x3b39994b	0.002832013
94	0xbc03e1eb	-0.0080494685
95	0x3cbe5392	0.023233209
96	0x3d128238	0.035768718
97	0xbc368c01	-0.011141778
98	0x3bc44567	0.0059897187
99	0xbd1dee6f	-0.038557466
100	0x3ccac12c	0.024750315
101	0xbcc66f80	-0.02422309
102	0xbc2b14ff	-0.010442018
103	0xbc76b68a	-0.015058169
104	0xbbe164d7	-0.006878476
105	0x3daae965	0.08345298
106	0x3cedeac3	0.029042607
107	0xbcf08280	-0.029359102
108	0x3bfd7c46	0.007735762
109	0x3c53732b	0.012905876
110	0xbd0d09c0	-0.034433126
111	0x3d0c9799	0.034324262
112	0xbc3ccd33	-0.011523533
113	0x3caf2bef	0.021383254
114	0xbc6d3cf2	-0.0144798625
115	0x3d00c11b	0.03143416
116	0xbc04a90c	-0.008096945
117	0xbb965ca6	-0.0045886813
118	0x3d0a364d	0.03374319
119	0x3d1c9a97	0.038233366
120	0xbd44f159	-0.04808173
121	0xbbee5a31	-0.0072739352
122	0xbc8d3dcd	-0.017241383
123	0x3c61c7f3	0.013780582
124	0x3d46eb72	0.048564382
125	0x3b056c02	0.0020358567
126	0xbb39ab05	-0.0028330695
127	0x3c8312be	0.016000148
128	0x3ce7ad98	0.028281018
129	0xbde870cd	-0.1134964
130	0x3cb2d964	0.021832176
131	0x3c177aec	0.009245615
132	0x3f10cd47	0.5656323
133	0xbc66218f	-0.014046087
134	0x3cb226b9	0.02174698
135	0x3dc8d2b6	0.09805815
136	0x3d45a854	0.048256233
137	0xbc7ef51c	-0.015561368
138	0xbc11ba51	-0.008894519
139	0xbcf61aa3	-0.030041998
140	0xbb198a86	-0.0023428514
141	0x3d4e5dbd	0.050382365
142	0xbc3dda35	-0.011587669
143	0x3c522ad2	0.012827592
144	0x3df9be11	0.121944554
145	0x3cbf9c77	0.023390038
146	0x3cc5ea21	0.024159493
147	0x3b09ff37	0.002105666
148	0x3be3ad74	0.0069481675
149	0x3c962a5b	0.018330744
150	0x3c44ac54	0.012003977
151	0x3df5b186	0.119967505
152	0xbc239b8d	-0.009985817
153	0xbd178d60	-0.03700006
154	0x3d80c4d6	0.062875435
155	0x3c47f120	0.012203485
156	0xbb173be8	-0.0023076478
157	0xbc41b58b	-0.011823068
158	0xbcbe9a12	-0.023266826
159	0x3c790611	0.0151992
160	0x3b532ea8	0.0032223854
161	0xbc9e8bca	-0.019353766
162	0x3c5e165a	0.013555134
163	0x38a55874	7.884289e-05
164	0x3c32e01a	0.010917688
165	0xbd10a894	-0.03531702
166	0x3cf3a794	0.029742993
167	0x3cab00cc	0.020874403
168	0xbbc451d9	-0.0059912023
169	0x3d037d35	0.03210183
170	0x3c713968	0.014723159
171	0xbd4b8a9c	-0.049692735
172	0x3d61c797	0.055121984
173	0xbc8f7d09	-0.017515676
174	0x3cc92ed5	0.024558464
175	0xbc7bea6a	-0.015375713
176	0xbf09ad8c	-0.53780437
177	0x3d300660	0.04297483
178	0xbd6d4dc5	-0.057935495
179	0x3b3bcc30	0.002865564
180	0xbcb9c474	-0.022676684
181	0x3ded1926	0.11577062
182	0x3bab4e02	0.005227805
183	0xbd0353cb	-0.032062333
184	0x3cf725ad	0.030169332
185	0xbc0e81ad	-0.008697909
186	0xbbe2a71c	-0.0069168936
187	0x3d70fd17	0.058835115
188	0x3d020582	0.031743534
189	0x3ca2107e	0.019783255
190	0xbbc5d2a0	-0.0060370713
191	0xbcd1fc1b	-0.025632909
192	0x3c44b627	0.012006319
193	0x3db954df	0.09049391
194	0xbc8aba42	-0.016934518
195	0xbcf053a4	-0.029336758
196	0xbc0d0c95	-0.008608957
197	0x3e1c5cc5	0.15269764
198	0x3ccbf9a7	0.024899317
199	0x3db5f32d	0.08884273
200	0x3cb3d1e5	0.021950671
201	0x3c4cca07	0.012499339
202	0xbcfd8b23	-0.030950135
203	0x3c949b6f	0.018140523
204	0xbd1a7c6c	-0.037716314
205	0xbcd99aac	-0.026563011
206	0xbd0c9064	-0.03431739
207	0x3d403850	0.046928704
208	0xbdbc7ad1	-0.09203113
209	0xba6fc453	-0.0009146381
210	0xbc6be8a4	-0.014398728
211	0xbd8bca81	-0.06825734
212	0x3bd756d7	0.0065716314
213	0xbce39ba9	-0.027784185
214	0xbe0ed5df	-0.13948773
215	0xbd11a125	-0.03555407
216	0xba6fd80b	-0.00091493194
217	0xbd02a497	-0.031895246
218	0xbcba7fd0	-0.022766024
219	0xbb6593e4	-0.0035030777
220	0x3c86e65d	0.016467268
221	0x3cf5f970	0.030026168
222	0x3dcdaec4	0.100430995
223	0xbba6686c	-0.005078366
224	0x3c98d65a	0.018656898
225	0x3c857d84	0.016295202
226	0x3ca538ab	0.020168623
227	0x3bdc8844	0.0067301113
228	0x3cf272c8	0.029595748
229	0x3d14baa3	0.036310803
230	0x3bb779fe	0.0055992594
231	0xbc4582c5	-0.012055104
232	0x3ca17ff7	0.019714339
233	0x3d27c4fd	0.040959347
234	0x3b955c24	0.004558103
235	0xbcb6d798	-0.0223196
236	0xbc7632f7	-0.015026799
237	0x3ce7c7dd	0.028293544
238	0x3c7e8b9a	0.015536213
239	0xbd8bc938	-0.06825489
240	0x3ba22e4f	0.004949368
241	0xbc96d48e	-0.0184119
242	0x3cf65001	0.030067446
243	0xbba99a5f	-0.005175873
244	0x3c00f094	0.007869858
245	0x3b5e2cb7	0.0033901164
246	0xbe3fbfe4	-0.18725544
247	0x3befc340	0.007316977
248	0xbc4c48db	-0.012468542
249	0xbc9df546	-0.019281995
250	0xbc681f44	-0.014167611
251	0xbd341011	-0.043960635
252	0xbbb10ff4	-0.005403513
253	0x3cfbd810	0.030742675
254	0xbb2a8416	-0.002601867
255	0xbc0a10e4	-0.008426879

main_model.OutputLayer.bias f4 [3]
0	0x403f7734	2.9916506
1	0x402c7e52	2.69521
2	0x403de3b7	2.9670236
