c1-dqn/dqn/src/DQN_├╩▒Γ/xy2Dsimulator/new/save/main_model_000004.pth (torch_old, 274727 bytes, 6 tensors)

main_model.InputLayer.weight f4 [256, 6]
-0.136874 -0.03162732 0.1074167 -0.3531957 0.37968376 -0.33453932 -0.24989969 -0.0617128
-0.20065522 -0.09402946 -0.36321354 0.3986274 -0.3335575 -0.046298712 0.32003748 0.07861027
-0.21357334 -0.22842908 0.083748214 -0.4018916 0.29813385 -0.28366682 -0.042723 0.3224586
0.15200311 -0.23991226 0.20090964 0.3419535 0.06897138 0.27361846 0.22802836 0.16260208
-0.01598078 -0.29974994 0.3227276 -0.30632812 0.08998745 0.27157938 -0.14668976 0.2908328
-0.29560885 -0.08261331 0.3177974 -0.378328 -0.1781046 -0.10736525 0.26513365 0.026814474
0.061218638 -0.13841301 -0.008162646 -0.43817636 -0.026477534 -0.44178516 -0.032118082 -0.03645574
0.24237385 -0.012208159 -0.20925006 0.22212395 -0.19922939 0.19061977 -0.03986638 0.039832197
0.26316434 -0.39370635 0.25396237 0.23445483 0.04797902 -0.06773285 -0.17664343 -0.06429872
0.04500267 -0.33775213 -0.10618442 0.1852355 -0.39419153 -0.10764256 -0.026875984 0.3874753
0.08972824 -0.15571812 -0.1665054 0.21022467 0.010494977 -0.22523235 -0.14533317 0.32561368
-0.17566745 -0.33807534 0.28196347 0.2795056 0.27595943 0.30838427 -0.039900005 -0.05442906
0.20407102 -0.36185223 -0.17101853 0.1027697 -0.19476137 0.19102493 -0.21790418 0.0023051212
0.033870135 -0.4037076 0.2899034 0.19085808 -0.32958084 0.32231748 -0.14446458 0.2574362
-0.018059557 -0.3901348 0.31423667 0.22201668 0.22194044 0.12679346 0.32568902 -0.32361355
0.23493125 0.075942956 -0.040293563 -0.09299764 -0.42922676 0.1594866 -0.08110207 -0.3623101
0.346601 -0.04884097 -0.10710803 0.11736894 0.304923 0.35586098 0.32543442 0.09738244
-0.050547663 0.033333514 0.21424377 0.16724002 0.1661704 -0.3255771 -0.2955238 -0.0854104
0.25222376 -0.0514097 0.3299557 -0.38078654 0.0946171 -0.09326116 -0.007719664 0.113982685
-0.31801453 -0.0007137423 0.35076162 0.27252525 -0.21241347 0.30974406 0.05370559 0.02197274
0.22915106 0.22432607 -0.19325069 -0.3860487 -0.145217 -0.10894996 0.05559659 -0.30912358
-0.1870415 0.0283781 -0.2564144 0.1068424 -0.27327603 -0.11272463 0.12621558 -0.032934234
-0.2873032 0.08264195 0.3639983 0.26148328 0.051332623 -0.18129033 -0.26889607 -0.21246694
-0.033786535 0.008629382 0.3023797 -0.19810048 0.33198684 -0.32444328 0.34030315 -0.08360002
-0.15120684 0.10582869 -0.26716158 -0.20574728 0.047367424 -0.35668007 -0.108341455 -0.062690035
-0.1417076 0.16619398 0.29082763 0.14744405 -0.025609389 -0.13067217 0.19437657 -0.030506968
0.2190824 -0.33305997 0.047562808 0.17011051 0.014622861 -0.2625566 0.09046353 -0.1496061
-0.2515407 0.016988575 0.31308675 -0.31581602 -0.26187995 -0.11335456 -0.13404325 -0.05298394
0.2400029 0.20311347 -0.29342803 -0.38679636 0.11111704 0.15415046 -0.27630293 0.03568368
0.19656068 -0.18260726 0.13005929 0.16766116 -0.010758719 -0.31400552 0.038101424 0.33181933
-0.1728933 -0.122362375 0.20723496 -0.2668366 0.3494867 -0.18914922 -0.23198248 0.33298507
-0.028420078 0.034804754 -0.036404304 -0.029009072 0.13973437 -0.038561005 -0.36898574 0.28466597
00000000: b328 0cbe a68b 01bd 49fd db3d 11d6 b4be
00000010: e965 c23e bd48 abbe b4e5 7fbe 90c6 7cbd
00000020: 9078 4dbe 8492 c0bd 20f7 b9be e418 cc3e
00000030: 0cc8 aabe b8a3 3dbd f4db a33e 6cfe a03d
00000040: f8b2 5abe 50e9 69be 2f84 ab3d bcc4 cdbe
00000050: 00a5 983e c73c 91be 50fe 2ebd 4b19 a53e
00000060: b4a6 1b3e 8fab 75be 42bb 4d3e 8714 af3e
00000070: de40 8d3d b817 8c3e 4480 693e 2981 263e
00000080: 20ea 82bc d378 99be 8d3c a53e 0ad7 9cbe
00000090: 574b b83d 740c 8b3e d735 16be 09e8 943e
000000a0: 0b5a 97be 2b31 a9bd 57b6 a23e 35b4 c1be
000000b0: 0d61 36be 50e2 dbbd 99bf 873e 07aa db3c
000000c0: 65c0 7a3d 24bc 0dbe 9ebc 05bc a758 e0be
000000d0: 6ae7 d8bc aa31 e2be 408e 03bd 9d52 15bd
000000e0: da30 783e bb04 48bc a645 56be 7674 633e
000000f0: ca02 4cbe d431 433e ee4a 23bd 1627 233d
00000100: 7abd 863e e193 c9be 5b07 823e ed14 703e
00000110: a685 443d 85b7 8abd 04e2 34be 0caf 83bd
00000120: b854 383d d9ed acbe 3877 d9bd 60ae 3d3e
00000130: 79d3 c9be b473 dcbd 062b dcbc 2a63 c63e
00000140: 71c3 b73d 9274 1fbe 6480 2abe 2345 573e
00000150: 20f3 2b3c 4fa3 66be 38d2 14be d6b6 a63e
00000160: 2be2 33be 3618 adbe 845d 903e 5c1b 8f3e
00000170: 8e4a 8d3e 8be4 9d3e 306e 23bd 02f1 5ebd
00000180: fef7 503e b244 b9be 7b1f 2fbe ec78 d23d
00000190: 866f 47be 0a9c 433e 4622 5fbe 8411 173b
000001a0: 69bb 0a3d c3b2 cebe 386e 943e 4d70 433e
000001b0: d2be a8be cc06 a53e 86ee 13be adce 833e
000001c0: a3f1 93bc c0bf c7be a1e3 a03e 5758 633e
000001d0: 5b44 633e 25d6 013e b6c0 a63e adb0 a5be
000001e0: d191 703e fb87 9b3d dd0a 25bd 8c75 bebd
000001f0: 9cc3 dbbe 7550 233e d818 a6bd b680 b9be
00000200: b075 b13e 780d 48bd 745b dbbd 205f f03d
00000210: de1e 9c3e 6933 b63e 579f a63e 7270 c73d
00000220: 110b 4fbd b988 083d b862 5b3e f840 2b3e
00000230: 9328 2a3e 0bb2 a6be e54e 97be a6eb aebd
00000240: 7923 813e fa92 52bd f4ef a83e 74f6 c2be
00000250: 9cc6 c13d b5ff bebd 3cf5 fcbb c16f e93d
00000260: cdd2 a2be 6f1a 3bba 0797 b33e 6e88 8b3e
00000270: eb82 59be c696 9e3e 65fa 5b3d 2d00 b43c
00000280: 93a6 6a3e bcb5 653e 82e3 45be 2da8 c5be
00000290: c4b3 14be 2821 dfbd 40b9 633d 7245 9ebe
000002a0: cf87 3fbe 3079 e83c c048 83be 30d0 da3d
000002b0: d6ea 8bbe 2cdc e6bd a83e 013e 0ce6 06bd
000002c0: 6819 93be 2f40 a93d fc5d ba3e 23e1 853e
000002d0: 2842 523d 2ca4 39be bfac 89be ef90 59be
000002e0: c063 0abd 4062 0d3c 83d1 9a3e dada 4abe
000002f0: 2efa a93e 6e1d a6be 373c ae3e 7d36 abbd
00000300: f7d5 1abe b6bc d83d 67c9 88be 6aaf 52be
00000310: 5804 423d c59e b6be 20e2 ddbd a263 80bd
00000320: cc1b 11be c12e 2a3e 5ce7 943e 93fb 163e
00000330: c8ca d1bc edce 05be a70a 473e c0e9 f9bc
00000340: 2357 603e d686 aabe 38d1 423d 7331 2e3e
00000350: b994 6f3c d26d 86be f144 b93d 5732 19be
00000360: f1c9 80be a02b 8b3c e84c a03e a3b2 a1be
00000370: 2115 86be 7026 e8bd a242 09be b005 59bd
00000380: 52c3 753e fafc 4f3e 333c 96be 2c0a c6be
00000390: 5591 e33d 9ed9 1d3e 9477 8dbe 0d29 123d
000003a0: 3447 493e 66fd 3abe 432e 053e 5eaf 2b3e
000003b0: 5745 30bc 55c5 a0be 3d10 1c3d 39e4 a93e
000003c0: f10a 31be 2099 fabd 6735 543e cf9e 88be
000003d0: ecef b23e 55b0 41be d18c 6dbe 057d aa3e
000003e0: 39d1 e8bc 6e8f 0e3d ae1c 15bd 6fa4 edbc
000003f0: 8716 0f3e 25f2 1dbd b3eb bcbe bdbf 913e

main_model.InputLayer.bias f4 [256]
0.27321312 -0.050888002 0.3432203 0.24416344 0.17054227 -0.117795385 -0.3148371 -0.058175594
-0.21361823 0.33271787 -0.05734015 -0.41079348 0.41654882 -0.07473874 -0.29387665 -0.3492843
-0.30830672 0.23007657 0.38154387 -0.14174579 0.13427767 -0.17846327 0.34102422 -0.10268493
0.12324033 -0.15138364 -0.16908795 0.1582652 -0.14700049 -0.014697456 0.3863792 0.049532183
0.50465876 -0.18233489 -0.04647159 -0.26416415 0.4769108 -0.3199579 -0.27309662 0.12819293
-0.34122768 -0.04200487 0.30368114 -0.29242682 0.4087733 0.11116313 -0.012986898 -0.14049071
-0.33612877 -0.41979778 -0.40220568 0.53428274 -0.28743008 0.41219184 0.16907848 -0.4037688
0.3722353 0.16510864 0.10643557 0.0760668 0.15333723 -0.14262208 0.049706746 -0.23176087
-0.12243107 -0.39515725 -0.35559842 0.44610542 -0.023850068 -0.25075334 -0.1486043 0.38683614
-0.0210478 -0.17841515 0.06320811 -0.030932456 -0.15502085 -0.24085175 0.4925611 -0.25793055
0.3756148 -0.35518852 0.40464923 -0.36507216 0.02884365 0.051714566 -0.2785231 -0.36557153
-0.32485107 0.31864804 -0.018287284 -0.3202611 -0.36113828 -0.32242376 -0.40178096 -0.037974954
-0.038392298 0.1457678 0.2328932 -0.3700044 -0.024410708 -0.2046079 -0.15328005 0.3806531
-0.41018087 0.1718854 -0.28353298 0.221327 -0.16760322 -0.020125449 -0.39394075 -0.08872071
-0.028149128 -0.31003577 -0.12205538 -0.2796526 0.3022787 -0.1690129 0.51457554 0.073553525
0.3652083 -0.3393197 0.28426793 -0.16229922 -0.15582469 0.15689665 -0.04999572 0.2034268
-0.082235485 -0.061240256 0.028071983 0.0984947 0.2619059 -0.39380476 0.5046801 -0.3826873
-0.08411712 0.40391612 0.16803877 -0.13089025 0.37440455 -0.3220302 -0.18243875 0.3310294
0.35788772 -0.30225584 0.16389845 -0.3167726 0.25170448 0.4322203 -0.031252597 -0.26501876
0.24979463 -0.066919506 -0.1243746 0.31823957 0.13230795 0.3642865 -0.42459187 0.23749399
0.1443104 -0.23527671 -0.045009512 0.279919 -0.17412096 0.12572788 0.51619923 -0.106648125
0.18093339 0.10881978 -0.11905638 -0.01832965 0.1346797 0.25024724 0.27301142 -0.26119152
0.09395219 -0.17807344 0.3870363 0.23612763 -0.14861095 -0.14627507 -0.26111755 0.32894242
0.12042706 0.2127235 -0.16012134 -0.13602033 0.32605222 -0.34089553 0.105111994 -0.08335832
-0.040014986 -0.339362 0.07708946 0.06443181 0.528183 0.35932344 -0.40387523 -0.22745243
0.27006948 0.18759689 -0.046532154 0.38000977 -0.101697475 0.2768382 -0.01987283 0.2534655
0.38696566 -0.20943618 0.23008142 0.17850812 0.29988027 -0.03267765 0.32091248 -0.32913545
0.3856147 0.35893697 0.2838104 0.39282155 0.24958524 -0.20744038 -0.25653842 -0.14139508
0.07443981 -0.3505764 -0.31357816 0.21617626 0.22763607 -0.050988484 -0.20819433 0.2781085
-0.20272006 -0.38918102 -0.19776274 0.21323225 0.4191326 0.19007137 0.2297294 0.3143857
0.02624983 -0.20803699 -0.0069597634 0.49906996 0.18028758 0.20334645 0.35300693 0.48327997
0.3962833 0.103254296 0.018364448 0.15254629 0.4114899 -0.29726574 -0.16140552 -0.39334545
00000000: 97e2 8b3e f06f 50bd 92ba af3e fb05 7a3e
00000010: a2a2 2e3e b53e f1bd 5432 a1be 8849 6ebd
00000020: bdbe 5abe ff59 aa3e 81dd 6abd 8653 d2be
00000030: e345 d53e a010 99bd 0077 96be 64d5 b2be
00000040: 61da 9dbe 3199 6b3e b859 c33e cf25 11be
00000050: 1680 093e 13bf 36be ba9a ae3e 7a4c d2bd
00000060: 6d65 fc3d 5004 1bbe 6425 2dbe 4610 223e
00000070: 4c87 16be 99cd 70bc 7fd3 c53e 42e2 4a3d
00000080: 5131 013f ffb5 3abe fe58 3ebd 8640 87be
00000090: a72d f43e 86d1 a3be 52d3 8bbe 0245 033e
000000a0: 65b5 aebe 4c0d 2cbd 187c 9b3e f8b8 95be
000000b0: bc4a d13e 7fa9 e33d 00c7 54bc ccdc 0fbe
000000c0: 1219 acbe bcef d6be e7ed cdbe c1c6 083f
000000d0: 092a 93be cf0a d33e e922 2d3e c9ba cebe
000000e0: a095 be3e 3d12 293e e4fa d93d e9c8 9b3d
000000f0: 6f04 1d3e 860b 12be 4d99 4b3d b952 6dbe
00000100: 24bd fabd 0d52 cabe ff10 b6be ee67 e43e
00000110: 3861 c3bc be62 80be ba2b 18be 630f c63e
00000120: 706c acbc 76b2 36be 4173 813d 1066 fdbc
00000130: c9bd 1ebe d7a1 76be f830 fc3e 790f 84be
00000140: 9550 c03e 45db b5be 2f2e cf3e bdea babe
00000150: 8549 ec3c a7d2 533d 949a 8ebe 312c bbbe
00000160: e152 a6be d625 a33e 37cf 95bc 43f9 a3be
00000170: 1ee7 b8be ba14 a5be 3cb6 cdbe a08b 1bbd
00000180: 3e41 1dbd 2744 153e 8e7b 6e3e 3771 bdbe
00000190: f7f8 c7bc bc84 51be 72f5 1cbe f7e4 c23e
000001a0: 3a03 d2be ba02 303e 3c2b 91be 8ca3 623e
000001b0: 2ea0 2bbe 20de a4bc 9ab2 c9be 34b3 b5bd
000001c0: 0099 e6bc 02bd 9ebe 2cf8 f9bd a02e 8fbe
000001d0: 46c4 9a3e b811 2dbe 39bb 033f 3ba3 963d
000001e0: 95fc ba3e 50bb adbe 918b 913e c431 26be
000001f0: 8290 1fbe 84a9 203e 50c8 4cbd 1d4f 503e
00000200: 146b a8bd 10d7 7abd 37f7 e53c 97b7 c93d
00000210: 8818 863e c7a0 c9be b732 013f 97ef c3be
00000220: 9945 acbd 18ce ce3e 5b12 2c3e 1808 06be
00000230: f4b1 bf3e 24e1 a4be 39d1 3abe af7c a93e
00000240: 0f3d b73e 47c1 9abe ffd4 273e 0530 a2be
00000250: 69df 803e fb4b dd3e b902 00bd 8ab0 87be
00000260: 2aca 7f3e 180d 89bd 1cb8 febd 4cf0 a23e
00000270: bc7b 073e c383 ba3e 1b64 d9be a031 733e
00000280: 1bc6 133e 61ec 70be e55b 38bd 8b51 8f3e
00000290: c44c 32be cfbe 003e a225 043f 556a dabd
000002a0: 9a46 393e e8dc de3d d5d3 f3bd 1028 96bc
000002b0: 7ae9 093e 6820 803e 27c8 8b3e e5ba 85be
000002c0: 016a c03d e258 36be 9f29 c63e 71cb 713e
000002d0: 782d 18be 22c9 15be 33b1 85be 246b a83e
000002e0: 76a2 f63d 30d4 593e d9f6 23be ea48 0bbe
000002f0: 51f0 a63e dc89 aebe f544 d73d c4b7 aabd
00000300: c1e6 23bd dbc0 adbe 14e1 9d3d d3f4 833d
00000310: 0037 073f 3ef9 b73e bcc8 cebe 4ae9 68be
00000320: 8c46 8a3e 6619 403e 8098 3ebd a490 c23e
00000330: c446 d0bd bdbd 8d3e 58cc a2bc 3bc6 813e
00000340: 5d20 c63e 7076 56be 779a 6b3e d5ca 363e
00000350: e889 993e 00d9 05bd a44e a43e 7184 a8be
00000360: 4a6f c53e 96c6 b73e 994f 913e e81f c93e
00000370: 4693 7f3e 406b 54be 0159 83be dfc9 10be
00000380: e673 983d c07e b3be 518d a0be 4f5d 5d3e
00000390: 6e19 693e 4dd9 50bd e530 55be 3d64 8e3e
000003a0: d995 4fbe bc42 c7be 5182 4abe 8e59 5a3e
000003b0: 8c98 d63e 12a2 423e 2f3e 6b3e 2af7 a03e
000003c0: e209 d73c a607 55be ba0e e4bb 1986 ff3e
000003d0: 4f9d 383e 0d3a 503e 53bd b43e 7970 f73e
000003e0: a5e5 ca3e fd76 d33d 0a71 963c 1835 1c3e
000003f0: ceae d23e 3733 98be 7d47 25be 9364 c9be

main_model.hiddenlayer_0.weight f4 [256, 256]
-0.063828856 0.02218061 0.035313524 0.052040733 0.0028106791 -0.040967762 -0.017764855 0.027426451
-0.0051624104 -0.03921453 0.0028736342 -0.03366891 -0.05695545 0.010234523 -0.0074890554 0.047950823
0.02076713 0.047372892 0.0552163 -0.038446516 -0.03503281 -0.030688718 -0.040960208 0.022094982
-0.044421338 -0.05896091 0.04495485 0.032552615 -0.01657983 -0.018895382 0.020482756 -0.008461302
-0.009922154 -0.03614776 -0.04100836 -0.012050422 -0.00597167 0.00376336 0.008243243 0.03018437
0.043849874 0.012481694 -0.065039575 0.0026740804 -0.0147848725 0.002459251 0.008651964 -0.04097957
-0.057571582 0.0047138655 0.015216485 0.026285581 -0.019125476 0.053406633 0.013929501 -0.027462885
-0.026184035 0.005085981 -0.044375297 -0.012103558 -0.038060408 0.04786349 -0.053617306 -0.019967763
0.020714737 -0.046080828 0.032981258 -0.050423138 0.009814723 -0.01851309 -0.032256037 -0.019855678
0.015961647 0.053246096 0.05308712 0.037792653 0.048417266 -0.03179439 -0.05301674 0.0070891846
0.00044190843 0.015143291 0.026660055 0.045754276 0.03387516 -0.031789314 0.040390648 -0.02245541
-0.034649357 0.005672947 -0.023283126 -0.050310716 0.013244018 -0.013343433 -0.030257339 -0.021485247
0.060904093 0.05228283 0.037640437 -0.04827854 -0.03255713 -0.01058238 -0.012655169 -0.0577581
0.0010500797 -0.0406981 0.0150493365 -0.015570879 -0.0152518125 0.041023284 -0.04021117 -0.040283024
-0.011251964 0.021185622 0.018073283 -0.059680063 -0.025525115 0.05395723 -0.021685727 -0.034137957
-0.008127062 0.025310993 -0.027535204 0.019183364 0.01287052 0.026636688 -0.004574083 -0.020601269
0.007994622 0.05306276 0.036553495 -0.048658535 -0.045592453 0.02263686 0.014693461 -0.029790342
-0.063796066 -0.028479114 -0.04146963 -0.043725535 0.010596544 -0.02217676 -0.008867761 -0.012228894
0.05377972 0.06206397 -0.017455012 -0.012113707 0.0220524 0.04356756 -0.06173173 -0.009629123
0.0056320224 0.023782037 0.025827872 -0.0026286095 0.032039896 -0.0008090362 0.014875328 -0.0034658774
-0.03602979 -0.030971345 -0.022331554 -0.008385083 0.038522743 0.0014660507 -0.052383848 -0.015450959
-0.05909068 0.047055405 -0.019663988 -0.048401624 -0.07009684 -0.05019375 -0.0031168123 -0.021835336
0.010335249 -0.05232644 0.055690058 -0.0010900153 -0.04677856 -0.02721058 -0.054332767 -0.008781783
0.04306083 -0.01587643 -0.05258981 0.0588174 -0.0126946345 0.053527627 -0.0062829293 -0.01859092
-0.053239375 0.022356614 0.0073513384 -0.033794288 0.046664685 -0.031414106 0.03849487 -0.029341802
0.046605654 -0.05207429 -0.0019734278 0.0094521735 -0.010261856 0.046317846 -0.017727265 -0.042566523
-0.03902973 -0.055593625 -0.018057719 -0.048714347 0.025275402 0.010998122 0.044056065 0.019185962
-0.043973915 -0.035390913 -0.03657466 0.0028610786 -0.06887674 0.041610934 -0.021456795 -0.047742926
-0.027942017 -0.0061310604 0.0063327625 0.014279679 0.042539533 -0.023766506 0.0066115716 -0.00057233125
-0.025598595 -0.0445524 0.029100455 -0.04571919 -0.056013353 -0.026553879 0.042557724 0.027166866
-0.0004247441 0.022185214 0.027599057 0.0054133385 0.03876005 0.037976082 -0.006631702 0.054863185
-0.05592366 -0.05416663 -0.0163189 0.03372472 0.004202299 -0.012485494 -0.02072037 0.023821436
00000000: b4b8 82bd 1cb4 b53c eaa4 103d aa28 553d
00000010: 5f33 383b d0cd 27bd 9a87 91bc 70ad e03c
00000020: 7029 a9bb 6a9f 20bd 9553 3c3b 69e8 09bd
00000030: 1e4a 69bd b3ae 273c c066 f5bb 1568 443d
00000040: d41f aa3c 140a 423d 7d2a 623d 187a 1dbd
00000050: 907e 0fbd e866 fbbc e4c5 27bd 8900 b53c
00000060: 26f3 35bd ff80 71bd 9422 383d e455 053d
00000070: 6cd2 87bc 7dca 9abc 74cb a73c 46a1 0abc
00000080: 8890 22bc ac0f 14bd 62f8 27bd 226f 45bc
00000090: 00ae c3bb b4a2 763b ab0e 073c 3645 f73c
000000a0: ed9b 333d 0580 4c3c 7833 85bd a03f 2f3b
000000b0: 403c 72bc 632b 213b f8c0 0d3c 32da 27bd
000000c0: 2ed0 6bbd c576 9a3b 904e 793c dc54 d73c
000000d0: 08ad 9cbc eac0 5a3d 9038 643c d8f9 e0bc
000000e0: e77f d6bc 4da8 a63b dfc2 35bd 004e 46bc
000000f0: 3be5 1bbd 820c 443d d29d 5bbd 6f93 a3bc
00000100: f4b1 a93c 40bf 3cbd 5b17 073d 7e88 4ebd
00000110: efcd 203c c4a8 97bc e81e 04bd 60a8 a2bc
00000120: 00c2 823c 9418 5a3d e171 593d 78cc 1a3d
00000130: 2f51 463d d63a 02bd 1528 59bd 644c e83b
00000140: f2af e739 911b 783c 3066 da3c d668 3b3d
00000150: aec0 0a3d 8335 02bd aa70 253d 68f4 b7bc
00000160: 7cec 0dbd 21e4 b93b 41bc bebc 9c12 4ebd
00000170: 70fd 583c 6a9e 5abc 3dde f7bc d401 b0bc
00000180: 9276 793d 8526 563d dc2c 1a3d b8bf 45bd
00000190: a05a 05bd b861 2dbc a057 4fbc c293 6cbd
000001a0: d4a2 893a 0db3 26bd 7e91 763c 001d 7fbc
000001b0: bde2 79bc 0808 283d 78b4 24bd d0ff 24bd
000001c0: 285a 38bc 788d ad3c 6c0e 943c 1573 74bd
000001d0: 0c1a d1bc 4202 5d3d 44a6 b1bc 3ed4 0bbd
000001e0: 5e27 05bc 0059 cf3c 8291 e1bc 6e26 9d3c
000001f0: e0de 523c 2f35 da3c 30e2 95bb fec3 a8bc
00000200: e0fb 023c 5658 593d 1eb9 153d 2c4e 47bd
00000210: 27bf 3abd f070 b93c d8bc 703c e00a f4bc
00000220: 83a7 82bd 084d e9bc 0fdc 29bd 8c19 33bd
00000230: 209d 2d3c 09ac b5bc 164a 11bc b35b 48bc
00000240: 2048 5c3d ca36 7e3d d0fd 8ebc 9278 46bc
00000250: 3ca7 b43c e673 323d 69da 7cbd 78c3 1dbc
00000260: d48c b83b 8cd2 c23c f994 d33c c044 2cbb
00000270: 443c 033d 8015 54ba a6b7 733c c623 63bb
00000280: f993 13bd 9eb7 fdbc aaf0 b6bc 9661 09bc
00000290: 06ca 1d3d 8028 c03a 7290 56bd 0526 7dbc
000002a0: 1209 72bd 2bbd 403d 5f16 a1bc c840 46bd
000002b0: ef8e 8fbd f697 4dbd 6f43 4cbb 05e0 b2bc
000002c0: 2d55 293c 4054 56bd 421b 643d d8de 8eba
000002d0: e09a 3fbd b9e8 debc 098c 5ebd 78e1 0fbc
000002e0: 8e60 303d 490f 82bc 6a68 57bd 84ea 703d
000002f0: 28fd 4fbc c93f 5b3d 08e1 cdbb fc4b 98bc
00000300: 8811 5abd 3825 b73c 7fe3 f03b e16b 0abd
00000310: 7823 3f3d 14ac 00bd ccac 1d3d 385e f0bc
00000320: 92e5 3e3d da4b 55bd a054 01bb 4add 1a3c
00000330: 5821 28bc c8b7 3d3d c538 91bc 3c5a 2ebd
00000340: a3dd 1fbd 24b6 63bd c8ed 93bc b288 47bd
00000350: 5c0e cf3c 7831 343c 2274 343d e12b 9d3c
00000360: fe1d 34bd 10f6 10bd 50cf 15bd ef80 3b3b
00000370: 400f 8dbd 3a70 2a3d 29c6 afbc 168e 43bd
00000380: a8e6 e4bc 10e7 c8bb 1083 cf3b 51f5 693c
00000390: ef3d 2e3d fab1 c2bc e2a5 d83b 8008 16ba
000003a0: 25b4 d1bc 947c 36bd 1464 ee3c 0c44 3bbd
000003b0: 426e 65bd 8587 d9bc 0251 2e3d 0c8d de3c
000003c0: 30b0 deb9 c4bd b53c 6b17 e23c 6062 b13b
000003d0: dcc2 1e3d cf8c 1b3d c04e d9bb 38b8 603d
000003e0: 3510 65bd d4dd 5dbd 37af 85bc ef22 0a3d
000003f0: 70b3 893b f58f 4cbc c4bd a9bc 2c25 c33c

main_model.hiddenlayer_0.bias f4 [256]
-0.03561359 -0.049895532 0.0153221395 0.0042040753 -0.0046374393 0.020975959 -0.048720468 0.015848309
0.036460724 -0.014408709 0.022893516 -0.061046496 -0.024528729 0.020179968 0.056012496 0.054059714
-0.055930912 0.015147747 -0.053753123 0.007926132 -0.0067583695 0.049217448 -0.033235203 0.061747324
0.037247892 0.033172794 -0.030039113 -0.047019634 0.05472269 0.1445449 5.6824447e-05 0.0579025
0.007809523 -0.03829095 0.006899568 -0.03312671 0.0027861304 -0.057391517 0.047198463 -0.05699096
0.16593112 -0.04914701 0.050193306 -0.009958223 0.02899825 0.20246862 -0.06693016 0.020686138
-0.007220305 -0.010500815 0.014041072 -0.03514323 0.022536922 -0.010426256 -0.023569524 -0.009440624
0.016628288 -0.029795386 -0.018246524 -0.017944295 -0.009362187 0.047024637 -0.01196031 -0.053986635
0.013029871 -0.0283909 -0.033779185 -0.053479947 0.011710352 -0.05337216 0.045832913 0.1223301
0.019594606 -0.041352883 0.020985369 -0.00044016333 -0.037170388 0.011240257 0.033234026 0.029584406
-0.06614356 0.08316364 0.040542867 -0.026583068 0.042572305 -0.067820616 0.0101729585 0.056686923
-0.030959109 0.009334374 -0.030317463 -0.055070795 0.033132978 0.0855389 -0.008833511 0.00962429
-0.00666113 -0.05792778 -0.028881818 -0.019452697 -0.011708789 -0.04686794 0.13040736 -0.06025235
-0.008732984 -0.037982978 -0.06119986 -0.053115673 0.0017723552 -0.018317647 -0.046826914 0.13993126
0.057603136 0.010607003 -0.055727992 0.03972887 0.05991317 0.051368527 -0.034234438 0.016488692
0.19112626 -0.022728998 -0.034189448 0.15433791 0.0541704 0.052504614 0.012727171 0.03393072
0.04602526 -0.0028126836 0.05043164 0.030985951 -0.0029339332 -0.05744698 0.026607612 -0.058485195
0.0022039025 0.11699807 0.0345772 0.06578446 -0.020668227 -0.0076917917 0.064000815 0.03684053
0.055458944 0.029764663 0.034549806 0.1592683 -0.02681797 -0.0564659 0.04076595 0.03230475
0.0528925 0.023348182 0.048431415 -0.04544301 0.037521653 0.045202192 -0.06114149 0.0024708244
0.06618636 -0.03725555 0.02229493 0.07530067 -0.0057384446 -0.0008516277 -0.0026788064 0.0031691818
0.18020222 -0.004668665 -0.0072697923 -0.05462288 -0.049504004 -0.041709628 -0.035791676 0.046829186
-0.0068153143 0.03334741 0.04362027 -0.040249694 -0.01573101 -0.023220574 0.05273543 0.016777817
0.04251744 0.02664794 -0.014975865 -0.011159799 0.024209863 0.0020875789 -0.0011001237 0.024685146
0.05483684 0.016750006 -0.025153432 0.012929732 0.019326136 0.019765029 0.045216482 0.03574512
-0.048734393 0.10026243 0.15322964 -0.052306846 -0.014743432 -0.03892244 -0.06315057 -0.0512498
0.045180105 0.03130431 0.048839293 -0.01286787 -0.055542275 0.010948271 -0.026344888 -0.040621404
-0.0017436421 -0.023960736 0.0073114745 0.015211256 0.009117087 0.036219247 -0.015696507 0.01149256
-0.041645583 0.03794152 0.17285131 0.01622831 0.043510564 0.027056701 -0.062301133 -0.0016641623
-0.005807162 0.050899364 0.021057654 -0.0033568817 0.058750916 0.006111391 -0.051878605 0.036180668
0.02534794 -0.035298415 0.014319208 -0.04379509 0.043408446 -0.0549371 -0.014480056 0.02757834
0.12147868 -0.02247594 0.040897526 0.0064511155 0.060792953 -0.01776398 -0.011958805 -0.038248964
00000000: 8edf 11bd 425f 4cbd b609 7b3c 57c2 893b
00000010: a9f5 97bb c6d5 ab3c 1d8f 47bd 50d4 813c
00000020: d757 153d 8112 6cbc 2f8b bb3c e40b 7abd
00000030: 79f0 c8bc 7650 a53c 5c6d 653d b86d 5d3d
00000040: d017 65bd 412e 783c 3c2c 5cbd 9bdc 013c
00000050: 5075 ddbb 3c98 493d a321 08bd c3ea 7c3d
00000060: 3f91 183d 32e0 073d 9614 f6bc a997 40bd
00000070: e624 603d 9403 143e c956 6e38 2c2b 6d3d
00000080: 07e7 ff3b f9d6 1cbd c515 e23b e0af 07bd
00000090: 8397 363b 5e13 6bbd 2d53 413d 5a6f 69bd
000000a0: d9e9 293e 604e 49bd 7f97 4d3d d127 23bc
000000b0: bd8d ed3c ef53 4f3e ae12 89bd fa75 a93c
000000c0: 4f98 ecbb 9c0b 2cbc 860c 663c 59f2 0fbd
000000d0: 5a9f b83c e3d2 2abc e014 c1bc d9ac 1abc
000000e0: 0c38 883c 7415 f4bc bc79 95bc eaff 92bc
000000f0: dc63 19bc e89c 403d 2df5 43bc 1721 5dbd
00000100: 3d7b 553c 0894 e8bc 0b5c 0abd ca0d 5bbd
00000110: c7dc 3f3c c49c 5abd 4bbb 3b3d 3488 fa3d
00000120: de84 a03c a461 29bd 82e9 ab3c b9c5 e6b9
00000130: fa3f 18bd 0e29 383c 6720 083d ff5a f23c
00000140: 4676 87bd b351 aa3d 4710 263d bcc4 d9bc
00000150: 4c60 2e3d 89e5 8abd 7bac 263c 8c30 683d
00000160: f59d fdbc 34ef 183c 545c f8bc ea91 61bd
00000170: 72b6 073d 052f af3d 6eba 10bc 33af 1d3c
00000180: 9c45 dabb ae45 6dbd 9099 ecbc 435b 9fbc
00000190: 38d6 3fbc 99f8 3fbd 8289 053e 2bcb 76bd
000001a0: ca14 0fbc 0a94 1bbd b4ac 7abd d28f 59bd
000001b0: 5f4e e83a e40e 96bc 94cd 3fbd 244a 0f3e
000001c0: 44f1 6b3d ffc8 2d3c 0943 64bd bdba 223d
000001d0: 8367 753d ce67 523d 6939 0cbd 4b13 873c
000001e0: 9ab6 433e 2a32 babc 3c0a 0cbd c20a 1e3e
000001f0: c8e1 5d3d 140f 573d a085 503c f0fa 0a3d
00000200: fc84 3c3d 0055 38bb 6891 4e3d 40d6 fd3c
00000210: 3b47 40bb 864d 6bbd 35f8 d93c 2c8e 6fbd
00000220: 596f 103b af9c ef3d d2a0 0d3d 01ba 863d
00000230: 6a50 a9bc 6d0b fcbb dc12 833d 18e6 163d
00000240: eb28 633d 06d5 f33c 1984 0d3d 3b17 233e
00000250: 5cb1 dbbc ca48 67bd 32fa 263d fc51 043d
00000260: cea5 583d b044 bf3c 0560 463d 7322 3abd
00000270: 4eb0 193d ef25 393d 806f 7abd 8eed 213b
00000280: b78c 873d 4799 18bd dba3 b63c 3d37 9a3d
00000290: 9009 bcbb c43f 5fba ea8e 2fbb 0cb2 4f3b
000002a0: ee86 383e 9afb 98bb 7037 eebb 3ebc 5fbd
000002b0: b6c4 4abd b7d7 2abd 4b9a 12bd f6cf 3f3d
000002c0: 0053 dfbb 4b97 083d 2bab 323d dddc 24bd
000002d0: 52de 80bc 1339 bebc 1b01 583d a271 893c
000002e0: c426 2e3d c84c da3c 555d 75bc 97d7 36bc
000002f0: c353 c63c c3cf 083b 0732 90ba 8138 ca3c
00000300: 989c 603d 4f37 893c 920e cebc 3ad7 533c
00000310: d851 9e3c 45ea a13c eb34 393d 7a69 123d
00000320: b79d 47bd 6456 cd3d 3be8 1c3e b43f 56bd
00000330: 708e 71bc 236d 1fbd 1655 81bd 4feb 51bd
00000340: c60e 393d f338 003d b60b 483d c2d3 52bc
00000350: 4c80 63bd 6060 333c 3cd1 d7bc a162 26bd
00000360: ec8a e4ba 4e49 c4bc 1895 ef3b a238 793c
00000370: d65f 153c a25a 143d f695 80bc 4a4b 3c3c
00000380: 8f94 2abd 9168 1b3d efff 303e 3cf1 843c
00000390: 2238 323d 04a6 dd3c 792f 7fbd 0520 daba
000003a0: 014a bebb da7b 503d 1a81 ac3c 21ff 5bbb
000003b0: cda4 703d 1042 c83b a97e 54bd 2e32 143d
000003c0: 7ca6 cf3c 1295 10bd 1d9b 6a3c 7b62 33bd
000003d0: 0ecd 313d b905 61bd c23d 6dbc f9eb e13c
000003e0: d0c9 f83d 761f b8bc 2a84 273d e163 d33b
000003f0: 0802 793d c485 91bc ddee 43bc f2aa 1cbd

main_model.OutputLayer.weight f4 [3, 256]
0.004652314 0.022543868 -0.030399755 -0.046378482 0.026808668 -0.020820508 0.024773708 -0.0059403093
-0.057504594 -0.031647246 -0.009856238 -0.04166863 -0.05478277 -0.051645532 0.010522832 0.04942803
-0.036138065 0.021240178 0.057085898 0.0026054757 -0.034197718 0.048685767 -0.0269807 0.049797133
0.05487854 -0.031960234 0.014012092 -0.047216453 0.03969947 0.018823616 0.008130014 0.003693586
-0.046452016 -0.011675095 -0.02163546 0.025942914 -0.016964586 0.029927317 0.010080897 -0.04007072
-0.034333363 0.010411322 0.051742252 0.06038092 -0.031197172 0.03673195 -0.039862283 -0.0030893662
0.03640965 0.039551195 -0.042065106 0.016496668 0.022870256 0.01755533 -0.018061563 0.024826571
-0.05313532 -0.0020471998 0.048469447 -0.023903904 -0.045366414 0.045227632 -0.009125301 -0.026259484
-0.018906942 0.050103083 -0.014489394 -0.0048499857 -0.03787637 -0.03843995 -0.014413232 -0.019024111
-0.03703917 -0.006494499 -0.014233159 -0.038161382 -0.05852899 -0.019052915 -0.021520596 0.054716364
0.0002748788 0.021197477 -0.007888831 -0.0076137045 -0.015323711 -0.026044954 0.040232778 0.039967384
-0.021647573 0.0013858217 -0.00791961 0.05510625 -0.010138675 -0.046036176 -0.055291012 0.018835234
0.035768718 -0.033330306 0.061850518 0.01579404 0.05651184 0.031631388 -0.020003073 -0.00375436
-0.038633216 0.0189948 0.016288063 0.045777638 -0.02887618 -0.05858606 -0.018395208 -0.023934467
-0.029677425 -0.013853594 -0.04624532 -0.013311404 -0.041419636 -0.036830675 0.03374319 0.040343143
0.009262334 0.036257382 -0.00751023 -0.031125488 0.048564382 0.0042135073 0.045947596 0.006797418
-0.007959698 -0.03193537 -0.008475289 -0.008095644 -0.0013483445 -0.009618157 -0.009804994 0.061894886
-0.033621766 -0.046195365 -0.044452358 0.039304055 0.031382903 0.03968161 -0.01768722 -0.045486256
0.022996303 0.0032760662 -0.03389932 -0.032570694 -0.04718022 0.037561208 -0.01565159 0.030810308
-0.018082729 -0.020954765 -0.051030893 0.0130373025 0.0004418856 -0.03241742 0.008490865 0.008476165
-0.0045477836 -0.05056304 0.05076694 0.014981197 0.038062207 -0.04316816 -0.024633914 -0.004389106
-0.033457145 0.061838947 0.014723159 -0.057255052 0.00677792 0.014228514 0.0195473 0.027864564
-0.051333703 0.025366051 0.046228662 0.0319819 0.025265027 -0.0034727822 -0.025214061 -0.0008642252
-0.04154337 0.020312794 -0.0023105156 -0.055811554 0.05114165 0.016500978 0.026252365 -0.038654163
0.046320416 -0.023853077 -0.014126503 -0.025590198 0.03549909 0.05471522 0.009029417 0.025369722
-0.004625939 -0.00463277 0.048539486 -0.021695934 -0.037716314 -0.025285361 -0.06608204 0.049647037
-0.02333601 -0.05105357 -0.012570702 -0.03797404 0.013543273 0.010793053 0.029195368 0.007523814
-0.03293324 -0.032872777 0.008185931 -0.02948663 0.034698475 -0.027108466 -0.00017105418 -0.046556816
-0.013065167 -0.008506629 0.041105855 -0.046675 0.02084435 0.021309203 -0.033080958 -0.031911153
-0.020091651 0.029388726 -0.02375085 -0.046574622 -0.026937464 0.03215649 -0.04062514 0.039189797
0.004949011 0.013353683 -0.0016967532 0.010254598 -0.010359648 0.05365239 -0.05073652 0.046395563
-0.060311068 0.042522393 -0.049369626 -0.037143145 0.06152881 -0.006284438 -0.05555068 -0.059034355
00000000: 7072 983b ebad b83c e808 f9bc 5df7 3dbd
00000010: da9d db3c c58f aabc 3bf2 ca3c eda6 c2bb
00000020: f089 6bbd 8ba0 01bd 0f7c 21bc baac 2abd
00000030: e663 60bd 448a 53bd f567 2c3c 0c75 4a3d
00000040: 8205 14bd e2ff ad3c e7d2 693d a1c0 2a3b
00000050: e812 0cbd ba6a 473d a106 ddbc 14f8 4b3d
00000060: 52c8 603d bce8 02bd f992 653c 0a66 41bd
00000070: e99b 223d fc33 9a3c c033 053c 1710 723b
00000080: 7844 3ebd e648 3fbc d93c b1bc 3c86 d43c
00000090: 51f9 8abc 222a f53c 592a 253c 3221 24bd
000000a0: 24a1 0cbd 4094 2a3c afef 533d fc51 773d
000000b0: 3691 ffbc 3e74 163d a246 23bd f776 4abb
000000c0: 4922 153d 6f00 223d 764c 2cbd 0524 873c
000000d0: 675a bb3c 32d0 8f3c d8f5 93bc 1861 cb3c
000000e0: 6ca4 59bd 502a 06bb e687 463d 1fd2 c3bc
000000f0: 22d2 39bd 9c40 393d 4982 15bc 211e d7bc
00000100: bbe2 9abc e438 4d3d ec64 6dbc a1ec 9ebb
00000110: 4124 1bbd 3673 1dbd 7a25 6cbc 74d8 9bbc
00000120: 62b6 17bd cecf d4bb 3232 69bc 1c4f 1cbd
00000130: 18bc 6fbd dc14 9cbc f64b b0bc 441e 603d
00000140: 9c1d 9039 55a6 ad3c 2840 01bc 627c f9bb
00000150: 4d10 7bbc 3a5c d5bc 20cb 243d d7b4 233d
00000160: 4056 b1bc 76a4 b53a 40c1 01bc 17b7 613d
00000170: af1c 26bc 6e90 3cbd d478 62bd 594c 9a3c
00000180: 3882 123d 5c85 08bd f856 7d3d 8162 813c
00000190: f678 673d ea8f 013d 7cdd a3bc b50b 76bb
000001a0: dd3d 1ebd fc9a 9b3c 8b6e 853c 5581 3b3d
000001b0: bd8d ecbc f0f7 6fbd 8cb1 96bc 3712 c4bc
000001c0: 121e f3bc 2ffa 62bc bc6b 3dbd 1318 5abc
000001d0: a3a7 29bd c3db 16bd 4d36 0a3d da3e 253d
000001e0: 0bc1 173c 9f82 143d 6018 f6bb e1fa febc
000001f0: 72eb 463d 7611 8a3b 8c33 3c3d e0bc de3b
00000200: 6569 02bc aace 02bd f0db 0abc 98a3 04bc
00000210: efba b0ba 7995 1dbc 20a5 20bc 7e85 7d3d
00000220: fab6 09bd 5a37 3dbd ad13 36bd 4afd 203d
00000230: 5c8b 003d 2f89 223d cae4 90bc cc4f 3abd
00000240: be62 bc3c 45b3 563b 03da 0abd d968 05bd
00000250: 0c40 41bd c8d9 193d c337 80bc e665 fc3c
00000260: 3b22 94bc 54a9 abbc c505 51bd 699a 553c
00000270: e2ac e739 21c8 04bd 451d 0b3c 9ddf 0a3c
00000280: 9305 95bb 311b 4fbd fff0 4f3d b273 753c
00000290: 1ee7 1b3d 19d1 30bd 10cd c9bc 7dd2 8fbb
000002a0: 5c0a 09bd d64a 7d3d 6839 713c 4684 6abd
000002b0: 5019 de3b b71e 693c a921 a03c 3a44 e43c
000002c0: 4a43 52bd 77cc cf3c 445a 3d3d 74ff 023d
000002d0: 9af8 ce3c 9e97 63bb b88d cebc 2c8d 62ba
000002e0: 6129 2abd 0467 a63c 056c 17bb a89a 64bd
000002f0: e879 513d 0f2d 873c 330f d73c d453 1ebd
00000300: 7aba 3d3d 8767 c3bc d972 67bc 89a2 d1bc
00000310: 7e67 113d 111d 603d 1ff0 133c 2ad4 cf3c
00000320: 3095 97bb 7ece 97bb 57d1 463d acbb b1bc
00000330: 6c7c 1abd 3f23 cfbc 0556 87bd b15a 4b3d
00000340: 292b bfbc 8c1d 51bd 58f5 4dbc ab8a 1bbd
00000350: 9be4 5d3c 58d5 303c 202b ef3c 548a f63b
00000360: 01e5 06bd 9ba5 06bd 481e 063c f28d f1bc
00000370: fd1f 0e3d 9312 debc 025d 33b9 5cb2 3ebd
00000380: 480f 56bc 635f 0bbc 9d5e 283d 492e 3fbd
00000390: c5c1 aa3c a390 ae3c e67f 07bd 45b5 02bd
000003a0: 3f97 a4bc a0c0 f03c 2591 c2bc 08c5 3ebd
000003b0: f5ab dcbc 86b6 033d 8c66 26bd 7b85 203d
000003c0: 502b a23b 68c9 5a3c 9765 deba e702 283c
000003d0: 83bb 29bc 9cc2 5b3d 19d1 4fbd 4609 3e3d
000003e0: bd08 77bd f62b 2e3d ce37 4abd 6923 18bd
000003f0: a205 7c3d b0ed cdbb 1c89 63bd 02ce 71bd

main_model.OutputLayer.bias f4 [3]
0.014459769 0.00079849304 0.03816482
00000000: abe8 6c3c f651 513a b752 1c3d
